ckpt/best_GAT_model.pt (torch, 19799 bytes, 13 tensors)

convs.0.att f4 [64, 1]
0.020741738 0.004163214 -0.28736818 0.22576873 0.12760615 -0.112544656 -0.020081604 0.10598974
-0.2708786 0.23038551 0.14785743 0.19810203 -0.02615533 -0.34749946 -0.21067251 -0.15432823
0.1584056 0.350561 -0.17157729 -0.08768468 -0.3236523 0.12177187 0.016880663 0.2631332
-0.16051634 -0.170373 -0.11363668 -0.2742569 0.13557501 -0.071648546 0.21307537 -0.29660428
-0.13513732 -0.3298289 0.19471563 -0.48736015 -0.09009658 -0.10937948 0.32934916 -0.36992523
-0.4384669 -0.20579228 0.06843908 0.19884631 0.33323595 0.29015714 0.22336736 0.086337306
-0.41394866 -0.16960531 -0.10664477 -0.058472797 0.1088113 0.28560856 0.1347624 -0.02638634
0.10963232 -0.06664488 -0.07832387 -0.15919177 -0.13908492 0.26201013 0.015589267 -0.08946924
00000000: 94ea a93c 926b 883b ec21 93be eb2f 673e
00000010: 30ab 023e d07d e6bd 2d82 a4bc 2611 d93d
00000020: 9ab0 8abe 2eea 6b3e f067 173e 42db 4a3e
00000030: b443 d6bc 73eb b1be 89ba 57be 3808 1ebe
00000040: 1435 223e bb7c b33e f5b1 2fbe 0794 b3bd
00000050: c1b5 a5be 8863 f93d 5149 8a3c 65b9 863e
00000060: 655e 24be 4276 2ebe 59ba e8bd 676b 8cbe
00000070: 2dd4 0a3e 79bc 92bd 6e30 5a3e 84dc 97be
00000080: 7061 0abe 55df a8be 8963 473e 4587 f9be
00000090: 8e84 b8bd 5902 e0bd 74a0 a83e d766 bdbe
000000a0: bc7e e0be 36bb 52be ca29 8c3d 5e9e 4b3e
000000b0: e79d aa3e 7a8f 943e 6aba 643e 9dd1 b03d
000000c0: 14f1 d3be 04ad 2dbe 9368 dabd 2c81 6fbd
000000d0: 75d8 de3d 493b 923e 28ff 093e 2a28 d8bc
000000e0: e986 e03d 1c7d 88bd 4468 a0bd 2b03 23be
000000f0: 476c 0ebe 3126 863e 206a 7f3c a63b b7bd

convs.0.bias f4 [32]
-0.013558782 0.066073924 0.0611863 0.08237325 -0.020803213 0.08609765 0.056991346 0.061498787
0.018807812 -0.04589023 0.07576908 -0.1166226 -0.16695514 0.01807389 0.00018273748 0.025303513
0.10379831 -0.014518998 -0.04586333 0.024463989 0.09895032 -0.00052262895 -0.043183055 -0.026980756
0.055863563 0.027944658 -0.10383425 -0.017019404 -0.064391464 -0.03210533 -0.049813453 -0.03700358
00000000: a725 5ebc c451 873d 7c9e 7a3d 4eb3 a83d
00000010: 806b aabc f753 b03d c26f 693d 27e6 7b3d
00000020: d712 9a3c 65f7 3bbd d22c 9b3d d4d7 eebd
00000030: 4af6 2abe b20f 943c 389d 3f39 5049 cf3c
00000040: 3594 d43d 17e1 6dbc 30db 3bbd b468 c83c
00000050: 77a6 ca3d 0901 09ba b7e0 30bd bf06 ddbc
00000060: 31d1 643d 32ec e43c 0da7 d4bd 476c 8bbc
00000070: acdf 83bd e180 03bd 3109 4cbd 1191 17bd

convs.0.lin.weight f4 [32, 9]
0.13675004 -0.29103082 0.22054689 0.06302625 0.014742352 0.16450281 0.027563667 -0.1014169
-0.13402961 -0.09298786 0.21356744 0.4366294 0.13380106 -0.16704492 -0.34353524 0.17806089
-0.07679262 0.06698232 -0.19716313 0.054217525 0.42288667 0.0627406 -0.12156984 0.289318
-0.09532225 0.1487751 -0.3091793 0.27145645 -0.22104043 0.69161546 -0.22469503 0.07256837
-0.03213666 -0.22099198 -0.09035275 0.24417515 0.32510623 0.21605074 -0.19385709 -0.14187269
-0.08142586 -0.03426295 -0.01658629 0.16426614 -0.17007443 -0.5216759 0.11884052 0.16509983
0.12435966 0.20551902 0.13166626 -0.23761427 -0.19172744 0.19789119 0.10301569 0.39286444
0.15809514 -0.13144265 0.16056712 0.13385336 -0.14391786 0.0993862 -0.0013237181 0.007625351
-0.14819092 0.14746998 -0.27786133 -0.25335145 -0.09618121 -0.0018320231 0.0791218 -0.06251163
0.17154583 -0.314377 0.2132603 -0.22723532 0.20790836 -0.22296251 -0.1080355 -0.193838
0.09943712 0.4811244 -0.37442136 -0.3479549 0.20149651 -0.04063388 -0.21051438 0.29235163
0.23281237 0.16121306 0.06015662 0.25816178 0.36226073 0.04682693 0.32724625 0.21655148
-0.14506128 0.13864535 -0.11618989 -0.2454093 -0.2719288 -0.6205783 0.29211828 -0.07693104
0.042376015 -0.046592675 -0.18040115 0.1637138 0.09797544 -0.2972025 -1.0381975 -0.08966676
-0.22628525 0.09020386 -0.14353591 0.02569573 -0.09244337 0.16879359 0.36405215 0.18580471
-0.32786304 -0.14621533 0.35893625 -0.15014833 -0.18437663 -0.25920138 -0.5175083 -0.04581396
-0.2564631 0.22623546 0.01137526 -0.25651285 0.1725878 -0.08726645 0.32985118 -0.2417649
-0.00032097634 0.17270455 -0.08018944 -0.1390713 0.06222399 -0.025290778 -0.046942763 0.19926988
-0.27972427 0.12095245 0.67335355 -0.038550533 0.09984147 -0.2033902 0.31032613 -0.17234424
0.32772037 0.059760716 0.19480027 0.23079978 0.36787534 -0.23132946 -0.31757802 0.23833667
-0.0055025136 -0.013463407 -0.018473987 -0.05882266 0.0075799334 0.094889864 -0.12248344 0.10645397
0.02710226 -0.13099821 -0.29978353 -0.06908797 -0.079220146 0.18398461 0.06936872 0.15882763
0.22700657 -0.12849197 0.1292404 -0.27510324 -0.03658936 0.26396927 0.29423842 -0.33997202
0.04860173 0.20853056 0.18749684 -0.22321387 -0.2368767 -0.26261663 -0.007446051 -0.686085
0.333906 0.3147064 -0.049775857 -0.11847275 0.0102073215 -0.20784293 0.07697155 -0.1302852
-0.35286257 -0.08393873 -0.30585903 -0.09967397 -0.08423306 -0.18025261 0.18202065 -0.3239193
-0.08363503 -0.3186655 -0.019401016 0.17144084 -0.04051462 -0.24290545 0.21590143 0.23819503
-0.39316973 -0.23286533 -0.005665679 -0.34947526 -0.09077258 0.3261868 0.075667985 -0.047309943
0.17871402 -0.17414345 -0.23189461 -0.09078913 0.1580354 -0.20667677 0.19594929 -0.029032433
0.31532568 -0.16177966 0.20045398 -0.39557084 -0.13832967 0.09860271 0.15385863 -0.0712962
0.24176405 -0.13822402 -0.18211888 -0.15294427 -0.21162897 -0.34210494 -0.09713382 -0.18749838
-0.083768085 0.31949493 0.22599201 0.25386703 -0.09749828 -0.23289816 -0.1918553 0.30920967
00000000: 3408 0c3e fe01 95be 0bd7 613e e813 813d
00000010: e889 713c 6d73 283e 33cd e13c aab3 cfbd
00000020: 0f3f 09be 6b70 bebd 6cb1 5a3e e48d df3e
00000030: 2503 093e d30d 2bbe dae3 afbe 9855 363e
00000040: 7345 9dbd 072e 893d 22e5 49be 3213 5e3d
00000050: 9a84 d83e 257e 803d 9cf9 f8bd 7d21 943e
00000060: 5038 c3bd 8058 183e c04c 9ebe 57fc 8a3e
00000070: 6c58 62be b60d 313f 7416 66be ba9e 943d
00000080: bba1 03bd b94b 62be dd0a b9bd 0d09 7a3e
00000090: 5374 a63e 683c 5d3e 7982 46be 1347 11be
000000a0: 9ac2 a6bd 4f57 0cbd f9df 87bc 6235 283e
000000b0: fe27 2ebe 8d8c 05bf a962 f33d ee0f 293e
000000c0: 47b0 fe3d 9473 523e 85d3 063e 2851 73be
000000d0: 3354 44be fda3 4a3e e4f9 d23d 8725 c93e
000000e0: b1e3 213e e798 06be b56b 243e db10 093e
000000f0: 345f 13be fe8a cb3d 9c80 adba 15de f93b
00000100: 5cbf 17be 5f02 173e d743 8ebe 48b7 81be
00000110: a7fa c4bd 7f20 f0ba 9c0a a23d 1906 80bd
00000120: b6a9 2f3e 06f6 a0be e860 5a3e 60b0 68be
00000130: eee5 543e 4950 64be b741 ddbd 787d 46be
00000140: b0a5 cb3d f055 f63e 28b4 bfbe 2527 b2be
00000150: 1a55 4e3e b66f 26bd 1591 57be 1daf 953e
00000160: 5e66 6e3e 0915 253e ca66 763d c82d 843e
00000170: 3d7a b93e 98cd 3f3d d28c a73e acbf 5d3e
00000180: f28a 14be 0cf9 0d3e f7f4 edbd 934c 7bbe
00000190: 403a 8bbe 38de 1ebf 8790 953e 058e 9dbd
000001a0: 7992 2d3d f6d7 3ebd 14bb 38be 97a4 273e
000001b0: 59a7 c83d ed2a 98be a8e3 84bf 35a3 b7bd
000001c0: 52b7 67be cdbc b83d 14fb 12be da7f d23c
000001d0: f352 bdbd 3ad8 2c3e 0b65 ba3e 9743 3e3e
000001e0: aadd a7be 79b9 15be 7ec6 b73e 7cc0 19be
000001f0: 3acd 3cbe 0bb6 84be 6d7b 04bf 6ba7 3bbd
00000200: 224f 83be 45aa 673e 4c5f 3a3c a755 83be
00000210: dbba 303e c1b8 b2bd 41e2 a83e 3891 77be
00000220: b748 a8b9 76d9 303e 5c3a a4bd b568 0ebe
00000230: 95de 7e3d 9b2e cfbc 0e47 40bd 670d 4c3e
00000240: 0538 8fbe ebb5 f73d e660 2c3f 2ae7 1dbd
00000250: af79 cc3d 8545 50be 11e3 9e3e 027b 30be
00000260: f7ca a73e a7c7 743d b979 473e c756 6c3e
00000270: 285a bc3e a1e1 6cbe 9699 a2be 870e 743e
00000280: 6e4e b4bb 9f95 5cbc c256 97bc 08f0 70bd
00000290: 1761 f83b 9e55 c23d 99d8 fabd 8a04 da3d
000002a0: 8f05 de3c 6524 06be 3a7d 99be fe7d 8dbd
000002b0: 2c3e a2bd 7666 3c3e 3011 8e3d b6a3 223e
000002c0: 6974 683e 6693 03be 9857 043e 55da 8cbe
000002d0: bade 15bd fb26 873e 6ba6 963e d010 aebe
000002e0: 9c12 473d 0989 553e 2cff 3f3e 2d92 64be
000002f0: ce8f 72be b075 86be 01fe f3bb 44a3 2fbf
00000300: baf5 aa3e 3221 a13e c5e1 4bbd d7a1 f2bd
00000310: 9c3c 273c c7d4 54be 43a3 9d3d 7c69 05be
00000320: 67aa b4be 12e8 abbd 8e99 9cbe de21 ccbd
00000330: 6282 acbd 2494 38be 9f63 3a3e c0d8 a5be
00000340: d848 abbd 2028 a3be e1ee 9ebc 308e 2f3e
00000350: a8f2 25bd 35bc 78be 4415 5d3e 66e9 733e
00000360: 8b4d c9be 4074 6ebe 29a7 b9bb 6cee b2be
00000370: f9e6 b9bd f501 a73e d1f7 9a3d 12c8 41bd
00000380: cf00 373e a952 32be c875 6dbe a7ef b9bd
00000390: 08d4 213e 13a3 53be eea6 483e 6dd5 edbc
000003a0: 5e72 a13e 91a9 25be cf43 4d3e 4388 cabe
000003b0: 4ba6 0dbe 38f0 c93d 1e8d 1d3e be03 92bd
000003c0: ff90 773e 998a 0dbe 5f7d 3abe 6c9d 1cbe
000003d0: 44b5 58be 6128 afbe 19ee c6bd 93ff 3fbe
000003e0: 9a8e abbd d794 a33e 736a 673e dcfa 813e
000003f0: 2ead c7bd db7c 6ebe b775 44be bb50 9e3e

convs.1.att f4 [64, 1]
-0.17668135 0.09483797 0.1441834 -0.06451139 0.26126838 0.09043424 0.078154296 -0.33246475
-0.10441929 -0.08411414 0.06386273 -0.25362387 0.009023803 -0.32838652 0.28057295 -0.16122958
0.0713062 -0.09898259 -0.043527924 0.13115826 -0.22155565 0.31832036 -0.115915455 0.14096113
0.016445717 -0.081711695 -0.107020736 -0.21207288 -0.26686648 -0.13178086 0.112807885 -0.115446486
0.29974055 1.2201077 -0.039384037 -0.020270335 -0.8734743 -0.025754934 -0.30756438 0.69090253
0.35328928 0.5227457 0.019616364 -0.7434226 -0.58659047 -0.4872797 -0.66314393 -1.007873
-0.84681404 0.7100563 -0.13062245 0.66118073 -0.18047416 0.7290612 0.54457307 -0.11669164
-0.06301094 0.042424697 0.50434554 -0.62710583 -0.08792866 0.15397862 -0.45988366 0.7667628
00000000: f5eb 34be 693a c23d d0a4 133e 8c1e 84bd
00000010: f8c4 853e 9635 b93d 5c0f a03d d238 aabe
00000020: c8d9 d5bd 0944 acbd 77ca 823d fdda 81be
00000030: 93d8 133c 4722 a8be 42a7 8f3e 5e19 25be
00000040: fc08 923d 62b7 cabd 564a 32bd 5a4e 063e
00000050: 7cdf 62be e3fa a23e 1565 edbd 1d58 103e
00000060: 2bb9 863c 7658 a7bd b02d dbbd a229 59be
00000070: b9a2 88be 90f1 06be d207 e73d 356f ecbd
00000080: 9877 993e 7d2c 9c3f 2851 21bd f90d a6bc
00000090: 039c 5fbf 03fc d2bc 1479 9dbe fdde 303f
000000a0: 55e2 b43e aad2 053f 7fb2 a03c f250 3ebf
000000b0: cb2a 16bf ba7c f9be cdc3 29bf fc01 81bf
000000c0: cec8 58bf 40c6 353f e4c1 05be 2443 293f
000000d0: 38ce 38be c1a3 3a3f 2469 0b3f 07fc eebd
000000e0: e10b 81bd 85c5 2d3d ca1c 013f 028a 20bf
000000f0: f113 b4bd 92ac 1d3e df75 ebbe 914a 443f

convs.1.bias f4 [32]
-0.047600985 -0.06942418 0.10463232 -0.040598754 0.010063702 0.0036297292 -0.033814788 -0.033644546
-0.04459298 -0.058581136 0.031535637 0.013950089 0.123899125 0.050711334 0.09906827 0.09700431
0.1349363 -0.04935703 -0.030362798 -0.04696003 0.036358997 0.083850086 -0.0019844617 -0.06682724
-0.003480976 -0.10063349 -0.033953536 0.19082975 0.0016583283 0.017373497 0.085739546 -0.038009115
00000000: 40f9 42bd 442e 8ebd 7849 d63d e14a 26bd
00000010: 3ae2 243c c0e0 6d3b 6081 0abd ddce 09bd
00000020: 21a7 36bd c6f2 6fbd 832b 013d ea8e 643c
00000030: d3be fd3d b0b6 4f3d 4ee4 ca3d 32aa c63d
00000040: be2c 0a3e 992a 4abd 67bb f8bc 2959 40bd
00000050: 2ced 143d 98b9 ab3d be0d 02bb b8dc 88bd
00000060: 1621 64bb ee18 cebd dd12 0bbd e068 433e
00000070: 445c d93a dd52 8e3c 3798 af3d 72af 1bbd

convs.1.lin.weight f4 [32, 32]
-0.25110957 -0.11144636 -0.07016915 -0.15770638 -0.10594167 -0.09009452 0.09318278 -0.06697856
-0.18237303 -0.019711914 0.07428082 0.13782018 0.13638414 0.07245782 0.2180363 -0.20317265
0.070009656 0.1139965 -0.08407996 0.09385857 -0.273618 0.21257168 0.14401196 0.16158523
0.06770028 -0.11276427 0.043551426 0.0053948597 0.10891415 0.12513788 -0.05056287 0.0755884
-0.23883191 -0.27911207 -0.15811916 -0.23194012 0.12074071 -0.2724974 0.052230988 -0.1533267
-0.17008579 -0.187995 -0.06593965 0.054076023 0.110107854 0.015774827 0.0115562845 -0.26343027
-0.23572673 0.020159664 -0.09024449 0.17577617 -0.111582465 -0.13125381 -0.05364153 -0.08738774
0.19399193 -0.05486896 0.032685097 0.13919762 -0.0017281426 0.18583259 0.023082832 0.15620294
-0.09824249 0.050719943 0.0040497924 -0.28317976 -0.10164587 0.09449373 0.0690274 0.044716116
-0.1301432 -0.2945436 -0.09578878 0.14610408 -0.00763625 0.01934034 0.1077413 -0.1858929
0.026465159 -0.07656242 0.09081355 -0.06754399 -0.018819213 0.11894127 0.10917182 0.22027688
0.09856666 0.036727104 -0.06881453 -0.07538272 -0.017690646 -0.05152402 -0.02206225 0.016790431
-0.0057441555 0.23427886 0.061163593 0.03941771 -0.17136772 0.091535665 -0.20690206 -0.00928913
0.083830975 0.034570586 0.13998058 -0.028892605 -0.2521222 -0.113916725 -0.12691098 0.06839519
0.2608129 0.15441068 -0.023674408 0.10141014 -0.07260944 0.08377408 -0.013521079 -0.014911671
0.020856386 -0.0083939135 0.11060036 0.0052118767 -0.029825646 -0.19053657 -0.09993159 -0.10054206
-0.0192973 -0.0847422 -0.19293797 0.016607216 0.1079364 -0.17806533 0.061936304 -0.13977629
0.0045844656 -0.037454788 -0.3289486 0.028057475 0.34147716 0.09527256 0.073537156 -0.30451742
-0.26912773 0.16455269 0.07999346 0.07355768 0.06381567 0.09772593 0.14392851 -0.020193381
-0.093808815 0.12678719 0.027798442 0.22317122 -0.18267235 -0.044490814 -0.009741268 -0.042483028
-0.077005714 -0.23501192 0.115895845 -0.2954075 0.16172026 -0.12395846 0.15136108 -0.12734364
-0.024023464 -0.011967582 -0.069045894 0.3014603 -0.020174898 -0.056155257 -0.050596323 -0.13654381
-0.09452973 0.034667693 -0.04438485 0.059095595 -0.18773642 0.025677606 0.057148863 0.18429859
0.22853777 -0.07593356 0.24444361 -0.060293734 -0.17977129 -0.052941483 0.17504601 -0.10784303
0.15628266 0.15565804 0.14372955 0.19474626 -0.1350304 -0.027857427 0.06329109 0.11924418
0.26408267 0.20708099 0.1310939 -0.17343026 -0.1889979 -0.07710128 -0.21281788 0.04602626
0.13442528 0.068849996 -0.15247965 -0.13599843 -0.0960747 0.008935421 -0.19314626 -0.15223713
-0.12136522 -0.14785613 -0.1202781 -0.25658104 0.08769693 -0.15798298 -0.14984362 -0.16436021
-0.3102257 -0.26186296 0.1358133 -0.31648245 0.038444404 0.058112495 -0.01938107 0.06361514
-0.20899726 -0.28347856 -0.08604978 0.3121778 0.27512994 -0.018476252 0.2500607 0.055488393
-0.22597435 -0.16028361 0.007750009 -0.018412838 -0.15620343 0.066775516 0.015250741 0.21874157
0.073821545 0.084335595 0.04340061 0.26250258 -0.1540268 0.105278686 0.035536498 0.16719031
00000000: 6f91 80be fd3d e4bd d8b4 8fbd c87d 21be
00000010: f2f7 d8bd 7a83 b8bd 9dd6 be3d 0e2c 89bd
00000020: ffbf 3abe e17a a1bc 8b20 983d bc20 0d3e
00000030: 49a8 0b3e c464 943d e844 5f3e 7e0c 50be
00000040: 3961 8f3d ff76 e93d 1d32 acbd ec38 c03d
00000050: a917 8cbe 64ac 593e df77 133e 9976 253e
00000060: 72a6 8a3d f4f0 e6bd fb62 323d 5dc7 b03b
00000070: 620e df3d 2524 003e 031b 4fbd 17ce 9a3d
00000080: 5a90 74be c7e7 8ebe fde9 21be b681 6dbe
00000090: e846 f73d c784 8bbe 29f0 553d ad01 1dbe
000000a0: f82a 2ebe c381 40be 5e0b 87bd d27e 5d3d
000000b0: 3a80 e13d 363a 813c 9256 3d3c 55e0 86be
000000c0: 5962 71be e125 a53c 1ad2 b8bd abfe 333e
000000d0: 5985 e4bd 6667 06be 39b7 5bbd 58f8 b2bd
000000e0: d2a5 463e 46be 60bd cfe0 053d d289 0e3e
000000f0: d882 e2ba e64a 3e3e 3518 bd3c aaf3 1f3e
00000100: 5c33 c9bd b7bf 4f3d 1fb4 843b f0fc 90be
00000110: b62b d0bd ee85 c13d 3d5e 8d3d 3f28 373d
00000120: 4244 05be 6bce 96be e82c c4bd 4f9c 153e
00000130: 8239 fabb a26f 9e3c 78a7 dc3d b55a 3ebe
00000140: 76cd d83c c2cc 9cbd 74fc b93d 8154 8abd
00000150: c02a 9abc 7b97 f33d 7a95 df3d 4390 613e
00000160: 51dd c93d 296f 163d a2ee 8cbd 4162 9abd
00000170: f9eb 90bc da0a 53bd e4bb b4bc 168c 893c
00000180: 7839 bcbb cce6 6f3e ad86 7a3d 7774 213d
00000190: 057b 2fbe 0d77 bb3d 22de 53be 6f31 18bc
000001a0: 93af ab3d e399 0d3d 1257 0f3e 2fb0 ecbc
000001b0: 2916 81be 2c4d e9bd f4f4 01be c712 8c3d
000001c0: 4589 853e d51d 1e3e d5f0 c1bc 1fb0 cf3d
000001d0: 42b4 94bd bf91 ab3d 8487 5dbc 1550 74bc
000001e0: 03db aa3c a086 09bc 7182 e23d 64c8 aa3b
000001f0: ea54 f4bc 051c 43be efa8 ccbd ffe8 cdbd
00000200: 5f15 9ebc 528d adbd 8891 45be db0b 883c
00000210: c20d dd3d c256 36be ecb0 7d3d 8421 0fbe
00000220: 4939 963b 316a 19bd f36b a8be cad8 e53c
00000230: 18d6 ae3e 431e c33d a69a 963d b5e9 9bbe
00000240: 1ccb 89be 8080 283e 9cd3 a33d 69a5 963d
00000250: cab1 823d 8824 c83d ff61 133e 976c a5bc
00000260: d61e c0bd 80d4 013e 8fb9 e33c ff86 643e
00000270: 760e 3bbe 003c 36bd d799 1fbc af02 2ebd
00000280: 2cb5 9dbd f7a6 70be cd5a ed3d a73f 97be
00000290: ff99 253e efdd fdbd 66fe 1a3e 5f66 02be
000002a0: dbcc c4bc ad13 44bc ef67 8dbd 0159 9a3e
000002b0: d445 a5bc 0e03 66bd 173e 4fbd 24d2 0bbe
000002c0: ce98 c1bd b6ff 0d3d e3cc 35bd 390e 723d
000002d0: fa3d 40be d859 d23c ed14 6a3d c5b8 3c3e
000002e0: ce05 6a3e 0e83 9bbd 6d4f 7a3e 90f6 76bd
000002f0: f715 38be 2bd9 58bd 433f 333e cedc dcbd
00000300: 9008 203e d264 1f3e d72d 133e 906b 473e
00000310: 6945 0abe 4235 e4bc c29e 813d 4b36 f43d
00000320: d835 873e 0a0d 543e 7b3d 063e b497 31be
00000330: aa88 41be 47e7 9dbd eeec 59be 0886 3c3d
00000340: c8a6 093e 3a01 8d3d a023 1cbe 2c43 0bbe
00000350: d0c2 c4bd df65 123c 22c8 45be 0de4 1bbe
00000360: 548e f8bd 9967 17be 5d54 f6bd 975e 83be
00000370: 739a b33d 4ac6 21be 9b70 19be 0b4e 28be
00000380: e7d5 9ebe e712 86be a412 0b3e fd09 a2be
00000390: e177 1d3d 5e07 6e3d 0dc5 9ebc a848 823d
000003a0: 6103 56be 1a24 91be de3a b0bd c5d5 9f3e
000003b0: d5dd 8c3e 825b 97bc f507 803e cc47 633d
000003c0: d265 67be 6321 24be caf3 fd3b 85d6 96bc
000003d0: cbf3 1fbe 9ac1 883d 3ede 793c cafd 5f3e
000003e0: c02f 973d 24b8 ac3d d7c4 313d bd66 863e
000003f0: 34b9 1dbe 5a9c d73d b88e 113d f033 2b3e

convs.2.att f4 [64, 1]
0.086528145 0.023397518 -0.17394015 -0.19058532 0.17435405 0.0030928361 -0.15212806 -0.08417179
-0.02225974 0.26202914 0.0067046154 -0.17028844 0.11975184 0.2726707 -0.08583438 0.1530895
0.29746038 -0.1959584 -0.25575152 0.29206532 -0.015657552 -0.14738303 -0.039620508 0.29893872
0.1758304 0.11894887 0.1561188 0.24633697 0.24673012 -0.081928685 0.15040797 -0.2834429
-0.068134576 -0.07752097 0.2733833 0.17524059 -0.20282482 0.09491274 -0.21064728 0.2889448
0.2358862 0.03066092 -0.21566017 -0.26855683 -0.24964966 0.0017194409 0.26699764 0.019246638
-0.010927385 0.03350029 0.037563823 -0.041200854 0.07200745 -0.18271 -0.1290511 -0.2772387
-0.2677231 0.24368502 -0.09190984 0.18827468 0.031377513 -0.18005744 0.026422946 -0.2469912
00000000: ab35 b13d 27ac bf3c 5e1d 32be cc28 43be
00000010: de89 323e 2eb1 4a3b 75c7 1bbe 4262 acbd
00000020: 0f5a b6bc af28 863e 64b2 db3b 1860 2ebe
00000030: 7440 f53d 7e9b 8b3e efc9 afbd 7ec3 1c3e
00000040: ba4c 983e 52a9 48be ddf1 82be 9689 953e
00000050: 4444 80bc 94eb 16be 1d49 22bd 7f0e 993e
00000060: e20c 343e 779b f33d 9bdd 1f3e c23f 7c3e
00000070: d2a6 7c3e 3aca a7bd 8c04 1a3e 6e1f 91be
00000080: 248a 8bbd 50c3 9ebd e5f8 8b3e 4572 333e
00000090: 4fb1 4fbe 9c61 c23d ecb3 57be 93f0 933e
000000a0: 278c 713e 9c2c fb3c 05d6 5cbe 4880 89be
000000b0: 29a4 7fbe dd5e e13a eab3 883e 20ab 9d3c
000000c0: c608 33bc 9a37 093d 86dc 193d 3ac2 28bd
000000d0: a478 933d 5518 3bbe f925 04be 3bf2 8dbe
000000e0: 0113 89be 9188 793e 3a3b bcbd 14cb 403e
000000f0: b585 003d fa60 38be ef74 d83c 43eb 7cbe

convs.2.bias f4 [32]
-0.0066340035 -0.00933729 -0.20236789 -0.003865956 -0.21142618 -0.0786115 -0.10974812 0.11556824
-5.9434974e-06 0.021346131 -0.09354508 0.17999966 -0.005419812 -0.0021782373 -0.03445988 -0.0017378749
-0.000401968 -0.09869658 0.25778356 0.010311157 -0.16265616 -0.0503576 0.0 0.036557086
0.0013846495 0.040180653 0.0020957256 -0.0691161 0.011610283 -0.004160142 -0.009007796 0.19232434
00000000: 0e62 d9bb 6ffb 18bc 8739 4fbe fb5b 7dbb
00000010: 1b80 58be 11ff a0bd 9fc3 e0bd 0baf ec3d
00000020: 416e c7b6 15de ae3c 9094 bfbd d551 383e
00000030: ae98 b1bb c2c0 0ebb ce25 0dbd 68c9 e3ba
00000040: 3bbf d2b9 6f21 cabd 35fc 833e 21f0 283c
00000050: 568f 26be c543 4ebd 0000 0000 e2bc 153d
00000060: 217d b53a 7894 243d 7158 093b be8c 8dbd
00000070: 0e39 3e3c cd51 88bb 6f95 13bc acf0 443e

convs.2.lin.weight f4 [32, 32]
-0.10820569 -0.099200055 0.02308611 0.014891201 0.09260202 -0.16011102 -0.09187774 0.029310977
0.026230734 -0.13490467 -0.17410676 -0.1524138 0.077275395 -0.102314435 -0.09127641 0.1798043
0.09823915 0.0034427573 0.08118017 0.0075733857 -0.13383009 0.02736326 0.10400177 -0.13959958
-0.06116143 -0.08033893 -0.029815927 -0.1178623 -0.036536537 0.008195131 0.16360241 0.090880826
0.014037511 -0.12684633 0.14623934 -0.036844272 -0.087875664 -0.018419513 0.09162908 0.06649093
0.12873892 0.025744414 0.08136902 0.0114637185 -0.047339726 0.054354794 -0.18051596 0.13167037
0.06672397 0.04757674 0.14777379 0.054931216 0.030885931 0.10471391 0.010878296 -0.13369563
-0.015639564 -0.07214807 0.09899357 -0.12047254 -0.11320776 0.1339256 0.07071494 -0.023834387
0.16913599 -0.029172154 0.11051412 0.095514975 -0.003429264 0.13063426 -0.1125493 0.067860626
0.00039363807 -0.09324265 -0.024541138 -0.08582092 -0.07274272 0.035925265 -0.1389959 0.15616205
-0.014629951 0.09725678 0.05082436 0.14847948 0.14694034 -0.19357288 0.081040986 0.15984352
-0.030311057 0.00856063 -0.13315511 -0.0876552 0.12403265 -0.013868415 -0.1837476 0.08793348
-0.069195405 0.1129212 -0.14538403 0.14114055 0.1339809 -0.015793048 0.12834983 -0.14159575
0.07136917 0.11052829 0.052076038 -0.07769276 -0.03709189 0.098367125 -0.16407633 -0.16719534
-0.0072952798 0.06487877 -0.01823404 0.13906679 0.0068619773 0.1655711 0.08027494 0.0101372395
0.017457793 -0.07268985 0.12953277 0.05615812 -0.11114047 -0.06765551 0.012728848 -0.09817926
0.01774672 -0.0045853886 -0.108808525 0.15529412 0.051018067 0.13658363 -0.08510673 -0.068914056
0.011725277 -0.045635372 -0.035951983 0.020263067 -0.12907593 0.045452964 0.03295972 -0.15690185
-0.121586666 -0.06560121 -0.1078969 0.124503285 0.14610755 -0.11221258 0.119451344 0.08577724
-0.034785897 0.075245716 -0.11139381 -0.13200527 -0.1856295 0.04239559 -0.032466363 -0.042079113
0.08357149 0.030429577 0.0026932233 0.1431978 -0.12771262 0.07287729 -0.075651504 0.16197196
0.13613218 0.05924166 0.13904943 -0.08517171 0.003486622 0.13852602 0.0711162 -0.14745036
-0.13411829 0.082444265 -0.04155967 0.052809417 0.1050136 0.11092583 0.20595339 -0.057555083
0.03069873 0.09826859 0.06774674 -0.12563184 0.20015751 0.10655838 0.10181725 0.09644844
0.21481021 0.06524585 0.05419946 -0.0045967908 -0.024292676 -0.12406856 -0.009221217 0.038810283
0.017437434 0.13949741 -0.03811242 -0.17148806 -0.15544915 -0.109077424 -0.13486673 -0.22374491
-0.06620198 0.03705845 -0.13798817 0.17278063 -0.19728702 -0.035462778 0.13802163 -0.013907644
0.085461654 0.15664566 0.1368475 -0.070384994 0.13675196 0.07360631 -0.16908799 -0.03754183
0.022257676 0.040458065 0.06557562 -0.07250115 -0.13417467 0.07762459 -0.16803198 0.18530653
-0.14464907 0.021344144 0.032048784 -0.062269956 0.10166021 0.102759555 -0.24845268 0.041724537
-0.23940557 0.08960779 -0.14069518 -0.09467494 0.15806948 -0.035760105 0.13012235 0.026005715
-0.014801284 -0.06575124 -0.044048917 0.068273604 0.19829583 0.14286505 -0.13811664 -0.015740428
00000000: f29a ddbd 6629 cbbd 151f bd3c 39fa 733c
00000010: 21a6 bd3d 25f4 23be 662a bcbd 931d f03c
00000020: d6e1 d63c 7324 0abe 0b49 32be 5d12 1cbe
00000030: 9042 9e3d 3b8a d1bd 20ef babd 9e1e 383e
00000040: 9c31 c93d e29f 613b ca41 a63d 2a2a f83b
00000050: c10a 09be ea28 e03c e1fe d43d 31f3 0ebe
00000060: 6884 7abd bd88 a4bd 8840 f4bc ca61 f1bd
00000070: 56a7 15bd df44 063c 6487 273e ba1f ba3d
00000080: 97fd 653c 01e4 01be c4bf 153e 05ea 16bd
00000090: 28f8 b3bd 85e4 96bc 07a8 bb3d 662c 883d
000000a0: 23d4 033e f3e5 d23c cda4 a63d 52d2 3b3c
000000b0: 4de7 41bd 22a3 5e3d 2dd9 38be 99d4 063e
000000c0: 94a6 883d d4df 423d 0352 173e 8eff 603d
000000d0: 7e04 fd3c 3f74 d63d e13a 323c 82e7 08be
000000e0: 8b1e 80bc 5ec2 93bd 24bd ca3d 4fba f6bd
000000f0: 78d9 e7bd cb23 093e ffd2 903d 5540 c3bc
00000100: fc31 2d3e 71fa eebc 3a55 e23d 5b9d c33d
00000110: 81bd 60bb fdc4 053e 3f80 e6bd 83fa 8a3d
00000120: 3561 ce39 01f6 bebd 7f0a c9bc e1c2 afbd
00000130: 23fa 94bd 5f26 133d f154 0ebe f2e8 1f3e
00000140: 76b2 6fbc 902e c73d 342d 503d 010b 183e
00000150: 8777 163e f837 46be d1f8 a53d 05ae 233e
00000160: e54e f8bc e241 0c3c d059 08be 9284 b3bd
00000170: d404 fe3d 5938 63bc 5528 3cbe 7816 b43d
00000180: 52b6 8dbd 3b43 e73d 8ddf 14be 2687 103e
00000190: 4a32 093e 6c60 81bc 236e 033e 7afe 10be
000001a0: 002a 923d a85c e23d af4d 553d 621d 9fbd
000001b0: aaed 17bd b474 c93d a003 28be 4135 2bbe
000001c0: 3e0d efbb 29df 843d 8e5f 95bc 8667 0e3e
000001d0: 70da e03b 788b 293e 3067 a43d aa16 263c
000001e0: a503 8f3c 6bde 94bd 3da4 043e 0f06 663d
000001f0: 9d9d e3bd f98e 8abd a88c 503c 3512 c9bd
00000200: 9261 913c 0741 96bb 01d7 debd 6c05 1f3e
00000210: 52f8 503d 94dc 0b3e 704c aebd d022 8dbd
00000220: 601b 403c 28ec 3abd 6342 13bd bbfe a53c
00000230: 7b2c 04be e32c 3a3d c500 073d e1aa 20be
00000240: 6e02 f9bd ed59 86bd 0df9 dcbd 94fb fe3d
00000250: 389d 153e b6cf e5bd e8a2 f43d faab af3d
00000260: a87b 0ebd 6d1a 9a3d 7022 e4bd 642c 07be
00000270: a915 3ebe 00a7 2d3d 73fb 04bd 265b 2cbd
00000280: 8827 ab3d 7347 f93c ca80 303b 72a2 123e
00000290: 19c7 02be b040 953d 2def 9abd fadb 253e
000002a0: 3c66 0b3e 62a7 723d f962 0e3e 816e aebd
000002b0: cf7f 643b c4d9 0d3e 5fa5 913d 3afd 16be
000002c0: 4e56 09be 8ad8 a83d 793a 2abd b04e 583d
000002d0: 5f11 d73d 152d e33d 72e5 523e e1be 6bbd
000002e0: e77b fb3c 0b41 c93d cebe 8a3d a2a5 00be
000002f0: 17f6 4c3e 483b da3d 9085 d03d c286 c53d
00000300: 35f7 5b3e 9e9f 853d 4100 5e3d ada0 96bb
00000310: 6f01 c7bc a817 febd 9614 17bc 88f7 1e3d
00000320: f3d8 8e3c 69d8 0e3e c51b 1cbd 919a 2fbe
00000330: 102e 1fbe fc63 dfbd 811a 0abe 631d 65be
00000340: e794 87bd 9aca 173d c54c 0dbe 68ed 303e
00000350: 9c05 4abe 6b41 11bd 8b55 0d3e e3dc 63bc
00000360: 8506 af3d b867 203e c021 0c3e 0226 90bd
00000370: b508 0c3e e8be 963d 6725 2dbe 76c5 19bd
00000380: bb55 b63c 5bb7 253d 834c 863d 7c7b 94bd
00000390: 1665 09be a4f9 9e3d 9310 2cbe ffc0 3d3e
000003a0: e31e 14be ead9 ae3c 9645 033d c80e 7fbd
000003b0: 3a33 d03d 9a73 d23d 616a 7ebe 59e7 2a3d
000003c0: bc26 75be 4a84 b73d 6612 10be efe4 c1bd
000003d0: f7dc 213e 3079 12bd cb3e 053e f009 d53c
000003e0: 1681 72bc 96a8 86bd a36c 34bd 08d3 8b3d
000003f0: 100e 4b3e 374b 123e 736e 0dbe 12f2 80bc

post_mp.0.weight f4 [32, 32]
-0.1103967 -0.11164838 0.08672855 -0.1510168 0.083879694 0.06075094 0.023405716 0.010948865
-0.084360324 -0.14599955 0.018274907 -0.21030654 -0.16455911 0.08755764 -0.08224302 0.07572381
0.13952911 0.115406014 0.008397073 0.018254798 0.11894951 0.0056150495 -0.13439418 -0.1206719
0.081575505 0.020279665 -0.010827683 0.10837965 0.1320978 0.15805802 -0.057844937 -0.13774289
0.066428535 -0.15569225 0.022462986 -0.1084461 -0.09583263 0.114880465 0.09433048 -0.03902495
0.074597456 0.10992731 0.108001955 -0.12628606 -0.13161865 0.1036198 0.062028762 0.17130841
0.13781609 0.12400715 -0.044895608 -0.011970087 0.13320282 0.08465013 -0.0644125 -0.06944814
-0.16097398 0.16104732 -0.15834273 0.12801573 0.015147437 -0.12103592 0.10244253 -0.16876873
0.039318092 0.101225466 -0.12059621 0.18139619 -0.084879935 -0.085143656 0.12654927 0.17152007
0.116841055 -0.14215986 -0.0009460401 0.17575411 0.08988642 -0.12078699 -0.07907055 0.08392809
-0.0963337 -0.1596416 0.16504057 -0.062998004 -0.12608354 -0.12952091 -0.15730834 0.048399296
-0.113364525 -0.0785722 0.025708828 -0.18075988 0.031817194 -0.1291051 -0.04238506 0.03966756
-0.17053506 0.16344126 0.09973976 -0.1257369 -0.030985797 0.07656551 -0.052930795 -0.059212994
0.0047929185 -0.16166073 0.051423453 -0.20240588 0.005219333 0.10387477 -0.030710647 -0.101530455
-0.00032706736 0.03494606 -0.10313031 -0.01943504 0.09055969 0.16014637 -0.031862576 0.04669345
-0.08693051 0.24836229 0.1393256 -0.054431356 0.15437266 -0.15219294 -0.16053525 -0.11759895
0.120507926 0.1309398 0.011893006 0.17405096 -0.06268909 -0.19574775 0.0030213795 0.16951434
0.06204881 -0.090450965 0.10440427 -0.10081672 0.12584436 -0.15044326 0.08485664 0.09465161
0.1637532 -0.12489121 -0.19336218 -0.12043584 -0.013113935 -0.17303199 -0.16280672 -0.26931733
0.09339912 -0.3133443 -0.086018205 0.046300173 -0.15053451 -0.013165393 0.057542115 -0.015596853
0.072965756 0.03994292 0.10204911 -0.18466547 -0.10880322 0.012236587 0.042844836 -0.14248966
0.010219741 -0.19160593 -0.027290009 -0.20519702 -0.16954872 0.057114936 -0.13877252 0.13779697
0.005122263 0.21277541 0.20596316 -0.07317361 0.11346389 0.040041275 0.10313669 0.17910197
0.013458668 0.16712323 -0.20630991 0.09201092 0.118276805 0.13864507 0.042107802 -0.022793973
0.020089995 -0.16676424 0.041183397 -0.19047345 -0.045576837 0.07292464 0.124669604 -0.102842785
0.1318726 -0.022446971 -0.03371424 -0.19272445 0.008330019 -0.13596416 0.052467525 -0.10401272
0.014952321 -0.08268555 -0.06224298 0.07754403 0.018314576 0.0640799 -0.02603219 -0.0118535645
0.12831785 0.17647734 0.047861613 -0.079903424 0.010385622 -0.05769706 -0.11666274 0.08461421
-0.04714345 0.061569113 0.10194373 0.13569167 0.12665358 -0.041142613 0.07803285 -0.12397778
0.018282877 -0.17418943 0.15502729 0.04723375 0.13902065 0.04298397 -0.1354781 0.13383515
0.11379523 0.051368184 0.04684133 0.11160587 0.15732859 0.0071454206 -0.16068403 0.023850352
-0.18544212 -0.056602743 -0.08106341 0.1113074 -0.13094273 -0.13117483 -0.01592377 -0.11965993
00000000: aa17 e2bd e8a7 e4bd bd9e b13d 26a4 1abe
00000010: 1ec9 ab3d fad5 783d 58bd bf3c de62 333c
00000020: 1bc5 acbd e880 15be 42b5 953c 995a 57be
00000030: 2f82 28be 6c51 b33d 076f a8bd 1615 9b3d
00000040: b8e0 0e3e fd59 ec3d e093 093c 168b 953c
00000050: cd9b f33d 73fe b73b a19e 09be d422 f7bd
00000060: 0f11 a73d 8a21 a63c 9866 31bc 26f6 dd3d
00000070: a544 073e f6d9 213e d0ee 6cbd 790c 0dbe
00000080: af0b 883d ca6d 1fbe 4c04 b83c fd18 debd
00000090: e643 c4bd 7346 eb3d 5730 c13d a0d8 1fbd
000000a0: 8dc6 983d 9221 e13d 2130 dd3d 2251 01be
000000b0: 0ac7 06be 9e36 d43d df11 7e3d 796b 2f3e
000000c0: a91f 0d3e 76f7 fd3d 75e4 37bd 2f1e 44bc
000000d0: 5266 083e 0c5d ad3d b3ea 83bd d43a 8ebd
000000e0: 5dd6 24be 97e9 243e 9924 22be 8e16 033e
000000f0: f52c 783c aee1 f7bd 64cd d13d b6d1 2cbe
00000100: 020c 213d 4c4f cf3d 25fb f6bd ecbf 393e
00000110: 88d5 adbd cc5f aebd 2296 013e f5a2 2f3e
00000120: 5d4a ef3d 5b92 11be adff 77ba e3f8 333e
00000130: 5f16 b83d 2b5f f7bd beef a1bd 7ee2 ab3d
00000140: 9a4a c5bd 1679 23be 6500 293e 1905 81bd
00000150: 0b1c 01be 21a1 04be 7015 21be 573e 463d
00000160: a92b e8bd 76ea a0bd 529b d23c 1e19 39be
00000170: bf52 023d 2134 04be f59b 2dbd 747a 223d
00000180: bea0 2ebe 255d 273e 5c44 cc3d 2dc1 00be
00000190: edd5 fdbc 61ce 9c3d f6cd 58bd 5389 72bd
000001a0: ea0d 9d3b 648a 25be 66a1 523d 7d43 4fbe
000001b0: f006 ab3b 4cbc d43d e594 fbbc 33ef cfbd
000001c0: 3d7a abb9 9a23 0f3d fc35 d3bd 3c36 9fbc
000001d0: 5c77 b93d 69fd 233e 5582 02bd a241 3f3d
000001e0: a008 b2bd af52 7e3e 5fab 0e3e 6af3 5ebd
000001f0: de13 1e3e 77d8 1bbe 5a63 24be b8d7 f0bd
00000200: dccc f63d 1515 063e e2da 423c 6a3a 323e
00000210: 2363 80bd 1972 48be 5602 463b 2b95 2d3e
00000220: e526 7e3d 5b3e b9bd e8d1 d53d ff78 cebd
00000230: 58dd 003e cc0d 1abe 51c9 ad3d b4d8 c13d
00000240: ebae 273e f6c6 ffbd bc00 46be 11a7 f6bd
00000250: d4db 56bc 4c2f 31be ceb6 26be f6e3 89be
00000260: 0a48 bf3d aa6e a0be 502a b0bd 40a5 3d3d
00000270: b825 1abe a9b3 57bc 48b1 6b3d f189 7fbc
00000280: 126f 953d 309b 233d 20ff d03d f218 3dbe
00000290: 39d4 debd f77b 483c 117e 2f3d cfe8 11be
000002a0: b370 273c 5834 44be 4c8f dfbc 2b1f 52be
000002b0: 2e9e 2dbe 5af1 693d 621a 0ebe a61a 0d3e
000002c0: a8d8 a73b cce1 593e 02e8 523e 0cdc 95bd
000002d0: c25f e83d 5202 243d 5439 d33d 8266 373e
000002e0: bf81 5c3c 5a22 2b3e e842 53be 3970 bc3d
000002f0: 1c3b f23d f9f8 0d3e 3b79 2c3d 6dba babc
00000300: c693 a43c 3fc4 2abe ecaf 283d 790b 43be
00000310: c7ae 3abd 8359 953d c752 ff3d 3d9f d2bd
00000320: 9c09 073e b6e2 b7bc f117 0abd 8f59 45be
00000330: a27a 083c 303a 0bbe 30e8 563d 9f04 d5bd
00000340: 94fa 743c 0b57 a9bd 7ff2 7ebd 68cf 9e3d
00000350: 7308 963c 533c 833d 7641 d5bc 7435 42bc
00000360: c165 033e 7ab6 343e 8a0a 443d 68a4 a3bd
00000370: 7528 2a3c c153 6cbd e0ec eebd 374a ad3d
00000380: 7d19 41bd e52f 7c3d e0c7 d03d c2f2 0a3e
00000390: 7ab1 013e 2885 28bd b0cf 9f3d 10e8 fdbd
000003a0: f9c5 953c b75e 32be 79bf 1e3e 2d78 413d
000003b0: 6e5b 0e3e f60f 303d c5ba 0abe 150c 093e
000003c0: 790d e93d 7267 523d b2dc 3f3d 9e91 e43d
000003d0: bf1a 213e 2224 ea3b 5b8a 24be d061 c33c
000003e0: 8ae4 3dbe 47d8 67bd 9304 a6bd 22f5 e33d
000003f0: da15 06be b252 06be 9172 82bc 4410 f5bd

post_mp.0.bias f4 [32]
-0.07495668 -0.049933862 -0.104953006 -0.086611375 -0.08414479 -0.07305882 0.07019838 0.04418078
0.06179654 0.09520514 0.20514882 -0.033229273 -0.26266354 -0.20450416 -0.22244264 -0.09196405
0.1521371 0.12840135 0.2677063 -0.020113375 -0.06576442 -0.14207149 -0.11379763 -0.032709286
-0.1787594 -0.068720125 -0.076596625 0.23162752 -0.04410233 -0.016354203 0.04752933 -0.15109797
00000000: e382 99bd 7387 4cbd 9af1 d6bd 4e61 b1bd
00000010: 1b54 acbd dd9f 95bd 2bc4 8f3d e8f6 343d
00000020: 5e1e 7d3d eafa c23d 8812 523e 6b1b 08bd
00000030: d67b 86be 8a69 51be 01c8 63be a657 bcbd
00000040: d4c9 1b3e a57b 033e cd10 893e cec4 a4bc
00000050: 7faf 86bd 307b 11be bb0e e9bd 2cfa 05bd
00000060: b40c 37be 23bd 8cbd b1de 9cbd c42f 6d3e
00000070: a5a4 34bd 40f9 85bc 1dae 423d 6db9 1abe

post_mp.2.weight f4 [3, 32]
0.08832377 -0.014453948 -0.14231518 -0.06688257 0.3168538 -0.14521421 -0.02346003 0.010694472
0.114774026 -0.2032421 -0.0029325532 -0.14290732 0.0049314443 0.0324413 0.13789918 0.123520866
-0.13531807 -0.10353558 -0.17161508 0.08169369 0.15173678 0.00073782314 0.26617485 0.1688851
0.07127162 0.32928875 -0.09610304 -0.17629999 0.0769542 0.11399067 -0.21647148 0.10225677
-0.15330791 -0.13966163 0.0995702 -0.21456024 0.041124005 -0.29449442 -0.15245467 -0.17824554
0.09775885 0.27994928 0.26118898 -0.18774167 -0.3558048 -0.27722034 -0.3863568 0.052705146
0.005650159 -0.05455889 0.43072352 -0.15917297 0.1441005 -0.06759049 -0.100780375 0.029271936
-0.0029912365 -0.066218704 0.00030664058 0.24503008 -0.24042463 -0.16854103 -0.0634156 -0.23660155
0.08832881 0.18838419 -0.1423779 0.1661137 -0.19669805 0.25064957 0.08858082 0.031901285
0.14035891 -0.22048764 -0.10920928 0.24301441 0.010962138 -0.02478581 0.15152568 0.1396526
0.1404718 -0.15873945 -0.18545325 0.13179092 -0.16040309 -0.10906793 0.2686096 0.01634265
0.124412954 -0.1205219 -0.1192139 -0.18965669 0.082266964 0.11095941 0.045238193 0.14191256
00000000: 18e3 b43d 40d0 6cbc 12bb 11be bbf9 88bd
00000010: a93a a23e 09b3 14be 402f c0bc de37 2f3c
00000020: a50e eb3d b21e 50be 1430 40bb 4c56 12be
00000030: f497 a13b 2be1 043d 7135 0d3e 82f8 fc3d
00000040: d290 0abe 760a d4bd ddbb 2fbe 054f a73d
00000050: e360 1b3e 796a 413a 1248 883e 37f0 2c3e
00000060: dbf6 913d 8998 a83e acd1 c4bd fc87 34be
00000070: 2a9a 9d3d f173 e93d b3aa 5dbe ff6b d13d
00000080: c0fc 1cbe 7503 0fbe 76eb cb3d aeb5 5bbe
00000090: a571 283d f9c7 96be 141d 1cbe 0086 36be
000000a0: cb35 c83d 8355 8f3e 90ba 853e 5a3f 40be
000000b0: 0c2c b6be d3ef 8dbe 8fd0 c5be 5ae1 573d
000000c0: f824 b93b 2579 5fbd cb87 dc3e 3dfe 22be
000000d0: 158f 133e e26c 8abd f165 cebd b3cb ef3c
000000e0: 9f08 44bb ac9d 87bd 9ac4 a039 2ae9 7a3e
000000f0: e031 76be 0596 2cbe 0ae0 81bd ad47 72be
00000100: bce5 b43d c9e7 403e 83cb 11be b619 2a3e
00000110: 376b 49be 2455 803e dc69 b53d ecaa 023d
00000120: 3fba 0f3e 83c7 61be 1da9 dfbd c5d8 783e
00000130: 8a9a 333c 9c0b cbbc 8c29 1b3e 1701 0f3e
00000140: d7d7 0f3e 988c 22be 75e7 3dbe 33f4 063e
00000150: b540 24be 025f dfbd 3387 893e 05e1 853c
00000160: 38cc fe3d 30d4 f6bd 6b26 f4bd 5d35 42be
00000170: 957b a83d b03e e33d af4b 393d 8751 113e

post_mp.2.bias f4 [3]
-0.23012568 0.4651468 -0.22134024
00000000: 11a6 6bbe b927 ee3e 04a7 62be
