ckpt/best_GCN_model.pt (torch, 24671 bytes, 14 tensors)

convs.0.weight f4 [6, 30]
0.0023938678 -0.010698702 0.002204356 0.0012124472 0.003043629 -0.00019523075 -0.00035471944 0.0044926074
-0.023364631 0.00041279395 -5.4609343e-05 3.9457886e-06 -0.000725012 -0.28374913 -0.23951244 0.0022452911
0.2527456 -0.00057952746 0.0033805287 -0.13911961 0.0001827398 0.0031682884 -0.13056092 0.10395954
0.00022128952 -0.0003804998 0.0013413996 -0.39622435 -0.30088192 0.00979515 0.0012286041 -0.011972424
-0.0018760221 0.0011331588 0.0029912414 -0.0011929001 -0.00026849375 -9.6121126e-05 0.026041238 -4.9270322e-05
0.00012538736 -0.0001215409 -0.00045965958 0.15437002 0.14476253 0.000748965 -0.08966288 3.9977655e-05
0.0054717907 0.09095382 0.0014858411 -0.0010619038 -0.004015346 -0.07464457 0.0001837514 -0.00038839254
-0.00028520796 0.17230323 0.16310787 0.009756054 -0.0025822187 -0.008591875 0.00063604664 -0.025269946
-0.086045004 0.005340765 0.00062549306 -0.007657375 -0.16240649 9.725482e-05 -0.000120558914 0.0004432793
0.00060036214 -0.1484073 -0.24160096 -0.005356022 -0.12710048 -0.0010911326 0.0029411984 -0.20705485
-0.012332701 0.00031188206 0.4137944 0.25358447 -0.00069181586 0.0013250236 0.00047916337 -0.059384823
-0.14174713 -0.14692423 -0.0014394945 -0.019948605 0.002955552 -0.021130078 -0.00011854269 0.006780301
0.0004635078 0.003561741 -0.08864062 0.000652361 -0.0007049418 0.00054284325 0.00043649675 -0.16789714
-0.13718343 -0.0025657578 0.13034792 -0.0023195222 0.006839828 -0.13753957 -0.016808787 0.00018385395
-0.01624127 0.09285754 -0.0009528137 0.0012207173 0.00023237037 -0.106786065 -0.17232773 -0.05374997
0.00084184867 0.003852118 -0.0050998726 0.00094890024 -0.0018396917 -0.0011992847 -0.0002536364 -0.0002734065
-0.0012955499 -0.001316678 -5.765127e-05 -0.00032488888 -0.00029687342 0.023818105 0.019855322 0.0013844266
-0.016926192 4.869502e-05 0.0013809461 0.01022275 0.0013266101 -0.0015966333 0.009038106 -0.006194
0.00019501949 -0.00039962135 -0.0015074881 0.028376257 0.02547213 -0.0034216645 0.0066050827 -0.015256166
0.0018547438 0.031618983 0.032741975 -0.01096108 -0.0016188009 -0.0015103644 0.14032203 0.0007732688
0.0006819641 -0.0012072473 -0.0020699687 0.22370794 0.22136676 0.007891646 0.07623871 0.002732571
0.0047829994 0.20924145 0.02437276 0.004552355 -0.16973713 -0.17395355 0.0016851181 -0.0031011256
0.0022548477 0.028090764 0.22490312 0.09614169
00000000: 70e2 1c3b 9c49 2fbc f576 103b faea 9e3a
00000010: 9f77 473b dbb6 4cb9 a3f9 b9b9 b936 933b
00000020: 2f67 bfbc 446c d839 560c 65b8 1166 8436
00000030: bb0e 3eba 9147 91be c042 75be bc25 133b
00000040: df67 813e 6eeb 17ba dc8b 5d3b 5f75 0ebe
00000050: d79d 3f39 0fa3 4f3b c3b1 05be bde8 d43d
00000060: f409 6839 d27d c7b9 e7d1 af3a ebdd cabe
00000070: 320d 9abe d67b 203c 1d09 a13a fc27 44bc
00000080: dbe4 f5ba 8086 943a b408 443b 165b 9cba
00000090: 9fc4 8cb9 a394 c9b8 6f54 d53c 9ba7 4eb8
000000a0: 6a7a 0339 c6e3 feb8 77fe f0b9 2d13 1e3e
000000b0: a13c 143e 3156 443a 2ca1 b7bd aead 2738
000000c0: b54c b33b ff45 ba3d 8ec0 c23a 942f 8bba
000000d0: 2a93 83bb 41df 98bd 64ad 4039 2aa1 cbb9
000000e0: f787 95b9 4270 303e c005 273e dbd7 1f3c
000000f0: 713a 29bb f0c4 0cbc 5ebc 263a eb02 cfbc
00000100: 5d38 b0bd 9601 af3b 21f8 233a b8ea fabb
00000110: e34d 26be 49f5 cb38 93d4 fcb8 f167 e839
00000120: 9f61 1d3a 15f8 17be 3e66 77be 9281 afbb
00000130: a126 02be 5604 8fba 1fc1 403b 3006 54be
00000140: 190f 4abc 1a84 a339 dcdc d33e d3d5 813e
00000150: fa5a 35ba 6aac ad3a 3838 fb39 803d 73bd
00000160: 2926 11be 4e73 16be 6cad bcba 426b a3bc
00000170: efb1 413b fc18 adbc 1f9a f8b8 4a2d de3b
00000180: f702 f339 196c 693b 3789 b5bd 3503 2b3a
00000190: d8cb 38ba 984d 0e3a 9ad9 e439 3aed 2bbe
000001a0: d079 0cbe 4626 28bb ed79 053e 2003 18bb
000001b0: a320 e03b 2cd7 0cbe 95b2 89bc ebc8 4039
000001c0: 690c 85bc 182c be3d 3fc6 79ba 7a00 a03a
000001d0: 72a8 7339 a7b2 dabd ae76 30be ee28 5cbd
000001e0: 82af 5c3a d173 7c3b d51c a7bb 9ebf 783a
000001f0: cf21 f1ba 5131 9dba 80fa 84b9 0058 8fb9
00000200: 71cf a9ba 6294 acba 94ce 71b8 d955 aab9
00000210: ada5 9bb9 301e c33c a1a7 a23c a675 b53a
00000220: cca8 8abc e13d 4c38 dd00 b53a 527d 273c
00000230: a6e1 ad3a 2046 d1ba 9014 143c 0af7 cabb
00000240: 257e 4c39 4584 d1b9 e896 c5ba 5375 e83c
00000250: eeaa d03c 013e 60bb 736f d83b 00f5 79bc
00000260: e01a f33a e882 013d 731c 063d 1a96 33bc
00000270: f22d d4ba 6bf7 c5ba 94b0 0f3e 31b5 4a3a
00000280: d6c5 323a 7f3c 9eba 50a8 07bb b213 653e
00000290: f8ad 623e f64b 013c 0a23 9c3d ef14 333b
000002a0: b5ba 9c3b 6443 563e 62a9 c73c ec2b 953b
000002b0: 92cf 2dbe e120 32be 2edf dc3a 413c 4bbb
000002c0: 11c6 133b 9a1e e63c 014d 663e efe5 c43d

convs.0.bias f4 [30]
0.0005202434 -0.0110104615 -0.0021536064 -0.003435651 -0.00966186 -0.00022415441 -0.00011849608 -0.0010677836
-0.0034264417 -0.00017178163 6.803837e-05 -6.798963e-05 -0.00030712876 0.116754435 0.09388893 -0.00036971015
-0.113139406 -0.00010004659 0.005599041 0.047969963 -0.0012429424 -0.0019688522 0.063239045 -0.028747395
5.4683347e-05 -0.00011723457 -0.0004959554 0.16473894 0.12610859 -0.014399322
00000000: f260 083a 3965 34bc 8523 0dbb a928 61bb
00000010: c74c 1ebc fe0a 6bb9 1981 f8b8 dff4 8bba
00000020: 278e 60bb 4820 34b9 d2af 8e38 a895 8eb8
00000030: 2006 a1b9 f31c ef3d d748 c03d a8d5 c1b9
00000040: a2b5 e7bd 1bd0 d1b8 2978 b73b 277c 443d
00000050: 3aea a2ba dc07 01bb 7983 813d a87f ebbc
00000060: cc5b 6538 d5db f5b8 0103 02ba 53b1 283e
00000070: 9c22 013e 22eb 6bbc

convs.1.weight f4 [30, 30]
-0.0010377383 -5.9545937e-07 -9.678623e-05 -0.0011204763 4.3360373e-08 0.00013546077 0.00048184145 0.0016027815
0.002977064 -6.669713e-05 -4.6519495e-09 -0.001418197 1.3140376e-08 -0.00498472 9.8202745e-06 -1.7584106e-06
1.9221251e-09 -0.002154886 -0.0008981271 0.00033833444 -0.000892489 -0.0012361435 0.00075695507 -0.0038162
-0.00024031203 -6.9728856e-05 -3.7030013e-06 -2.6982548e-07 -1.8993232e-08 -0.00013917172 0.012494674 3.2611966e-05
0.0023694674 0.0018282129 -2.9880462e-06 -0.0024807071 -0.011126533 -0.029256888 -0.087247014 0.0011803933
1.5873476e-07 0.019631557 -1.7699551e-07 0.07899722 -0.00039747384 2.53514e-06 -8.3071846e-08 0.050586153
-0.017859688 -0.010366635 0.014921403 0.018242689 0.004011908 0.062946275 0.0049921437 0.002899412
3.164267e-05 3.2552819e-06 8.684331e-07 0.0020771332 -0.0067840903 -8.284504e-06 -0.00085659337 -0.0026662482
2.3075738e-06 6.973814e-05 0.004016901 0.012571993 0.042128958 -0.0002443501 -5.581401e-08 -0.008947612
5.463406e-08 -0.024979027 0.00039568206 -5.2197953e-07 2.5896465e-08 -0.017117564 0.004011206 0.0017113313
-0.0076296334 -0.008174064 0.0005256584 -0.020707386 -0.0014507379 -0.00089548744 -1.4750225e-05 -2.9845758e-06
-3.060119e-07 -0.0008221267 -0.0018272139 -5.154848e-07 -0.00011800697 -0.009262405 -8.397187e-08 -0.0001004015
-0.00018175929 -0.005934784 -0.0007897603 5.9273156e-05 1.5506148e-10 -0.0005468953 -3.1547664e-08 0.0035163746
-0.00013793429 -3.4143393e-06 -1.02624784e-10 -0.00016738033 -0.012159714 0.0001696814 -0.0006029697 -0.00077981444
0.010526886 -0.0010175396 -0.00023809375 -4.7300487e-05 -6.1029023e-06 3.7350733e-07 -1.7368385e-09 -0.00011856737
0.015028627 3.927107e-08 0.0001439952 -0.026415972 -6.428373e-07 0.00010676206 0.00059120054 -0.04350375
0.00332683 -7.6176344e-05 -3.4387688e-09 0.016067654 2.4940126e-08 0.03469727 4.735195e-05 1.1374513e-05
1.971158e-09 0.016212592 -0.036158722 0.00020624115 -0.007453834 0.0052647716 0.026891243 0.015644243
0.0014852443 -9.268984e-06 8.943996e-06 -7.189783e-07 -1.6986908e-08 0.00032209314 0.00072145846 3.7433648e-07
0.0001840455 0.0012971786 2.1958431e-07 -9.6316384e-05 0.000121870944 0.000112484915 0.0010448479 -1.665698e-05
-1.0312569e-09 0.0002163699 1.5737712e-08 9.506097e-06 0.00010203869 1.0484033e-06 4.0787418e-10 4.3282187e-05
0.0010258172 -3.248192e-05 0.00050425954 0.0001241224 -0.0011933774 1.4519412e-05 4.2129588e-05 2.7877684e-05
1.1176232e-06 -2.629827e-08 -3.6088017e-09 6.358381e-06 0.00023918772 4.2050283e-07 7.037326e-05 0.00026193314
-1.5415331e-08 -1.7206436e-05 -0.0001931121 -0.00039686463 -0.0016670638 1.10135e-05 1.7206734e-09 0.00038613146
-2.2147255e-09 0.0012263651 4.6791074e-06 3.8725098e-08 -9.1106905e-10 0.0008056828 1.4869167e-05 -9.575082e-05
0.00022932541 0.00038243455 -0.00015948179 0.0009937036 8.4560204e-05 4.6846613e-05 4.3317513e-07 7.387751e-08
9.275372e-09 2.7072942e-05 0.0009866364 -4.617041e-07 7.246156e-05 -0.0020215511 3.922787e-07 0.00014363989
0.0004203883 -0.002370512 0.004241529 -1.2122415e-05 -6.882548e-09 -0.0013150033 1.6601643e-08 -0.0015667693
7.645425e-05 1.3911664e-06 2.8152995e-09 -0.0020572029 -0.0036304945 0.00014833128 0.00050399813 -0.0014651964
0.003174482 -0.0021310644 -0.0003000768 -7.0069815e-05 4.2015004e-06 -5.6509066e-07 -3.5609215e-08 4.88818e-05
-0.0037846582 1.3080327e-06 0.00065300317 -0.063925676 -3.238563e-07 -0.0002728411 -0.0010185207 -0.06985763
-0.009512022 0.00015334532 8.686704e-09 0.021537751 -8.9088616e-08 0.084405646 -0.00013416787 -5.0865196e-06
00000000: b804 88ba a8d7 1fb5 b6f9 cab8 f2dc 92ba
00000010: 3c3b 3a33 790a 0e39 aa9f fc39 6c14 d23a
00000020: d91a 433b c0df 8bb8 fbd6 9fb1 cbe2 b9ba
00000030: fcbf 6132 dd56 a3bb c2c1 2437 8702 ecb5
00000040: 6216 0431 fd38 0dbb 4a70 6bba 7b62 b139
00000050: ecf5 69ba 1806 a2ba 656e 463a 3619 7abb
00000060: 45fc 7bb9 653b 92b8 1481 78b6 88dc 90b4
00000070: 8f26 a3b2 a0ee 11b9 76b6 4c3c d5c8 0838
00000080: 1149 1b3b a5a0 ef3a 3e86 48b6 5c93 22bb
00000090: 104c 36bc 24ac efbc 90ae b2bd 6db7 9a3a
000000a0: ae70 2a34 5cd2 a03c 280c 3eb4 4bc9 a13d
000000b0: 0964 d0b9 6021 2a36 3b65 b2b3 6d33 4f3d
000000c0: 7b4e 92bc d2d8 29bc e678 743c b171 953c
000000d0: 5376 833b fae9 803d 2395 a33b 1004 3e3b
000000e0: 0fb8 0438 5175 5a36 451e 6935 8320 083b
000000f0: 134d debb acfd 0ab7 028d 60ba 39bc 2ebb
00000100: d1db 1a36 6140 9238 35a0 833b c3fa 4d3c
00000110: 6a8f 2c3d 1e1c 80b9 27b8 6fb3 0199 12bc
00000120: c9a6 6a33 d1a0 ccbc 8c73 cf39 291e 0cb5
00000130: ee72 de32 223a 8cbc 6f70 833b c04e e03a
00000140: 0102 fabb 82ec 05bc 57cc 093a 89a2 a9bc
00000150: b026 beba 25bf 6aba bc77 77b7 9f4a 48b6
00000160: f549 a4b4 fd83 57ba 207f efba d95f 0ab5
00000170: 827a f7b8 58c1 17bc 0654 b4b3 a58e d2b8
00000180: a396 3eb9 9478 c2bb eb07 4fba 119c 7838
00000190: ed7d 2a2f 865d 0fba 067f 07b3 fa72 663b
000001a0: 74a2 10b9 e721 65b6 9eac e1ae d182 2fb9
000001b0: 8939 47bc 81ec 3139 9d10 1eba 766c 4cba
000001c0: f678 2c3c f75e 85ba cea8 79b9 8364 46b8
000001d0: 88c7 ccb6 7586 c834 92b5 eeb0 5fa7 f8b8
000001e0: a13a 763c 00ab 2833 6bfd 1639 4f66 d8bc
000001f0: 718f 2cb5 72e5 df38 ccfa 1a3a fd30 32bd
00000200: f206 5a3b ddc0 9fb8 764f 6cb1 50a0 833c
00000210: eb3b d632 b91e 0e3d c59b 4638 29d5 3e37
00000220: fa74 0731 45d0 843c 2b1b 14bd 7042 5839
00000230: 4b3f f4bb 1b84 ac3b 064b dc3c 5b28 803c
00000240: 87ac c23a fc81 1bb7 2c0e 1637 d0ff 40b5
00000250: 9bea 91b2 9cde a839 4220 3d3a 6af8 c834
00000260: 56fc 4039 1706 aa3a e0c6 6b34 77fd c9b8
00000270: f794 ff38 e1e5 eb38 47f3 883a 98ba 8bb7
00000280: 20bc 8db0 5ae1 6239 982f 8732 607c 1f37
00000290: 9bfd d538 ddb6 8c35 303b e02f e589 3538
000002a0: b774 863a 323d 08b8 4930 043a da26 0239
000002b0: 1a6b 9cba 6698 7337 4db4 3038 dfda e937
000002c0: 3e01 9635 82e6 e1b2 b6fe 77b1 145a d536
000002d0: 77ce 7a39 78c1 e134 5b95 9338 1254 8939
000002e0: ac6a 84b2 8a56 90b7 227e 4ab9 4512 d0b9
000002f0: 6181 daba 9fc6 3837 d07c ec30 b071 ca39
00000300: dd31 18b1 fcbd a03a 3a01 9d36 b252 2633
00000310: c96e 7ab0 7534 533a 9676 7937 d4cd c8b8
00000320: 1277 7039 7f81 c839 913a 27b9 293f 823a
00000330: ea55 b138 2b7d 4438 238f e834 97a6 9e33
00000340: 8459 1f32 b31a e337 0652 813a 21e0 f7b4
00000350: 81f6 9738 007c 04bb 609a d234 0a9e 1639
00000360: 9067 dc39 985a 1bbb 86fc 8a3b 6061 4bb7
00000370: 887b ecb1 305c acba 669b 8e32 0e5c cdba
00000380: 1056 a038 1db8 ba35 4677 4131 23d2 06bb
00000390: 97ed 6dbb 6089 1b39 be1e 043a d50b c0ba
000003a0: f80a 503b 54a9 0bbb a053 9db9 72f2 92b8
000003b0: 9dfa 8c36 bcb0 17b5 bff0 18b3 6f06 4d38
000003c0: 0708 78bb a98f af35 4d2e 2b3a 77eb 82bd
000003d0: 79de adb4 1d0c 8fb9 e27f 85ba 8411 8fbd
000003e0: 50d8 1bbc 52cb 2039 873c 1532 f06f b03c
000003f0: fc50 bfb3 dedc ac3d 6aaf 0cb9 dfac aab6

convs.1.bias f4 [30]
-0.17157553 -1.9205124e-06 0.00017483419 -0.14428623 1.197376e-06 -0.0007118515 0.0032311415 0.15598945
0.034255467 0.00014002023 -2.508275e-08 -0.08612663 -4.5280574e-10 -0.0585577 0.00038393476 -4.555559e-06
2.6399743e-08 -0.03327933 -0.047706045 0.00033441588 -0.15555106 -0.058316126 0.110640496 -0.032796897
-0.0021113136 -0.00021685734 -2.142285e-05 1.1732056e-06 -2.1714922e-07 -0.0008676715
00000000: 7fb1 2fbe 27e2 00b6 b253 3739 c5bf 13be
00000010: 87b5 a035 8c9b 3aba 8fc1 533b b3bb 1f3e
00000020: 764f 0c3d 65d2 1239 8d75 d7b2 2963 b0bd
00000030: beee f8af 33da 6fbd da4a c939 f4db 98b6
00000040: a6c5 e232 e84f 08bd 6a67 43bd 8a54 af39
00000050: c748 1fbe e4dc 6ebd 7c97 e23d 0a56 06bd
00000060: f75d 0abb 3364 63b9 38b5 b3b7 0a77 9d35
00000070: 8629 69b4 7374 63ba

convs.2.weight f4 [30, 30]
0.003292789 -8.293479e-09 0.0025913343 -0.01610339 -0.09905417 -0.12707934 -0.01894747 -0.2282801
0.0018017209 -0.011427548 -2.2883453e-10 1.9421054e-06 -3.9367315e-10 8.101667e-13 -0.009071853 -0.020357154
0.0051840856 0.00042294135 -0.01841351 -3.8039397e-10 -0.26371396 -0.0010930478 -5.3577295e-08 -5.567702e-11
-0.028701928 0.0058550704 2.93044e-11 9.973889e-05 3.8357e-10 -9.908517e-09 1.0724455e-06 -4.33532e-13
3.8091991e-07 -3.9587635e-06 1.7483804e-06 9.184176e-06 1.498395e-06 4.7456833e-06 -1.0791588e-07 -1.1000621e-06
-5.126248e-14 -1.1809416e-09 -7.1577286e-14 4.24565e-17 -9.911444e-07 3.5601516e-08 3.9788906e-06 -7.037234e-08
4.0403453e-08 -9.063219e-14 8.118211e-06 -2.3476979e-07 -1.2982871e-11 1.162963e-14 5.646557e-07 7.270917e-07
1.5081759e-15 1.7931576e-08 1.3324559e-13 -3.4507268e-13 0.00029213596 -1.4717894e-10 0.00031140636 -0.0006145036
-0.0006197531 0.00011773856 -5.8550686e-05 -0.00057472853 -4.2204923e-05 -0.0013026521 -6.802659e-11 -1.5963718e-06
-6.9682475e-11 -8.712495e-14 -0.0005071388 -0.00031724633 0.000894857 -0.0001030434 -0.0002629919 -8.488497e-11
-0.00016124919 -0.00030335286 -1.8435742e-09 1.26387e-11 -0.0002885456 5.3031818e-05 -1.1714094e-12 -6.7170427e-06
1.2159462e-10 -1.2556385e-10 0.021472584 1.9959072e-10 0.0043837377 -0.047374237 -0.16836579 0.05202131
-0.0011037752 -0.32444492 3.834031e-06 -0.013897538 -4.119204e-10 7.654536e-07 -5.5182553e-10 9.464698e-13
-0.025096487 -0.034028355 0.08009477 0.0003428754 -0.02977621 -5.0489257e-10 -0.17108157 -0.0014467706
-1.0316006e-07 -3.34237e-11 -0.03954871 0.015970174 2.8415537e-11 0.00022343275 5.9544947e-10 -9.077493e-10
5.7381957e-08 7.335866e-14 1.1350227e-07 7.354904e-07 -1.490908e-06 -7.5473883e-07 -2.68193e-07 -2.0446685e-06
1.9675126e-09 -1.3899115e-06 -8.9606314e-14 -1.0987555e-09 -6.868514e-14 -1.0002029e-16 3.5759805e-07 -3.6217736e-07
5.0714124e-08 -8.5961226e-08 -2.7125662e-07 -4.8969577e-14 -1.8496212e-06 -2.3619299e-07 7.490262e-12 8.061385e-15
-4.4085994e-07 -4.2697036e-07 -1.987337e-15 -2.402385e-08 1.3180734e-13 1.6497925e-14 -0.0005198719 3.58504e-11
-0.00026142623 0.0012362447 0.0007709252 -0.0015196707 -0.00057159207 -0.0014296691 0.0001402803 0.0005258669
3.2070596e-11 2.1201135e-06 6.092564e-11 3.0947067e-14 0.0007962101 0.00070142886 -0.0023154323 2.747593e-05
0.00063008495 9.1300814e-11 6.115275e-05 9.225294e-05 7.518215e-09 -8.635138e-12 0.0004926208 -0.0005755446
4.301794e-13 4.731082e-06 -4.6305484e-11 2.2769861e-10 -0.00047191614 9.6644186e-11 0.0004991233 -0.0001685645
-0.003924121 -0.006536998 -0.0015841473 -0.006034372 -8.297688e-05 -0.002790152 -5.955385e-11 -3.6769104e-06
-9.3190275e-11 -1.9298227e-13 -0.00054664415 -0.0007563951 -0.0018933759 -0.0002268819 -0.0006320234 -2.5024452e-10
-0.006885582 -0.0005841878 1.0469942e-08 2.7226324e-11 -0.0012934677 -0.00033454568 -4.6432684e-12 -3.3278426e-05
2.4125904e-10 5.027022e-11 0.021188317 -1.2410241e-08 -0.0025095288 -0.035838522 -0.021811642 0.2968542
0.032593727 0.06722479 -0.00018195059 0.0104636485 1.6421214e-10 -2.2609029e-06 3.0371883e-10 -9.154653e-13
-0.021742567 -0.0129612945 0.089646496 -0.00047092017 -0.011957765 3.2458392e-10 0.28614157 0.00089950213
1.7352099e-07 6.806069e-11 -0.0025810709 0.015350859 -2.388711e-11 -0.00038552587 -2.6166902e-10 -1.3465874e-08
-0.0019850628 1.2424001e-09 0.002047116 0.0013812734 -0.04081246 -0.04807267 -0.014510728 -0.062325284
-7.7011915e-05 -0.029510574 -1.9358597e-09 -2.465584e-05 -1.8187233e-09 -1.3789564e-12 -0.006998667 -0.0074668895
00000000: d5cb 573b 1b7b 0eb2 60d3 293b 42eb 83bc
00000010: eadc cabd 1621 02be b937 9bbc 42c2 69be
00000020: b927 ec3a 9c3a 3bbc 329b 7baf 1e55 0236
00000030: 926c d8af aa0a 642b 1ca2 14bc 0cc4 a6bc
00000040: 43df a93b 3abe dd39 eed7 96bc b11f d1af
00000050: 8405 87be 9944 8fba dc1c 66b3 c0de 74ae
00000060: 4e20 ebbc e4db bf3b d2e1 002e e92a d138
00000070: aede d22f 1e3a 2ab2 f2f0 8f35 8c0e f4aa
00000080: 3c81 cc34 85d5 84b6 e5a9 ea35 bc15 1a37
00000090: 761c c935 1c3d 9f36 62bf e7b3 d9a5 93b5
000000a0: 9edd 66a9 b04e a2b0 7f2d a1a9 cacb 4324
000000b0: 7607 85b5 48e8 1833 6982 8536 9a1f 97b3
000000c0: 1188 2d33 e715 cca9 7333 0837 0715 7cb4
000000d0: a765 64ad 3480 5128 d892 1735 5c2d 4335
000000e0: df59 d926 f407 9a32 6d05 162a 3742 c2aa
000000f0: d329 9939 30d3 21af 4144 a339 a316 21ba
00000100: ed76 22ba 68ea f638 5294 75b8 61a9 16ba
00000110: 3105 31b8 c0bd aaba 9197 95ae eb42 d6b5
00000120: bf3b 99ae 1d30 c4a9 82f1 04ba 1554 a6b9
00000130: d694 6a3a 0119 d8b8 2de2 89b9 fda9 baae
00000140: 0015 29b9 550b 9fb9 0061 fdb0 a557 5e2d
00000150: ef47 97b9 7b6e 5e38 79dc a4ab f562 e1b6
00000160: d8b1 052f 150f 0aaf 46e7 af3c cb73 5b2f
00000170: 75a5 8f3b 7d0b 42bd 1568 2cbe 4c14 553d
00000180: 8dac 90ba a51d a6be 13a6 8036 80b2 63bc
00000190: a474 e2af 9279 4d35 45af 17b0 2b34 852b
000001a0: 2697 cdbc 5161 0bbd ba08 a43d f5c3 b339
000001b0: 3ded f3bc a8c8 0ab0 0230 2fbe 91a1 bdba
000001c0: d888 ddb3 beff 12ae d4fd 21bd e2d3 823c
000001d0: 1af2 f92d 4649 6a39 08ad 2330 2e85 79b0
000001e0: 2174 7633 6330 a529 88be f333 846e 4535
000001f0: 351b c8b5 4299 4ab5 2afc 8fb4 2337 09b6
00000200: d934 0731 ff8c bab5 86c6 c9a9 0603 97b0
00000210: 4aaa 9aa9 8fa1 e6a4 e7fb bf34 4771 c2b4
00000220: c5d0 5933 af99 b8b3 3aa1 91b4 148a 5ca9
00000230: 8040 f8b5 3c9c 7db4 24c5 032d 9438 1128
00000240: 54af ecb4 5c3a e5b4 e633 0fa7 015d ceb2
00000250: e166 142a a099 9428 0348 08ba f6ab 1d2e
00000260: 0910 89b9 7d09 a23a ea17 4a3a b02f c7ba
00000270: e5d6 15ba bc63 bbba 3518 1339 55da 093a
00000280: 480c 0d2e 4647 0e36 16fa 852e 8a5f 0b29
00000290: c1b8 503a 18e0 373a 82be 17bb 1c7c e637
000002a0: 492c 253a cac5 c82e 223f 8038 ec77 c138
000002b0: 7629 0132 34e9 17ad 3923 013a 25e0 16ba
000002c0: 632b f22a afbf 9e36 57a7 4bae 765b 7a2f
000002d0: 836b f7b9 d785 d42e 99d7 023a b0c0 30b9
000002e0: ea95 80bb 5034 d6bb 2aa3 cfba fbbb c5bb
000002f0: e003 aeb8 fcda 36bb d6f5 82ae d7c0 76b6
00000300: 76ed ccae 5a47 59aa ab4c 0fba d148 46ba
00000310: 272b f8ba 25e7 6db9 5fae 25ba c992 89af
00000320: 73a0 e1bb 2e24 19ba 4bdf 3332 3b7c ef2d
00000330: 9389 a9ba f665 afb9 d85e a3ac 7094 0bb8
00000340: 31a2 842f 3c17 5d2e 1f93 ad3c d134 55b2
00000350: e876 24bb 6acb 12bd 54ae b2bc 46fd 973e
00000360: 0081 053d 27ad 893d fdc9 3eb9 b96f 2b3c
00000370: 9c8d 342f 04ba 17b6 a0f8 a62f 1dd7 80ab
00000380: 781d b2bc 9c5b 54bc 9598 b73d d6e5 f6b9
00000390: 80ea 43bc 2071 b22f 2681 923e 91cc 6b3a
000003a0: 1651 3a34 c3aa 952e 2f27 29bb 2b82 7b3c
000003b0: fd1c d2ad 6820 cab9 a4da 8faf 8a57 67b2
000003c0: d417 02bb 11c1 aa30 e828 063b d80b b53a
000003d0: f72a 27bd d9e7 44bd 68be 6dbc cc48 7fbd
000003e0: 7581 a1b8 29c0 f1bc 0108 05b1 03d4 ceb7
000003f0: a3f6 f9b0 2412 c2ab 1355 e5bb cfac f4bb

convs.2.bias f4 [30]
0.010544152 -1.1295133e-09 0.002193378 -0.012042167 0.06843442 0.13584435 0.029663576 0.19166555
0.00014237281 -0.0052070976 -4.687953e-11 2.6297935e-06 -2.0117363e-10 6.129278e-13 -0.0107634645 0.009599695
0.028551223 0.00022954815 0.008555141 -1.1907796e-10 0.2293369 -0.00077158527 -9.407898e-08 -8.173259e-11
0.024293724 0.008713656 4.089643e-11 -7.561721e-05 2.0925964e-10 -2.3199243e-09
00000000: 61c1 2c3c 373d 9bb0 c7be 0f3b 824c 45bc
00000010: 5827 8c3d c81a 0b3e 0701 f33c f943 443e
00000020: e949 1539 4da0 aabb a92d 4eae 827b 3036
00000030: 5831 5daf 1a86 2c2b 3e59 30bc 0a48 1d3c
00000040: 41e4 e93c ddb2 7039 dd2a 0c3c 77ed 02af
00000050: 4bd7 6a3e 3644 4aba 7708 cab3 5cbb b3ae
00000060: a203 c73c b9c3 0e3c 49dd 332e ae94 9eb8
00000070: 5a15 662f 8a6c 1fb1

convs.3.weight f4 [30, 30]
1.9925408e-13 -0.00010057714 -1.217007e-12 -1.0053756e-12 -0.020111768 0.0017986364 -1.4139331e-09 -5.489419e-05
-0.015722359 0.0068951966 0.003297198 1.4508465e-10 0.012234055 0.026392987 -2.0237371e-06 0.027411228
-0.014797951 8.5492095e-05 -0.0012652446 -0.00013557311 0.0031305738 0.0016184837 -2.5796604e-07 -2.440744e-07
0.0022279988 0.018220203 0.0017965577 0.00088467094 -0.00028063427 0.011465343 -1.3328775e-19 -1.5388733e-10
-1.3005567e-17 1.5958217e-18 -3.3700638e-09 2.1944617e-09 2.3596407e-15 -9.520396e-11 -3.2967145e-09 -2.3498543e-09
8.5296764e-10 2.5896534e-16 2.9439406e-09 4.65115e-09 1.1091477e-12 2.80378e-09 -2.5498026e-09 -1.3929786e-10
-8.3992496e-10 4.6510965e-10 -9.451279e-10 1.9895776e-09 -1.3056731e-13 3.3015742e-13 -1.6695042e-09 1.8018562e-10
9.557566e-10 -5.834275e-10 1.3408695e-10 -9.335405e-10 2.2089122e-13 4.5547953e-05 -3.481049e-13 -1.6155068e-12
0.002642806 -0.0042712255 -6.687543e-10 -1.6145354e-06 0.0027610753 0.0061212573 -0.00019261468 -3.0162803e-10
-0.002466377 -0.005950675 -2.3357805e-07 -0.00097956 0.0030521683 1.751985e-05 0.001325969 0.00034665878
0.0031657782 -0.0047628665 6.4357586e-08 -9.6479454e-08 0.0039442647 0.0037138914 -0.000883303 1.5678625e-05
0.00016322224 0.0032710608 2.1736665e-13 -0.0006125065 -7.824914e-12 1.6425214e-12 0.03934952 -0.0029154324
3.4910503e-09 0.00022946557 0.03024975 -0.021053648 -0.0033303814 -1.848241e-09 -0.02588312 -0.055070587
-3.752322e-06 -0.05424669 0.028451536 1.8365557e-05 0.0029373367 0.0017575123 -0.0058457972 0.01099609
-4.961982e-07 4.9377644e-07 -0.005508444 -0.03747697 -0.0038055382 -0.00039944402 -2.3376677e-05 -0.025153594
2.074821e-12 -0.00086445804 6.79347e-11 -2.1179796e-11 0.11425871 0.01538825 -2.1605121e-08 0.0005885226
0.09411241 -0.120158605 -0.018163733 -7.524198e-09 -0.07984218 -0.08189819 -8.454755e-06 -0.15275258
0.04758052 2.3276636e-05 0.013699172 -0.0015478161 -0.031184228 0.124419846 3.8463315e-07 -3.266884e-06
-0.04445508 -0.12678212 -0.016122732 0.0071830265 -0.0017835787 -0.10411136 5.2057633e-12 0.0014572726
-6.7299784e-11 -3.2525364e-11 -0.19132966 0.080616735 -2.345407e-08 -0.00048346305 -0.16056855 -0.06928972
0.03369386 -9.598334e-09 0.1537701 0.3266338 -4.3086555e-05 0.20124964 -0.19577363 -0.0003900448
-0.0292421 0.0021899592 -0.025757141 0.16382429 -2.1877044e-08 -4.044736e-06 -0.053571597 0.0634103
0.03174215 0.005021022 -0.001339798 -0.0017858028 9.704687e-13 -0.00020697567 8.1351e-12 -7.802025e-12
-0.012380439 0.005226776 -5.7750222e-09 0.00014056261 -0.009772851 -0.014380614 0.002869858 -1.6670432e-09
0.0080835465 0.028240321 -7.5130497e-06 0.0149102565 -0.01489352 0.00012728882 -0.00013322484 -0.00034152044
-4.2439417e-05 0.030502748 -2.5108739e-07 -1.0075564e-06 -0.0042149317 0.003935943 0.00086022733 0.003619144
-0.0009046713 -0.0024973827 5.268605e-12 -0.0025621771 6.341423e-11 -5.417715e-11 0.160506 0.074210376
-4.011854e-08 0.00021663307 0.13200603 -0.2792377 -0.031642556 -1.21827375e-08 -0.10131746 -0.0279367
-1.9548104e-05 -0.23674306 0.0102515 -0.00046390723 0.014953169 -0.0014490093 -0.08472269 0.31645912
-9.168947e-07 -6.7822066e-06 -0.12237611 -0.24090917 -0.02106726 0.009260212 -0.0027950585 -0.22048439
1.0822882e-14 7.26728e-05 -4.6474313e-12 2.9921245e-13 0.0013030687 0.0005205661 8.7444774e-10 -2.7825246e-05
0.0011456634 -0.000111262976 0.00097650604 -5.785828e-11 -0.00070776517 0.0018556948 1.2279277e-06 -0.0007493358
00000000: 1457 602a f1ec d2b8 4c47 abab 797e 8dab
00000010: 6fc1 a4bc 39c0 eb3a 5954 c2b0 303e 66b8
00000020: 2dcc 80bc 1af1 e13b ce15 583b b385 1f2f
00000030: 5971 483c 1b36 d83c 8acf 07b6 838d e03c
00000040: 1b73 72bc 384a b338 90d6 a5ba a128 0eb9
00000050: 502a 4d3b 4d23 d43a 957e 8ab4 5509 83b4
00000060: 9e03 123b 8942 953c 797a eb3a 43e9 673a
00000070: 1822 93b9 22d9 3b3c c05b 1da0 6f33 29af
00000080: 0ee9 6fa3 7080 eb21 ca96 67b1 61cd 1631
00000090: b007 2a27 115b d1ae 6a8c 62b1 137b 21b1
000000a0: 4376 6a30 8a48 9525 5a4e 4a31 f3cf 9f31
000000b0: 4219 9c2b 9fac 4031 9a38 2fb1 dd28 19af
000000c0: 77e0 66b0 5db2 ff2f bbe5 81b0 05b9 0831
000000d0: 7701 13aa b3dc b92a 7574 e5b0 be1d 462f
000000e0: b25b 8330 0f5f 20b0 1f6e 132f 094e 80b0
000000f0: 8fb3 782a be0a 3f38 34f7 c3aa c45c e3ab
00000100: ed32 2d3b a3f5 8bbb 66d3 37b0 04b3 d8b5
00000110: 28f3 343b d494 c83b 9cf8 49b9 5fd2 a5af
00000120: f1a2 21bb e1fd c2bb 72cd 7ab4 9464 80ba
00000130: e306 483b 97f7 9237 23cc ad3a c1bf b539
00000140: f278 4f3b d211 9cbb f534 8a33 2430 cfb3
00000150: e43e 813b c264 733b 768d 67ba 9785 8337
00000160: a326 2b39 4b5f 563b acbb 742a 9e90 20ba
00000170: 48a8 09ad 122a e72b f62c 213d d710 3fbb
00000180: 35e7 6f31 b29c 7039 53ce f73c b378 acbc
00000190: 8742 5abb 3305 feb0 d608 d4bc b291 61bd
000001a0: 67d0 7bb6 c731 5ebd 3213 e93c bc0f 9a37
000001b0: 5580 403b 545c e63a 1a8e bfbb f228 343c
000001c0: 7b32 05b5 0f8c 0435 2d80 b4bb 7481 19bd
000001d0: 5666 79bb 786c d1b9 0819 c4b7 e90e cebc
000001e0: a700 122c cc9c 62ba d663 952e a94c baad
000001f0: 7800 ea3d 001f 7c3c 2a96 b9b2 1547 1a3a
00000200: 02be c03d b715 f6bd 1ccc 94bc c643 01b2
00000210: 4c84 a3bd 3dba a7bd e5d8 0db7 2c6b 1cbe
00000220: cbe3 423d 3242 c337 7e72 603c 17e0 caba
00000230: 1176 ffbc d5cf fe3d 947f ce34 a43c 5bb6
00000240: 8816 36bd 2cd3 01be d213 84bc 985f eb3b
00000250: f8c6 e9ba 5638 d5bd 5929 b72c f401 bf3a
00000260: 69fe 93ae 4e0c 0fae eceb 43be 631a a53d
00000270: 0c78 c9b2 5079 fdb9 156c 24be c5e7 8dbd
00000280: 9302 0a3d ebe5 24b2 e975 1d3e 8c3c a73e
00000290: d6b7 34b8 6314 4e3e e278 48be ed7e ccb9
000002a0: 218d efbc 6b85 0f3b a400 d3bc 8ec1 273e
000002b0: 21ec bbb2 05b8 87b6 e46d 5bbd 42dd 813d
000002c0: 0f04 023d 6387 a43b 299c afba 9911 eaba
000002d0: d294 882b 9c07 59b9 3c1d 0f2d 3241 09ad
000002e0: 53d7 4abc 6045 ab3b a26d c6b1 fd63 1339
000002f0: 4f1e 20bc ab9c 6bbc 3a14 3c3b de1d e5b0
00000300: da70 043c 3f58 e73c 9b18 fcb6 264a 743c
00000310: f303 74bc d578 0539 45b2 0bb9 190e b3b9
00000320: fa00 32b8 e6e0 f93c 30cd 86b4 603b 87b5
00000330: 691d 8abb 15f9 803b e180 613a 292f 6d3b
00000340: 7727 6dba 21ab 23bb 605f b92c 33ea 27bb
00000350: 0a73 8b2e 0c46 6eae af5b 243e 9cfb 973d
00000360: cd4e 2cb3 ff27 6339 972c 073e 3ef8 8ebe
00000370: a09b 01bd 3f4c 51b2 877f cfbd 82db e4bc
00000380: 3cfb a3b7 c66c 72be e8f5 273c 9338 f3b9
00000390: 23fe 743c afec bdba 1783 adbd ee06 a23e
000003a0: 8620 76b5 b692 e3b6 53a0 fabd e5b0 76be
000003b0: 3f95 acbc 25b8 173c 4d2d 37bb a9c6 61be
000003c0: bcf7 4228 ea67 9838 5784 a3ac 0f71 a82a
000003d0: bbcb aa3a 9976 083a ca5d 7030 436a e9b7
000003e0: 162a 963a db55 e9b8 36fc 7f3a a276 7eae
000003f0: 5189 39ba c93a f33a 46cf a435 136f 44ba

convs.3.bias f4 [30]
1.208377e-12 0.00071844534 -6.133372e-11 9.450263e-13 -0.00760945 0.112561524 1.7914221e-08 -0.00033155884
-0.012457863 -0.2323506 -0.009860678 1.6919642e-10 0.037751842 0.1483107 -3.9171073e-06 -0.048541654
-0.11647151 -0.00046802493 -0.0243016 0.0027479192 -0.09650037 0.341525 1.0920087e-06 2.6653272e-06
-0.13259093 -0.13679995 0.02117592 -0.003352981 0.0020483355 -0.17310439
00000000: 5f10 aa2b 0d56 3c3a d1df 86ae 2900 852b
00000010: b158 f9bb a886 e63d cae1 9932 13d5 adb9
00000020: 111c 4cbc 51ed 6dbe ae8e 21bc 8f08 3a2f
00000030: ada1 1a3d c3de 173e b26f 83b6 9dd3 46bd
00000040: 9d88 eebd 3e61 f5b9 2614 c7bc 6f16 343b
00000050: fca1 c5bd 5ddc ae3e 2291 9235 f9dd 3236
00000060: ebc5 07be 4915 0cbe 1f79 ad3c b0bd 5bbb
00000070: 5e3d 063b 4742 31be

convs.4.weight f4 [30, 30]
-3.3239574e-12 4.2379714e-18 -4.8325124e-12 -7.321448e-18 -1.146454e-15 9.44469e-13 4.2963435e-19 -1.0375742e-14
-1.6503954e-14 2.1582132e-19 3.72611e-13 3.6271797e-12 -9.696452e-17 1.8197346e-14 -3.6830848e-15 8.119877e-12
2.652315e-13 3.6070192e-13 1.7107196e-16 -9.208302e-12 6.013089e-12 -1.7826708e-12 5.3726793e-13 1.4866836e-15
7.85735e-12 -1.8185283e-16 1.05567105e-14 1.3956057e-12 1.0386678e-13 2.3131302e-13 -0.00036930843 -1.8016284e-09
-0.0034395428 -3.956471e-09 3.0853374e-07 0.0005628627 -5.287585e-10 4.1985886e-06 9.043833e-05 9.250581e-11
0.00036900354 0.00066431466 4.678282e-08 3.535458e-06 8.566961e-07 -0.00030584057 0.00032408765 -0.0004842327
5.308403e-07 0.0013850828 -0.00025682148 -9.2381124e-05 -0.0016238741 1.0098255e-07 -0.0005402365 3.117126e-08
9.995778e-07 0.00076495775 3.8118553e-05 -4.3080057e-05 1.1318096e-10 -1.1709203e-16 2.3649324e-10 3.2873092e-16
2.9702938e-14 -1.4283894e-11 -2.2965706e-18 1.00302e-12 -5.706419e-12 -6.8539205e-18 1.9862346e-11 -1.7320849e-10
-2.0850696e-15 -3.4731556e-14 1.3261323e-13 -3.61905e-10 -1.0257587e-11 -5.674968e-12 1.2147526e-14 4.720063e-10
-3.3126685e-10 4.61121e-11 1.0753846e-10 -1.8104635e-14 -3.3211334e-10 8.2798165e-15 -4.1674384e-13 8.934883e-12
3.6466993e-12 -8.9779234e-12 1.796706e-11 -2.9464408e-17 2.0368847e-11 3.2339867e-17 8.381154e-15 -2.4408457e-12
5.7527765e-19 4.2672432e-14 1.4122306e-12 -1.4840949e-18 -2.8386423e-12 -2.955803e-11 9.403018e-16 -1.2705654e-13
3.4469365e-14 -2.718517e-11 -1.3281543e-13 -1.9282525e-12 6.314797e-17 4.7587774e-11 -1.9632455e-11 9.612029e-12
1.9113133e-12 -1.2295498e-14 -2.9872955e-11 2.9621837e-15 -6.4961125e-14 -1.3208064e-11 -5.27762e-13 -2.6089617e-12
-0.033227827 -1.3845953e-08 0.22803068 -7.035046e-08 2.3680009e-06 -0.022181844 6.382591e-09 0.0002111814
0.00469034 -1.371377e-09 0.043853287 -0.08976421 8.535156e-07 -8.7683096e-05 -2.104437e-05 0.06575502
0.011309146 0.0028278367 6.293951e-06 -0.14789525 0.074862696 0.005161748 -0.0071014767 3.0919437e-06
0.040435553 -1.3945412e-06 -9.129356e-05 -0.007128237 -0.0028072044 0.0042241607 0.00075921835 1.8818707e-08
0.015083528 -1.26475115e-08 -4.4356407e-06 0.035515822 8.138521e-09 3.5812514e-05 0.0038618539 4.641989e-09
0.06684378 0.12074806 1.1603196e-07 2.9622768e-05 -1.08805525e-05 -0.10071581 0.007685103 0.009923487
-2.0207447e-06 -0.015187943 -0.11706091 -0.0027250517 0.0368713 1.7851891e-05 -0.011563162 -6.014613e-07
0.00018469688 -0.0061564767 0.0021001897 -0.00039137295 -5.703371e-09 4.825569e-15 -1.4615635e-08 -7.280611e-15
7.496065e-13 -2.1049575e-09 -3.2570011e-15 7.1676744e-12 9.893928e-10 -2.0006124e-15 -3.8071843e-09 5.2037474e-10
1.8507552e-13 -5.4308134e-11 7.5049824e-13 3.942747e-08 -7.4101836e-10 -6.860932e-09 -2.3936118e-12 -3.360513e-08
5.2774105e-08 5.735993e-09 4.1367536e-09 -5.1365726e-12 1.742069e-08 1.6451407e-13 -3.0044914e-11 -4.237231e-09
-1.3036543e-09 -6.505756e-10 0.00046802135 -5.6780075e-10 0.0010972475 -4.7228097e-09 6.7931154e-08 0.00034170735
2.082993e-10 -3.5438054e-06 -1.0806678e-05 -3.854772e-11 0.00019732096 -0.000673491 -4.177529e-08 -2.9937704e-07
3.5811425e-07 -0.0012051582 -7.135789e-05 -9.926704e-05 -1.5163664e-07 0.0013186678 -0.0011298805 0.00010679572
0.0025536455 -9.4873705e-08 -0.0014889025 2.4008465e-08 -1.4172736e-06 0.000132678 -3.6794398e-05 4.088904e-05
-0.026646422 -4.9163296e-09 0.18985775 -7.531772e-08 2.0348787e-06 -0.021651866 6.424387e-09 0.0002093702
0.0043888967 -7.728097e-10 0.032173287 -0.07783095 6.9431553e-07 -7.875663e-05 -1.8139404e-05 0.056919824
00000000: 18e7 69ac 825a 9c22 6707 aaac 900e 07a3
00000010: b038 a5a6 15ec 842b 829c fd20 aae9 3aa8
00000020: 87a7 94a8 fecb 7e20 e8c2 d12a 763d 7f2c
00000030: c095 dfa4 39e8 a328 76b2 84a7 add8 0e2d
00000040: e34f 952a a00e cb2a 883b 4525 81fe 21ad
00000050: 1791 d32c 7ce3 faab 3c3a 172b f240 d626
00000060: 5c3a 0a2d 7ba9 51a5 3c2c 3e28 ff69 c42b
00000070: 1fe3 e929 b837 822a bd9f c1b9 2a9d f7b0
00000080: f469 61bb 7df1 87b1 8ea4 a534 148d 133a
00000090: 1258 11b0 9ae1 8c36 b5a9 bd38 246c cb2e
000000a0: d176 c139 6725 2e3a 41ee 4833 b542 6d36
000000b0: b5f7 6535 3a59 a0b9 4fea a939 9de0 fdb9
000000c0: 117f 0e35 ab8b b53a ffa5 86b9 bdbc c1b8
000000d0: 2cd8 d4ba bedb d833 a89e 0dba 2ae1 0533
000000e0: 3b29 8635 7287 483a 7ce1 1f38 dcb0 34b8
000000f0: 37e3 f82e 78ff 06a5 7703 822f 1f80 bd25
00000100: 28c5 0529 f148 7bad fe74 29a2 9b29 8d2b
00000110: dac6 c8ac 73dd fca2 07b6 ae2d db71 3eaf
00000120: bf3e 16a7 c26a 1ca9 294f 152a 9af5 c6af
00000130: 1174 34ad 91ab c7ac 93d4 5a28 7ebe 0130
00000140: aa1d b6af 9ccd 4a2e c57a ec2e 7212 a3a8
00000150: cc94 b6af ea27 1528 1e9b eaaa 232f 1d2d
00000160: 8c4e 802c f9f0 1dad 390a 9e2d 6fe1 07a4
00000170: 912a b32d 2d24 1524 40fb 1628 5ec2 2bac
00000180: c0ca 2921 f72d 4029 f8c0 c62b 8503 dba1
00000190: 6fc0 47ac 62ff 01ae 0383 8726 8e0d 0faa
000001a0: 793c 1b29 901f efad 7189 15aa 4fb0 07ac
000001b0: fb9b 9124 124b 512e 5cb0 acad bb18 292d
000001c0: 297f 062c fa7e 5da8 f561 03ae a572 5527
000001d0: 8a47 92a9 d55b 68ad 438d 14ab e096 37ac
000001e0: e719 08bd 25df 6db2 e080 693e 9313 97b3
000001f0: f2e9 1e36 b3b6 b5bc dd4d db31 9370 5d39
00000200: 6cb1 993b 0a7b bcb0 819f 333d 4cd6 b7bd
00000210: 251d 6535 81e2 b7b8 7188 b0b7 91aa 863d
00000220: ff49 393c 3a53 393b a130 d336 da71 17be
00000230: 9d51 993d e123 a93b 81b3 e8bb 307f 4f36
00000240: c09f 253d 122c bbb5 db74 bfb8 fc93 e9bb
00000250: 13f9 37bb d46a 8a3b 4806 473a c6a6 a132
00000260: e720 773c 5848 59b2 ddd5 94b6 0a79 113d
00000270: 98d1 0b32 6535 1638 2817 7d3b 5e7f 9f31
00000280: 64e5 883d c24a f73d 3f2d f933 697e f837
00000290: 9e8b 36b7 1744 cebd 51d3 fb3b 1f96 223c
000002a0: 219c 07b6 dad6 78bc a1bd efbd c896 32bb
000002b0: 5c06 173d a5c0 9537 6b73 3dbc 1b74 21b5
000002c0: 31ab 4139 45bc c9bb 56a3 093b 3031 cdb9
000002d0: 62f7 c3b1 05dc ad27 3e18 7bb2 e427 03a8
000002e0: d7fe 522b cea6 10b1 11b1 6aa7 ac30 fc2c
000002f0: 2afb 8730 c928 10a7 59d0 82b1 1e0a 0f30
00000300: 6360 502a 86d9 6eae 193f 532b f656 2933
00000310: 88b0 4bb0 65bd ebb1 7a6f 28ac 3b55 10b3
00000320: bea9 6233 5416 c531 4523 8e31 22ba b4ac
00000330: 81a4 9532 f439 392a 9123 04ae 1497 91b1
00000340: 422c b3b0 30d4 32b0 c360 f539 6d13 1cb0
00000350: 84d1 8f3a 4646 a2b1 8ce1 9133 2f27 b339
00000360: 0a07 652f 1dd2 6db6 544e 35b7 e088 29ae
00000370: f1e7 4e39 378d 30ba 6b6c 33b3 11ba a0b4
00000380: d942 c034 66f6 9dba faa5 95b8 962d d0b8
00000390: 90d1 22b4 26d7 ac3a 8018 94ba 84f7 df38
000003a0: 105b 273b 5fbd cbb3 4727 c3ba 2c3b ce32
000003b0: 2639 beb5 7b1f 0b39 af53 1ab8 4680 2b38
000003c0: 9949 dabc 7eec a8b1 126a 423e 5bbe a1b3
000003d0: f38e 0836 415f b1bc 81bd dc31 638a 5b39
000003e0: bcd0 8f3b a66d 54b0 23c8 033d d565 9fbd
000003f0: 0061 3a35 252a a5b8 132a 98b7 c324 693d

convs.4.bias f4 [30]
0.043782216 -7.7654306e-08 0.3025623 -2.135911e-07 1.8443774e-05 -0.07591543 -1.99409e-09 -0.00020195113
-0.009179827 -1.606813e-08 0.16102445 0.08445079 4.8327083e-06 6.273614e-06 -1.6741493e-05 -0.03427743
-0.007724994 -0.0027614979 -4.6018064e-05 0.16665825 -0.026896695 -0.007251745 -0.18530434 -8.11286e-06
-0.12550268 7.2846524e-07 -2.8769859e-05 -0.03419479 -0.002117432 -0.0020099299
00000000: fb54 333d e8c2 a6b3 72e9 9a3e 7957 65b4
00000010: b4b7 9a37 8d79 9bbd 6708 09b1 d8c2 53b9
00000020: fc66 16bc 3106 8ab2 98e3 243e 89f4 ac3d
00000030: a628 a236 ef81 d236 1570 8cb7 7e66 0cbd
00000040: f221 fdbb 3ffa 34bb 8503 41b8 76a8 2a3e
00000050: 7556 dcbc 0ca0 edbb 6cc0 3dbe 781c 08b7
00000060: c683 00be c08b 4335 cd56 f1b7 d60f 0cbd
00000070: 9dc4 0abb 07b9 03bb

post_mp.0.weight f4 [30, 30]
0.010756553 -6.876981e-09 -0.12281654 -1.519837e-08 2.0543728e-05 0.007332829 7.0197226e-09 -3.1783286e-05
0.0023018941 1.6843375e-08 -0.030605294 0.032886207 2.7754684e-06 0.00015104849 1.1195914e-05 0.07561062
0.0050463984 0.0057534636 8.606477e-06 0.024843445 0.08836519 -0.00013180368 -0.02524937 4.878428e-06
0.015489205 1.1478887e-06 0.00012368915 0.028363826 0.008586462 0.00015102437 0.034493208 -6.4079494e-08
0.10257182 -6.4231367e-09 -1.5178766e-06 -0.029181855 -5.9884164e-09 0.00025499976 0.009602506 -7.813086e-09
-0.09149241 -0.19793177 -8.6507004e-07 -0.00018560264 -8.42202e-06 -0.050840817 0.0058506397 -0.008264605
1.0645663e-05 0.12716554 -0.03701762 0.009247062 0.042573888 -1.2647449e-05 -0.02695949 1.1511527e-08
-0.00016369039 -0.02705769 -0.0037342047 -0.0005663407 0.022285752 -5.6565945e-08 0.109781474 -1.2292535e-08
-7.9164865e-06 -0.036945827 -1.35410225e-08 0.00017458654 0.009153708 -1.48905945e-08 -0.16192837 -0.29272747
-1.6208446e-06 -0.000298721 -2.5198326e-05 -0.053745683 0.0021846667 -0.020053042 1.013633e-05 0.1198955
-0.053229667 0.011759563 0.06471313 -3.684346e-05 -0.035580672 -1.2120432e-06 -0.00019047182 -0.059728
-0.008149248 -0.005818195 -0.024912603 2.1769548e-08 0.17047134 9.047612e-09 -2.4555908e-05 -0.0039158626
-4.6054613e-09 -2.4650903e-05 -0.0032771304 -1.9684462e-08 0.057881482 -0.021001399 -3.823806e-06 -0.00013783386
-1.0312203e-05 -0.10587479 -0.010383862 -0.0042214254 1.25209335e-05 -0.07613892 -0.12388094 -0.0006133873
-0.010903074 -1.4308923e-05 -0.029461825 -1.3473477e-06 -0.0001115598 -0.011438097 -0.005432834 -0.0010801832
-0.014003743 2.4357094e-08 0.13121128 1.3941972e-08 -1.4630703e-05 0.0009560445 -2.5877394e-09 1.1436299e-05
-0.0025287678 -1.15810455e-08 0.055073895 -0.006073058 -2.489971e-06 -0.00011221851 -6.570738e-06 -0.08779017
-0.0072127786 -0.0016940151 7.4099506e-07 -0.05409428 -0.10503999 -0.0005048146 0.0071501383 -4.7170925e-06
-0.019416226 -9.142233e-07 -0.00011163202 -0.0103807 -0.0055016475 0.0009762016 -0.022695562 8.954542e-09
-0.09839755 -3.5097088e-08 5.1790307e-06 0.0051426943 2.68435e-09 -6.179314e-05 -0.0045562373 9.074568e-09
0.082104236 0.16792673 9.715078e-07 0.000114055736 8.45735e-06 0.040438365 0.00064080243 0.008965563
-9.904875e-06 -0.10797368 0.051289666 -0.008792942 -0.084734224 1.8321418e-05 0.025977112 2.6394088e-07
0.00015183174 0.028140878 0.005978933 0.0040870435 -0.016387114 1.0479932e-08 -0.09774129 -2.8264948e-08
5.5671985e-06 0.015147745 4.77924e-09 1.0547977e-05 -0.0038282997 1.0636029e-08 0.058198936 0.13687131
1.2668288e-06 9.287911e-05 1.3276959e-05 0.023823412 -0.0016999703 0.009306744 -4.613882e-06 -0.08781431
0.02801766 -0.00431622 -0.063270725 2.0302798e-05 0.012054388 7.025897e-07 0.00015991146 0.029681824
0.006089731 0.004705253 -8.2562765e-05 7.690977e-10 -0.00069262175 6.393999e-10 -3.6280559e-09 -0.00023213017
6.2368583e-12 2.9893572e-06 -0.0001470285 1.2658944e-11 0.00019937068 0.00029987475 8.011787e-09 1.2070433e-06
2.6087132e-08 -0.00022060543 -0.00028385886 2.456364e-05 2.5986617e-07 -0.00042385768 6.896705e-05 8.393081e-06
0.00015309316 1.559769e-07 -0.00018087942 8.973101e-09 4.1978194e-07 -4.5196826e-05 1.0190246e-05 3.4766017e-05
-0.026835086 2.6208513e-08 0.14745128 -2.46273e-08 -2.0861567e-05 -2.8858876e-05 -3.5049712e-09 -4.4824938e-05
-0.004109714 -1.2989321e-08 0.07458584 0.008586669 -2.709028e-06 -0.000111366135 -5.8134833e-06 -0.13146445
00000000: 413c 303c 914a ecb1 3d87 fbbd 928d 82b2
00000010: 5255 ac37 3a48 f03b 2232 f131 0b4f 05b8
00000020: 60db 163b f9ae 9032 f4b7 fabc b0b3 063d
00000030: 2f42 3a36 c562 1e39 16d6 3b37 bed9 9a3d
00000040: 425c a53b 8d87 bc3b 8a64 1037 7b84 cb3c
00000050: cff8 b43d c834 0ab9 c4d7 cebc 61b1 a336
00000060: 6fc6 7d3c 2811 9a35 8eb2 0139 415b e83c
00000070: 3bae 0c3c 4c5c 1e39 c048 0d3d 139c 89b3
00000080: 2d11 d23d 82b2 dcb1 d8b9 cbb5 c90e efbc
00000090: abc2 cdb1 7db1 8539 d453 1d3c 513a 06b2
000000a0: 5f60 bbbd a0ae 4abe 2937 68b5 549e 42b9
000000b0: 4d4c 0db7 763e 50bd b9b6 bf3b 4468 07bc
000000c0: c69a 3237 af37 023e ca9f 17bd fd80 173c
000000d0: f561 2e3d 6130 54b7 26da dcbc 3bc4 4532
000000e0: 4ea4 2bb9 17a8 ddbc 8fb9 74bb 7b76 14ba
000000f0: 9c90 b63c eaf2 72b3 1cd5 e03d 242f 53b2
00000100: 0dd1 04b7 8254 17bd 0ca2 68b2 3811 3739
00000110: 6ff9 153c 87d1 7fb2 8dd0 25be 60e0 95be
00000120: cc8b d9b5 a79d 9cb9 fe60 d3b7 6f24 5cbd
00000130: a02c 0f3b 4746 a4bc 350f 2a37 c68b f53d
00000140: 5a07 5abd 2fab 403c 5188 843d 5d88 1ab8
00000150: 0abd 11bd 7dad a2b5 64b9 47b9 59a5 74bd
00000160: 6c84 05bc 8fa6 bebb 8415 ccbc beff ba32
00000170: 0a90 2e3e d26f 1b32 69fd cdb7 a350 80bb
00000180: 113e 9eb1 69c9 ceb7 20c5 56bb 9716 a9b2
00000190: 2215 6d3d 200b acbc 3e4e 80b6 7f87 10b9
000001a0: 9302 2db7 e2d4 d8bd 1321 2abc e253 8abb
000001b0: 0011 5237 b9ee 9bbd 4ab5 fdbd bacb 20ba
000001c0: cfa2 32bc 5b10 70b7 ed59 f1bc 84d6 b4b5
000001d0: 36f5 e9b8 db66 3bbc ea05 b2bb ef94 8dba
000001e0: f56f 65bc d139 d132 405c 063e 7185 6f32
000001f0: 6476 75b7 0f9f 7a3a fed3 31b1 88de 3f37
00000200: afb9 25bb faf5 46b2 2a95 613d 8100 c7bb
00000210: 6019 27b6 db56 ebb8 367a dcb6 55cb b3bd
00000220: 2c59 ecbb b709 deba cbe8 4635 f791 5dbd
00000230: 351f d7bd 8955 04ba b54b ea3b 8447 9eb6
00000240: c70e 9fbc f268 75b5 fc1b eab8 d013 2abc
00000250: 2a47 b4bb c8e7 7f3a 0bec b9bc 7ed6 1932
00000260: a884 c9bd a8bd 16b3 89c7 ad36 0c84 a83b
00000270: 9677 3831 f096 81b8 7d4c 95bb 5fe6 1b32
00000280: 4426 a83d fcf4 2b3e c164 8235 3531 ef38
00000290: 0be4 0d37 b3a2 253d 86fb 273a 4ce4 123c
000002a0: 1d2d 26b7 4e21 ddbd 1d15 523d 4610 10bc
000002b0: 2389 adbd f2b0 9937 f4cd d43c c2b3 8d34
000002c0: 0635 1f39 b387 e63c edea c33b 9bec 853b
000002d0: 453e 86bc 3a0b 3432 962c c8bd 47cb f2b2
000002e0: dfcd ba36 3f2e 783c a436 a431 37f7 3037
000002f0: 36e4 7abb c0b9 3632 0262 6e3d fe27 0c3e
00000300: e807 aa35 18c8 c238 1bc0 5e37 5129 c33c
00000310: 8ad1 deba 507b 183c f2d0 9ab6 fdd7 b3bd
00000320: 4b85 e53c 146f 8dbb 1594 81bd ed4f aa37
00000330: c57f 453c 9999 3c35 e8ad 2739 4c27 f33c
00000340: 5e8c c73b 862e 9a3b 8c25 adb8 7068 5330
00000350: 0f91 35ba c5c1 2f30 6f51 79b1 f867 73b9
00000360: a070 db2c c49c 4836 aa2b 1ab9 d1b2 5e2d
00000370: 290e 5139 8238 9d39 36a4 0932 b101 a235
00000380: 3616 e032 5252 67b9 e4d2 94b9 040e ce37
00000390: bc83 8b34 3739 deb9 67a2 9038 02d0 0c37
000003a0: a287 2039 9b7a 2734 73aa 3db9 1e28 1a32
000003b0: 645e e134 b991 3db8 c6f6 2a37 bad1 1138
000003c0: 41d5 dbbc 2121 e132 78fd 163e 018c d3b2
000003d0: e0ff aeb7 f715 f2b7 1bdc 70b1 6902 3cb8
000003e0: c8aa 86bb a327 5fb2 76c0 983d 1aaf 0c3c
000003f0: bfcc 35b6 3d8d e9b8 7111 c3b6 9e9e 06be

post_mp.0.bias f4 [30]
-0.07977081 0.15358692 0.15487579 0.10940001 0.079995 -0.12937212 -0.1078575 -0.0007459654
0.073533595 0.102421366 0.14782 -0.0317423 0.06851844 0.08875939 0.11458306 -0.09740106
-0.09533975 -0.09304729 0.099195994 0.019182343 0.09778831 -0.095214196 0.08431888 -0.08399951
-0.0013048308 -0.1131328 0.070532195 0.089096054 -0.10055403 0.08672793
00000000: e15e a3bd e445 1d3e c297 1e3e 1d0d e03d
00000010: 6bd4 a33d 207a 04be 65e4 dcbd e48c 43ba
00000020: c898 963d 4bc2 d13d 205e 173e 3704 02bd
00000030: 6553 8c3d 7cc7 b53d 86aa ea3d 357a c7bd
00000040: 7d41 c3bd 948f bebd 4527 cb3d 4a24 9d3c
00000050: 3d45 c83d a9ff c2bd 61af ac3d ef07 acbd
00000060: db06 abba 2bb2 e7bd 2f73 903d fe77 b63d
00000070: 45ef cdbd 6a9e b13d

post_mp.2.weight f4 [3, 30]
0.043076843 0.1574601 0.22575118 -0.09047534 -0.07394647 -0.14975677 -0.08264513 -0.00016265444
-0.10995819 -0.05528829 0.20212454 0.02131721 -0.12038916 -0.123265155 0.18858762 -0.17303783
0.106346704 0.08210084 -0.06699346 -0.004258904 -0.07538404 0.14576581 -0.12176981 0.07828703
0.002191156 0.117473304 -0.1287547 -0.088919684 0.09107345 -0.08275821 -0.14880103 0.05733288
0.039654072 0.21948227 0.18085219 -0.020858193 -0.055434894 -5.3719814e-05 0.2389345 0.22152321
0.039647475 -0.008050563 0.24339017 0.24547929 0.010062884 -0.008600971 -0.26235595 -0.20364574
0.19514105 0.027761672 0.21071868 -0.28982803 0.24166621 -0.2397988 -0.0004809376 -0.26187655
0.24805512 0.20315054 -0.24191399 0.21181746 0.109572515 -0.21507508 -0.26730374 -0.13782771
-0.11485375 0.17705326 0.14001735 0.0003519804 -0.12273595 -0.14419432 -0.24615225 -0.016786147
-0.12022113 -0.14381033 -0.2000041 0.18312944 0.13051538 0.11511956 -0.12065332 -0.027183259
-0.14096187 0.14659336 -0.10964017 0.15497921 -0.0020266986 0.172244 -0.118366376 -0.115123354
0.16356565 -0.11000934
00000000: 5871 303d 383d 213e 512b 673e 234b b9bd
00000010: 3f71 97bd d759 19be da41 a9bd 388e 2ab9
00000020: c231 e1bd f975 62bd bcf9 4e3e 6ea1 ae3c
00000030: 988e f6bd 7172 fcbd 1d1d 413e d430 31be
00000040: 4dcc d93d 7c24 a83d de33 89bd 478e 8bbb
00000050: f362 9abd a243 153e 7362 f9bd f354 a03d
00000060: 7f99 0f3b d895 f03d 46d8 03be 861b b6bd
00000070: b884 ba3d 237d a9bd 4c5f 18be e2d5 6a3d
00000080: 4f6c 223d f6bf 603e 5131 393e cdde aabc
00000090: b30f 63bd 3651 61b8 3fab 743e fbd6 623e
000000a0: 6465 223d 82e6 03bc 463b 793e ec5e 7b3e
000000b0: cbde 243c 16eb 0cbc 8553 86be 8288 50be
000000c0: 0ed3 473e 726c e33c a3c6 573e 5764 94be
000000d0: 5977 773e d18d 75be 5a26 fcb9 af14 86be
000000e0: 2902 7e3e b206 503e 4db8 77be ade6 583e
000000f0: 8e67 e03d a43c 5cbe 09dc 88be b522 0dbe
00000100: 7138 ebbd 734d 353e b560 0f3e 028a b839
00000110: fc5c fbbd ada7 13be 560f 7cbe 1a83 89bc
00000120: 7f36 f6bd 0443 13be e0cd 4cbe 4986 3b3e
00000130: d3a5 053e cec3 eb3d 1619 f7bd 6daf debc
00000140: 4f58 10be 921c 163e 078b e0bd dfb2 1e3e
00000150: 5cd2 04bb bb60 303e 126a f2bd cbc5 ebbd
00000160: c17d 273e 944c e1bd

post_mp.2.bias f4 [3]
0.12824969 0.2809773 -0.40780374
00000000: e353 033e 42dc 8f3e a7cb d0be
