ckpt/best_GFN2_model.pt (torch, 295103 bytes, 36 tensors)

bn_feat.weight f4 [9]
0	0x3f4c88e9	0.7989641
1	0x3f5de299	0.86673886
2	0x3f53f18a	0.82790434
3	0x3f4e2168	0.80519724
4	0x3f3c4cf6	0.73554933
5	0x3f5009a9	0.8126474
6	0x3f61710d	0.88063127
7	0x3f614f4d	0.8801163
8	0x3f666efb	0.9001309

bn_feat.bias f4 [9]
0	0xbc692cc0	-0.014231861
1	0xb9ef5e1e	-0.00045655755
2	0x3c863d64	0.016386695
3	0xbab65431	-0.0013910589
4	0x3c041a86	0.008062964
5	0x3c2d44e7	0.01057551
6	0x3d48aea7	0.048994686
7	0x3c0b6c9d	0.008509782
8	0xbcb4776c	-0.022029601

bn_feat.running_mean f4 [9]
0	0x41ac9bfe	21.576168
1	0x3f63bd34	0.88960576
2	0x40e9a8a3	7.3018355
3	0x428d1ca7	70.55596
4	0x3f020165	0.5078338
5	0x4278f14f	62.235653
6	0x3be34f99	0.006936979
7	0x3dc99177	0.09842198
8	0x3c60bee8	0.013717391

bn_feat.running_var f4 [9]
0	0x4485d734	1070.7251
1	0x3d00100b	0.0312653
2	0x444ef736	827.8627
3	0x45b6e172	5852.1807
4	0x3db6bbb1	0.08922518
5	0x45ae3093	5574.072
6	0x3b253acf	0.0025212055
7	0x3b836e64	0.0040109623
8	0x390668b5	0.00012818242

conv_feat.weight f4 [9, 128]
0	0xbdcce56b	-0.100046955
1	0x3e1c496b	0.15262382
2	0xbdc0c80b	-0.09413155
3	0x3e2a7f60	0.16650152
4	0xbdc1578f	-0.094405286
5	0x3e304aac	0.17215985
6	0x3e2f26bd	0.17104621
7	0x3c689a3b	0.014196928
8	0xbdc59b4d	-0.09648762
9	0x3e141a09	0.14463057
10	0xbdd3ad48	-0.10335785
11	0x3c6b0e12	0.014346616
12	0x3e12b31f	0.14326142
13	0xbe084c58	-0.13310373
14	0x3cc887df	0.02447885
15	0x3e48303f	0.19549654
16	0xbe28dd03	-0.1649056
17	0xbc9185ba	-0.017763961
18	0x3ba876e2	0.005141125
19	0xbdf75033	-0.12075844
20	0xbde3c368	-0.11121255
21	0xbdfbd8a4	-0.1229718
22	0x3de5fe54	0.1123015
23	0xbd2525f8	-0.040319413
24	0x3e0ddd41	0.13853933
25	0x3e148437	0.14503561
26	0xbd21b68c	-0.03948073
27	0xbd216877	-0.039406266
28	0x3daeff70	0.085448146
29	0xbda1e9b1	-0.07905901
30	0xbdf7375d	-0.120711066
31	0xbda8c024	-0.08239773
32	0x3e0a0d7e	0.1348171
33	0xbddf9143	-0.10916378
34	0x3da29ea8	0.079404175
35	0xbd8b64fe	-0.06806372
36	0x3e3126db	0.17299978
37	0x3a55ea53	0.0008160222
38	0xbd17b3ca	-0.037036695
39	0xbdf51450	-0.11966765
40	0x3dd7e86e	0.10542379
41	0xbdbd696c	-0.09248623
42	0xbe3c7027	-0.18402158
43	0xbd3235c8	-0.04350832
44	0xbd8662d2	-0.06561817
45	0xbdf70413	-0.12061324
46	0x3e4a4d0a	0.1975595
47	0x3d25e013	0.040496897
48	0x3e0306e7	0.12795602
49	0x3ddfd1af	0.10928666
50	0x3e2a5aa7	0.16636144
51	0xbc880661	-0.016604604
52	0x3d8e97ce	0.06962548
53	0xbbc8a841	-0.006123573
54	0x3d121958	0.0356687
55	0xbd18e9c1	-0.0373323
56	0xbb278d61	-0.0025566446
57	0x3e1c5df6	0.15270218
58	0x3e09bc53	0.13450746
59	0x3de484b5	0.11158124
60	0xbe1fe267	-0.1561371
61	0x3cd5627b	0.026047936
62	0x3dc5ece3	0.09664323
63	0xbe1080aa	-0.14111581
64	0xbd7fa0b3	-0.062409114
65	0x3dadd392	0.084876195
66	0xbd9ed057	-0.077545814
67	0xbd916119	-0.07098598
68	0xbcfc7361	-0.030816736
69	0xbd53c2ef	-0.051699575
70	0xbdb21c2c	-0.086967796
71	0x3d3d1924	0.046166554
72	0x3da99b1d	0.08281539
73	0xbd847c30	-0.064689994
74	0x3cfbdffe	0.030746456
75	0xbdf67e90	-0.12035859
76	0x3dce786f	0.10081565
77	0x3e08c8a8	0.13357794
78	0xbd52ff82	-0.051513202
79	0x3def3ef2	0.11681928
80	0xbd59676f	-0.053077158
81	0x3c30b8ca	0.010786245
82	0x3e090a07	0.13382731
83	0xbdeeea62	-0.11665799
84	0xbe1372b5	-0.14399226
85	0x3d1cb699	0.038260076
86	0x3d86da58	0.065846145
87	0x3d448578	0.04797885
88	0x3e1ed318	0.15510213
89	0x3d1125a2	0.03543628
90	0x3de98464	0.11402205
91	0xbd97ca8d	-0.0741168
92	0x3b534072	0.0032234457
93	0xbdd173f9	-0.10227198
94	0xbd809dff	-0.06280135
95	0x3dda53f4	0.10660544
96	0x3d6743cc	0.05646114
97	0x3dfa1933	0.122118376
98	0xbd158145	-0.036500234
99	0x3d117ff6	0.035522424
100	0xbdcfca7b	-0.10146042
101	0x3e0984dd	0.1342959
102	0xbdedb270	-0.116063
103	0x3dc3bf77	0.095580034
104	0xbc874a9c	-0.016515069
105	0x3d65b525	0.056080956
106	0xbdb6c3d9	-0.08924074
107	0xbc999aef	-0.018750636
108	0x3da76acd	0.081746675
109	0x3d2b6991	0.041848723
110	0xbde0eeba	-0.109830335
111	0xbcff81f3	-0.031189894
112	0x3d6a4abc	0.05720018
113	0xbe049730	-0.12948298
114	0xbd85f249	-0.06540353
115	0x3c56296f	0.013071402
116	0x3e3466fc	0.1761741
117	0x3d0aca3b	0.03388427
118	0xbd96db4d	-0.07366047
119	0x3d07b2e8	0.033129603
120	0xbde90c3a	-0.11379285
121	0x3da4a039	0.080383725
122	0xbe2213e9	-0.15827908
123	0xbe1b9570	-0.15193725
124	0x3c1235d6	0.008923968
125	0xbd4f932f	-0.050677475
126	0xbe3099e1	-0.172462
127	0x3db9f433	0.090797804
128	0x3e2f5be0	0.17124891
129	0x3da3ac0c	0.079918
130	0xbe17f6f2	-0.14840296
131	0xbd65205d	-0.055939067
132	0xbdad1f62	-0.084532514
133	0x3decc6cb	0.11561354
134	0x3d74c9c7	0.059762742
135	0x3e43bb1b	0.19114344
136	0x3ca406f9	0.020022856
137	0xbc1aa173	-0.009437907
138	0x3d67d7fc	0.056602463
139	0xbdd0b035	-0.10189859
140	0xbda4a9b4	-0.08040181
141	0x3d9ba3d8	0.0759961
142	0x3df62c0f	0.12020122
143	0x3c296722	0.01033953
144	0xbdfce36d	-0.123480655
145	0xbda1b402	-0.07895662
146	0xbe07f6c8	-0.13277733
147	0x3d00084e	0.03125792
148	0x3d005730	0.03133315
149	0xbd5629fc	-0.052286133
150	0x3e1670fd	0.14691539
151	0xbe022779	-0.1271037
152	0xbd4fc037	-0.05072042
153	0xbc85c141	-0.016327502
154	0xbe308349	-0.17237581
155	0x3e30768d	0.17232724
156	0xbe374dab	-0.17900722
157	0x39f968d3	0.0004757108
158	0xbdd78170	-0.10522735
159	0xbdfeaa0a	-0.12434776
160	0xbe0f9922	-0.1402326
161	0xbdc7cc79	-0.09755797
162	0x3db82bf3	0.08992758
163	0xbe3ce93c	-0.18448347
164	0xbd6da6d9	-0.058020446
165	0xbde816e6	-0.113324925
166	0xbd96b733	-0.07359161
167	0xbe1073c6	-0.14106664
168	0x3dc5d025	0.09658841
169	0x3d76c816	0.06024941
170	0xbc3489d6	-0.011019191
171	0x3e709ab7	0.23496519
172	0x3e1a3bd7	0.1506189
173	0xbb60e43c	-0.0034315726
174	0x3ddcb6f6	0.107770845
175	0xbd1a030e	-0.03760057
176	0x3def5f22	0.11688067
177	0x3dd3e0cc	0.10345611
178	0x3d894fd3	0.067046784
179	0xbe16575c	-0.14681762
180	0x3cc7884c	0.024356984
181	0xbdddf96c	-0.10838589
182	0x3e301a58	0.1719755
183	0xbe1c3583	-0.15254788
184	0x3be4b59f	0.0069796587
185	0xbe206228	-0.15662444
186	0x3c169aba	0.009192163
187	0x3cc97214	0.02459053
188	0xbcc4c266	-0.024018478
189	0xbd4c7cfb	-0.04992388
190	0x3dc11ba0	0.09429097
191	0x3e3247e7	0.17410241
192	0x3dddfb09	0.10838897
193	0xbdf5a8b3	-0.119950674
194	0x3d58cfdc	0.052932605
195	0xbd63e462	-0.055637725
196	0xbe16d9ab	-0.14731471
197	0x3e0878bb	0.13327305
198	0x3c6b694b	0.0143683655
199	0x3dc1ec62	0.094689146
200	0x3c4da867	0.012552357
201	0x3c541083	0.01294339
202	0x3c2d4985	0.01057661
203	0xbcbed8e2	-0.023296777
204	0xbd428d9b	-0.047498327
205	0xbdba5144	-0.090975314
206	0x3e18fcc5	0.14940174
207	0xbd4d4105	-0.050110836
208	0xbbeca0d7	-0.007221322
209	0x3d9198a5	0.07109193
210	0x3e272ad3	0.1632493
211	0xbd6faf68	-0.05851689
212	0x3d882c5d	0.066490866
213	0x3cf9bbaa	0.030484993
214	0x3da07651	0.07835067
215	0x3dccc0f7	0.099977426
216	0x3bfc84b1	0.0077062477
217	0xbdcdf80b	-0.10057076
218	0xbe289a16	-0.16465029
219	0x3b482fee	0.0030546146
220	0xbd2859cd	-0.041101266
221	0xbd7adadb	-0.061243873
222	0xbe10bb66	-0.14133987
223	0xbb951ed9	-0.0045507965
224	0xbdeaaf46	-0.11459212
225	0x3c5fc891	0.013658659
226	0xbe143d0f	-0.14476417
227	0xbde0b050	-0.10971129
228	0x3bc1ce9d	0.005914523
229	0x3d4c624d	0.049898434
230	0xbdf2e679	-0.118603654
231	0xbe2beb0b	-0.1678888
232	0x3db0df4f	0.08636343
233	0x3e209704	0.15682608
234	0xbcd9d425	-0.026590416
235	0x3e5272b1	0.20551564
236	0x3db7d394	0.08975902
237	0x3cbef83c	0.023311727
238	0xbd973415	-0.07382981
239	0x3d2693fd	0.040668476
240	0x3e1cc85e	0.15310809
241	0xbd91eae0	-0.07124877
242	0x3dbc256c	0.09186825
243	0x3e3d7dbe	0.18504998
244	0x3d1fbbb9	0.038997386
245	0x3d6a609b	0.057221036
246	0x3d143e77	0.036192384
247	0xbe0247dc	-0.12722725
248	0x3dc73603	0.09727099
249	0xbc0e1595	-0.008672138
250	0xbd728e55	-0.05921777
251	0x3e03c616	0.12868533
252	0xbda77fe2	-0.081786886
253	0x3e2be66f	0.16787122
254	0xbdf06e61	-0.11739803
255	0x3dee7670	0.11643684

conv_feat.bias f4 [128]
0	0x00000000	0.0
1	0x00000000	0.0
2	0x00000000	0.0
3	0x00000000	0.0
4	0x00000000	0.0
5	0x00000000	0.0
6	0x00000000	0.0
7	0x00000000	0.0
8	0x00000000	0.0
9	0x00000000	0.0
10	0x00000000	0.0
11	0x00000000	0.0
12	0x00000000	0.0
13	0x00000000	0.0
14	0x00000000	0.0
15	0x00000000	0.0
16	0x00000000	0.0
17	0x00000000	0.0
18	0x00000000	0.0
19	0x00000000	0.0
20	0x00000000	0.0
21	0x00000000	0.0
22	0x00000000	0.0
23	0x00000000	0.0
24	0x00000000	0.0
25	0x00000000	0.0
26	0x00000000	0.0
27	0x00000000	0.0
28	0x00000000	0.0
29	0x00000000	0.0
30	0x00000000	0.0
31	0x00000000	0.0
32	0x00000000	0.0
33	0x00000000	0.0
34	0x00000000	0.0
35	0x00000000	0.0
36	0x00000000	0.0
37	0x00000000	0.0
38	0x00000000	0.0
39	0x00000000	0.0
40	0x00000000	0.0
41	0x00000000	0.0
42	0x00000000	0.0
43	0x00000000	0.0
44	0x00000000	0.0
45	0x00000000	0.0
46	0x00000000	0.0
47	0x00000000	0.0
48	0x00000000	0.0
49	0x00000000	0.0
50	0x00000000	0.0
51	0x00000000	0.0
52	0x00000000	0.0
53	0x00000000	0.0
54	0x00000000	0.0
55	0x00000000	0.0
56	0x00000000	0.0
57	0x00000000	0.0
58	0x00000000	0.0
59	0x00000000	0.0
60	0x00000000	0.0
61	0x00000000	0.0
62	0x00000000	0.0
63	0x00000000	0.0
64	0x00000000	0.0
65	0x00000000	0.0
66	0x00000000	0.0
67	0x00000000	0.0
68	0x00000000	0.0
69	0x00000000	0.0
70	0x00000000	0.0
71	0x00000000	0.0
72	0x00000000	0.0
73	0x00000000	0.0
74	0x00000000	0.0
75	0x00000000	0.0
76	0x00000000	0.0
77	0x00000000	0.0
78	0x00000000	0.0
79	0x00000000	0.0
80	0x00000000	0.0
81	0x00000000	0.0
82	0x00000000	0.0
83	0x00000000	0.0
84	0x00000000	0.0
85	0x00000000	0.0
86	0x00000000	0.0
87	0x00000000	0.0
88	0x00000000	0.0
89	0x00000000	0.0
90	0x00000000	0.0
91	0x00000000	0.0
92	0x00000000	0.0
93	0x00000000	0.0
94	0x00000000	0.0
95	0x00000000	0.0
96	0x00000000	0.0
97	0x00000000	0.0
98	0x00000000	0.0
99	0x00000000	0.0
100	0x00000000	0.0
101	0x00000000	0.0
102	0x00000000	0.0
103	0x00000000	0.0
104	0x00000000	0.0
105	0x00000000	0.0
106	0x00000000	0.0
107	0x00000000	0.0
108	0x00000000	0.0
109	0x00000000	0.0
110	0x00000000	0.0
111	0x00000000	0.0
112	0x00000000	0.0
113	0x00000000	0.0
114	0x00000000	0.0
115	0x00000000	0.0
116	0x00000000	0.0
117	0x00000000	0.0
118	0x00000000	0.0
119	0x00000000	0.0
120	0x00000000	0.0
121	0x00000000	0.0
122	0x00000000	0.0
123	0x00000000	0.0
124	0x00000000	0.0
125	0x00000000	0.0
126	0x00000000	0.0
127	0x00000000	0.0

bns_conv.0.weight f4 [128]
0	0x3f58e1f8	0.847198
1	0x3f5962cb	0.8491637
2	0x3f5a6126	0.85304487
3	0x3f5ac5ca	0.8545805
4	0x3f57a3f8	0.8423457
5	0x3f582b2c	0.84440875
6	0x3f574aa1	0.8409825
7	0x3f5e8672	0.869239
8	0x3f5c8e65	0.86154777
9	0x3f56fc7d	0.83979017
10	0x3f58be8e	0.84665763
11	0x3f577936	0.8416933
12	0x3f5a0126	0.85158
13	0x3f5741c7	0.84084743
14	0x3f5a3f10	0.85252476
15	0x3f53596b	0.82558316
16	0x3f57083a	0.8399693
17	0x3f582ab5	0.84440166
18	0x3f5c95c9	0.86166054
19	0x3f5a6b76	0.8532022
20	0x3f578ba3	0.84197444
21	0x3f5c5f0e	0.8608254
22	0x3f5a22ab	0.8520915
23	0x3f56a9ad	0.83852655
24	0x3f5aed91	0.8551875
25	0x3f5a6a8c	0.8531883
26	0x3f5974d0	0.84943867
27	0x3f583300	0.8445282
28	0x3f57a7b9	0.842403
29	0x3f55acf4	0.8346703
30	0x3f584805	0.84484893
31	0x3f58168c	0.84409404
32	0x3f586bf2	0.8453971
33	0x3f57dcbb	0.8432118
34	0x3f5a1b0a	0.8519751
35	0x3f58ec09	0.8473516
36	0x3f59220c	0.84817576
37	0x3f572be9	0.84051377
38	0x3f57f020	0.84350777
39	0x3f58c17b	0.8467023
40	0x3f59f52a	0.85139716
41	0x3f5acf94	0.8547299
42	0x3f57e476	0.8433298
43	0x3f5e3c65	0.86810905
44	0x3f566a29	0.8375574
45	0x3f572410	0.840394
46	0x3f57c74a	0.84288466
47	0x3f56eb43	0.8395273
48	0x3f5a7344	0.8533213
49	0x3f57acf2	0.8424827
50	0x3f58c171	0.8467017
51	0x3f59a19d	0.8501223
52	0x3f597dd1	0.84957606
53	0x3f598037	0.84961265
54	0x3f5adfd8	0.8549781
55	0x3f588956	0.8458456
56	0x3f574790	0.8409357
57	0x3f587985	0.84560424
58	0x3f59f05d	0.8513239
59	0x3f579679	0.8421398
60	0x3f565f1e	0.8373889
61	0x3f57a523	0.84236354
62	0x3f57dc92	0.8432094
63	0x3f582c35	0.84442455
64	0x3f59f70b	0.8514258
65	0x3f5d01c4	0.8633082
66	0x3f5b8ede	0.85764873
67	0x3f53a6df	0.826765
68	0x3f58d426	0.8469871
69	0x3f58700c	0.8454597
70	0x3f58ca1d	0.846834
71	0x3f5ad888	0.8548665
72	0x3f571218	0.84011984
73	0x3f57c1eb	0.8428027
74	0x3f54ca06	0.83120763
75	0x3f574510	0.84089756
76	0x3f5c95ea	0.8616625
77	0x3f57fd23	0.8437063
78	0x3f58c9b1	0.84682757
79	0x3f578bd3	0.8419773
80	0x3f58de2a	0.84713995
81	0x3f5766c7	0.841412
82	0x3f57d056	0.8430227
83	0x3f56c79c	0.8389833
84	0x3f5733f5	0.84063655
85	0x3f5a841f	0.8535785
86	0x3f59d4ab	0.8509013
87	0x3f59d9ad	0.8509777
88	0x3f59908d	0.8498619
89	0x3f5bf23b	0.8591649
90	0x3f56c03d	0.8388708
91	0x3f5a3b1e	0.85246456
92	0x3f5a9c45	0.853947
93	0x3f5970bc	0.84937644
94	0x3f5960a6	0.849131
95	0x3f57d5d9	0.8431068
96	0x3f57556c	0.8411472
97	0x3f592fb0	0.8483839
98	0x3f584123	0.8447439
99	0x3f584c86	0.84491765
100	0x3f585fe1	0.845213
101	0x3f5902a0	0.8476963
102	0x3f590f1d	0.84788686
103	0x3f584b25	0.8448966
104	0x3f584caf	0.8449201
105	0x3f5bb636	0.85824907
106	0x3f5b519c	0.856714
107	0x3f5a4f69	0.8527742
108	0x3f578ab7	0.8419604
109	0x3f57f8e7	0.8436417
110	0x3f5875db	0.84554833
111	0x3f5862f8	0.84526014
112	0x3f5816c8	0.8440976
113	0x3f52d4ae	0.82355773
114	0x3f585903	0.8451082
115	0x3f58a733	0.84630126
116	0x3f59b71a	0.85045016
117	0x3f56b74b	0.8387343
118	0x3f571b18	0.84025717
119	0x3f5817e4	0.84411454
120	0x3f598402	0.8496705
121	0x3f572937	0.84047264
122	0x3f5c6411	0.8609019
123	0x3f5a4d32	0.8527404
124	0x3f591a09	0.8480535
125	0x3f5b8550	0.85750294
126	0x3f5862e6	0.8452591
127	0x3f586285	0.8452533

bns_conv.0.bias f4 [128]
0	0xbc010bfe	-0.007876394
1	0x3c0fdfd2	0.00878139
2	0x3c6c1a1f	0.014410525
3	0xbbc27652	-0.005934515
4	0xbc40df7a	-0.011772031
5	0x3bd7aa60	0.0065815896
6	0xb92e8cd9	-0.00016646403
7	0xbc1be753	-0.009515601
8	0x3b99e244	0.0046961624
9	0x3bee1793	0.007265994
10	0xbb946b8d	-0.0045294226
11	0xbbc48e19	-0.0059983847
12	0x3b8f3879	0.0043707457
13	0x3b7cba8c	0.003856334
14	0xbc3a86b4	-0.011384655
15	0x3b0de8da	0.0021653683
16	0x3be96397	0.0071224677
17	0xb9ba2dcd	-0.0003551081
18	0xbb33400a	-0.0027351403
19	0xbc22727d	-0.009914991
20	0x3ba266b3	0.0049560904
21	0xbcac59fc	-0.021039002
22	0xbbc1ef29	-0.0059184027
23	0x3b85e61c	0.004086269
24	0x3c0ac1a6	0.008469021
25	0xbc865821	-0.016399445
26	0x3b9d3c66	0.00479846
27	0xbb0194e9	-0.0019772595
28	0xbc0e676e	-0.008691652
29	0x3bcc98f2	0.0062438184
30	0xbaaa1df7	-0.0012978901
31	0x3ba05ea7	0.004894096
32	0x3a10dceb	0.00055260834
33	0xbb6860f8	-0.0035458189
34	0x3aed01ae	0.0018082166
35	0x3c03e60d	0.008050454
36	0x3a933dc6	0.001123362
37	0x3c35a490	0.011086598
38	0x3c0a49b1	0.008440421
39	0xbc0ec971	-0.00871502
40	0xbc87935d	-0.01654976
41	0xbbc1e6b0	-0.0059173927
42	0xbbb2612b	-0.005443712
43	0x3c1dc608	0.009629734
44	0x3c435fb2	0.011924671
45	0xbba52944	-0.0050403196
46	0xb8a2f0a1	-7.7695826e-05
47	0xbc401e03	-0.011725905
48	0xbbbb600b	-0.0057182363
49	0x3c0b4c0d	0.008502019
50	0xbbd6b660	-0.0065525025
51	0xbbd62650	-0.006535329
52	0x3ba63d8f	0.0050732563
53	0xbc764066	-0.015030002
54	0x3b3a546f	0.0028431674
55	0xbbf05866	-0.0073347567
56	0xbbd8d0fd	-0.00661671
57	0xba7c0c8a	-0.00096149056
58	0xbb04dfaa	-0.0020274916
59	0xbc57c3b5	-0.013169219
60	0x3c350bdd	0.011050192
61	0x3aa454b1	0.0012537447
62	0x3bf189c5	0.0073711597
63	0x39a6fd4e	0.00031850714
64	0x3c51e455	0.012810786
65	0xbb0c21b2	-0.0021382389
66	0xbc8083cc	-0.015687846
67	0xbc070f33	-0.00824337
68	0x3c3185fd	0.010835168
69	0xbc174e76	-0.009235015
70	0xbb9d5619	-0.0048015234
71	0x3c05e155	0.008171399
72	0xbcc10564	-0.02356214
73	0xbbc5ff72	-0.0060424143
74	0x3bb18779	0.005417761
75	0xbbb6f74d	-0.00558368
76	0xbb25e53e	-0.002531364
77	0x3b20b71e	0.002452321
78	0xbac2fc45	-0.0014876208
79	0xbb9f3afb	-0.004859326
80	0xbcb80ef5	-0.02246807
81	0xbb35e784	-0.0027756402
82	0x3c0ec79a	0.008714581
83	0xbc8863bc	-0.01664912
84	0x3b85cb20	0.0040830523
85	0xbc812c21	-0.015768113
86	0xbc598cdf	-0.013278215
87	0xbc09a087	-0.008400089
88	0xbb8b63e8	-0.004253853
89	0x3c4ef0f2	0.012630688
90	0x3b6a9cd2	0.0035799039
91	0x3b220a6c	0.002472545
92	0xbc6079b2	-0.013700889
93	0xb9effa12	-0.0004577195
94	0xbb886321	-0.0041622077
95	0xbc72e1f7	-0.014824382
96	0xbcca12e9	-0.02466722
97	0x3ab7f7e9	0.0014035675
98	0xbbae0a86	-0.005311313
99	0xbbb2851b	-0.0054479963
100	0x3b69cf9f	0.003567673
101	0xbb867371	-0.004103117
102	0x3b656737	0.0035004148
103	0x3c6962e2	0.014244767
104	0x3b2fcd65	0.0026825306
105	0xb9a755e0	-0.00031916704
106	0x3ba1b8a6	0.004935342
107	0x3b011c13	0.0019700571
108	0xba9e3d22	-0.0012072662
109	0xbc214ad3	-0.0098445
110	0x3bc73cef	0.006080262
111	0x3b34c432	0.0027582762
112	0xbca744f6	-0.020418625
113	0xbb13edfa	-0.0022572265
114	0x3c89c6eb	0.016818484
115	0xbc81e816	-0.015857738
116	0xbbeab079	-0.0071621505
117	0xbaa75eac	-0.0012769303
118	0x3b668010	0.0035171546
119	0xbc19d0b0	-0.009388134
120	0xbc4175c9	-0.011807867
121	0x3b73cd67	0.0037201287
122	0x3a29a02f	0.00064707076
123	0x3b93a881	0.004506171
124	0x3c6ace90	0.014331475
125	0xbab20460	-0.0013581626
126	0x3b14d609	0.0022710583
127	0x3ca6d482	0.020365003

bns_conv.0.running_mean f4 [128]
0	0x3da42cac	0.08016333
1	0x3d160363	0.036624324
2	0x3db465a0	0.08808446
3	0x3da0b8d6	0.07847755
4	0x3dd34e95	0.10317723
5	0x3dd7321b	0.10507604
6	0x3dc52a12	0.09627165
7	0x3d8d2926	0.06892614
8	0x3d40504d	0.04695158
9	0x3da29bcb	0.079398714
10	0x3de1422d	0.1099895
11	0x3daa4c02	0.083152786
12	0x3d7df4ee	0.06200116
13	0x3e0ed3c0	0.13947964
14	0x3dba4b96	0.09096448
15	0x3d82be55	0.06383959
16	0x3d962d29	0.07332832
17	0x3d9eb1b5	0.07748739
18	0x3d507c61	0.050899867
19	0x3e1028d1	0.1407807
20	0x3d7e6af5	0.06211372
21	0x3d8c5371	0.06851853
22	0x3d9262f6	0.071477816
23	0x3d9a1fa3	0.075255655
24	0x3d5fde78	0.054655522
25	0x3d9e4fae	0.077300414
26	0x3dc48429	0.0959552
27	0x3def9e22	0.11700083
28	0x3dbef2b0	0.09323633
29	0x3d8e6370	0.0695256
30	0x3e0be43f	0.13661288
31	0x3e1302b8	0.14356506
32	0x3de1ebab	0.11031278
33	0x3dbeb3d6	0.09311645
34	0x3d615ff9	0.055023167
35	0x3d97d6fc	0.07414052
36	0x3d208514	0.039189413
37	0x3db8615a	0.09002943
38	0x3d892f6c	0.06698498
39	0x3de1796d	0.11009488
40	0x3dbfad1a	0.093591884
41	0x3d98e175	0.074648775
42	0x3dbc2deb	0.09188446
43	0x3d89de42	0.067318454
44	0x3d823668	0.063580334
45	0x3dd9c670	0.10633552
46	0x3dfb8891	0.12281907
47	0x3da9cacf	0.08290636
48	0x3db478c0	0.08812094
49	0x3dae9f99	0.085265346
50	0x3d809ace	0.06279527
51	0x3d5ab991	0.053399626
52	0x3d6b0458	0.05737719
53	0x3d8a66d4	0.06757894
54	0x3d827e6d	0.0637177
55	0x3df12fae	0.11776672
56	0x3da0932c	0.07840571
57	0x3d669d15	0.05630215
58	0x3da0705b	0.0783393
59	0x3df76579	0.12079901
60	0x3db07bba	0.08617349
61	0x3d82e0d9	0.063905425
62	0x3de6db00	0.1127224
63	0x3e0afa3b	0.13572018
64	0x3da1328a	0.07870968
65	0x3d342d01	0.04398823
66	0x3dbea203	0.09308245
67	0x3dfdb1f7	0.1238746
68	0x3d9eabf4	0.07747641
69	0x3da18a04	0.078876525
70	0x3da29d2b	0.07940134
71	0x3db87a0e	0.09007655
72	0x3dc663d7	0.09687012
73	0x3dbafe28	0.09130508
74	0x3d601808	0.054710418
75	0x3d52dcf7	0.05148026
76	0x3d8c9782	0.06864835
77	0x3dee3674	0.1163148
78	0x3dba48a9	0.0909589
79	0x3d9197fe	0.07109068
80	0x3dd39c18	0.10332507
81	0x3d64597a	0.055749394
82	0x3e09c022	0.13452199
83	0x3d951aaa	0.072804764
84	0x3ddb6a30	0.10713613
85	0x3d8b8212	0.06811918
86	0x3d8a8edc	0.067655295
87	0x3d1f132d	0.038836647
88	0x3d94ed4c	0.07271823
89	0x3d709cff	0.058743473
90	0x3da1e485	0.07904915
91	0x3d6348b3	0.055489253
92	0x3d81e6bc	0.06342837
93	0x3e0054ac	0.125323
94	0x3d8b777c	0.06809899
95	0x3dbd6980	0.09248638
96	0x3d9ceb21	0.07662035
97	0x3dd9604d	0.10614071
98	0x3d6db9f5	0.05803867
99	0x3de4df41	0.11175395
100	0x3deb92f9	0.11502642
101	0x3df1b8df	0.118028395
102	0x3d7d2dd4	0.061811283
103	0x3d8bda11	0.06828702
104	0x3e0b7083	0.13617139
105	0x3dce8a05	0.10084919
106	0x3d987bb9	0.07445473
107	0x3df684f6	0.12037079
108	0x3d9fdf7b	0.078062974
109	0x3db8a757	0.090162925
110	0x3d82e6f0	0.06391704
111	0x3d8d4d9e	0.0689957
112	0x3db13ae8	0.086538136
113	0x3df035f8	0.11729044
114	0x3da6f84a	0.08152826
115	0x3dab5001	0.08364869
116	0x3e13be4c	0.14428061
117	0x3d7b1798	0.061301798
118	0x3d8715ae	0.06595932
119	0x3d69da48	0.057092935
120	0x3db8ee4c	0.090298265
121	0x3db9d627	0.090740494
122	0x3d84d639	0.06486172
123	0x3d9e1b49	0.07720048
124	0x3d8b0abd	0.067891575
125	0x3dabb790	0.08384621
126	0x3da471fb	0.080295525
127	0x3d9254e8	0.07145101

bns_conv.0.running_var f4 [128]
0	0x3c2c1d59	0.010505044
1	0x3c202bcd	0.009776068
2	0x3c91b3ac	0.01778587
3	0x3d16081e	0.036628835
4	0x3cd88a60	0.02643317
5	0x3ca67459	0.02031915
6	0x3cd4b35b	0.02596443
7	0x3baa28be	0.005192845
8	0x3bbdc6e2	0.005791531
9	0x3cd2cc4f	0.025732188
10	0x3ca554d2	0.020182047
11	0x3cdcd096	0.02695493
12	0x3c6835be	0.014172969
13	0x3d0a3b0b	0.033747714
14	0x3c85b835	0.016323188
15	0x3be24e6d	0.0069063217
16	0x3cefc215	0.02926735
17	0x3ca4965e	0.020091232
18	0x3bbdc975	0.005791838
19	0x3cca0b2b	0.024663528
20	0x3ccd39d3	0.025051987
21	0x3b94fb56	0.004546563
22	0x3be80e44	0.0070817787
23	0x3caea15c	0.021317177
24	0x3bd4f42c	0.006498834
25	0x3c39414a	0.01130707
26	0x3d7627da	0.0600966
27	0x3c9a09ce	0.018803503
28	0x3d217538	0.03941843
29	0x3c0d74a3	0.008633765
30	0x3d2f846c	0.042850897
31	0x3d937ddf	0.072017424
32	0x3dbfdee6	0.093686864
33	0x3c8392b4	0.016061164
34	0x3b87e62a	0.0041473107
35	0x3cadc906	0.02121402
36	0x3b87ebe2	0.0041479925
37	0x3d098b38	0.033580035
38	0x3cec507a	0.028846968
39	0x3d184f13	0.037184786
40	0x3cbb9a8e	0.022900846
41	0x3ce037a7	0.027370287
42	0x3bb65446	0.0055642454
43	0x3bbf085d	0.0058298544
44	0x3c422d68	0.011851646
45	0x3cc7a996	0.024372857
46	0x3ce2ec01	0.027700426
47	0x3c52f18c	0.012874972
48	0x3c94d75b	0.018169096
49	0x3c8523d6	0.01625244
50	0x3cb3e180	0.021958113
51	0x3c08b460	0.008343786
52	0x3cbbe0a2	0.022934262
53	0x3c9149cf	0.01773539
54	0x3b920364	0.0044559706
55	0x3dc534a5	0.09629182
56	0x3c801016	0.01563267
57	0x3c82eda5	0.015982458
58	0x3c4d2c65	0.0125227915
59	0x3d71e890	0.05905968
60	0x3d2c5ecd	0.042082597
61	0x3bcc911d	0.006242885
62	0x3cb0ddda	0.021590162
63	0x3ce1c3e6	0.027559232
64	0x3c52a58d	0.012856853
65	0x3c06e8c7	0.008234209
66	0x3c526e04	0.012843613
67	0x3d217a40	0.039423227
68	0x3cf9565a	0.030436683
69	0x3ca926ae	0.020648327
70	0x3d62b45a	0.055347778
71	0x3c6c33e8	0.014416672
72	0x3d0c1ce4	0.03420724
73	0x3c68f988	0.014219649
74	0x3bc7b295	0.0060942867
75	0x3b830f12	0.0039995993
76	0x3bdf7ab6	0.006820048
77	0x3d948f6b	0.07253917
78	0x3c7165d1	0.014733748
79	0x3c679363	0.014134261
80	0x3c9281ad	0.0178841
81	0x3c4b48e9	0.01240752
82	0x3d0c561a	0.0342618
83	0x3d083abf	0.03325915
84	0x3c82b86a	0.015957076
85	0x3c040e17	0.00806
86	0x3c528128	0.012848176
87	0x3bf10202	0.0073549757
88	0x3c7ea073	0.015541184
89	0x3c7e3377	0.0155152
90	0x3cb86354	0.0225083
91	0x3c1e139d	0.009648231
92	0x3c9a437f	0.018831013
93	0x3d05ecfc	0.03269671
94	0x3cad68ba	0.021168102
95	0x3d0727e0	0.032997012
96	0x3d1d8212	0.038454123
97	0x3d408b77	0.047008004
98	0x3d364dcf	0.044507798
99	0x3d838222	0.06421305
100	0x3cc124b7	0.023577077
101	0x3cf58538	0.02997075
102	0x3ca0401d	0.019561822
103	0x3c846bc0	0.01616466
104	0x3cf5a144	0.029984124
105	0x3c2a0e22	0.010379346
106	0x3d043d18	0.032284826
107	0x3c918bbf	0.017766831
108	0x3c92f559	0.017939257
109	0x3d30bd49	0.043149266
110	0x3ca4a2b8	0.020097122
111	0x3bbb74e3	0.005720721
112	0x3c70bf8d	0.014694107
113	0x3c958f8e	0.018256929
114	0x3c496e28	0.01229433
115	0x3c3a1465	0.0113574015
116	0x3dacfbf2	0.08446492
117	0x3c040940	0.008058846
118	0x3c985926	0.018597197
119	0x3c4ce458	0.012505613
120	0x3caa2612	0.020770106
121	0x3d061e75	0.03274389
122	0x3c575b24	0.013144288
123	0x3be3b84b	0.0069494597
124	0x3c4c1a2d	0.012457413
125	0x3c47d052	0.0121956635
126	0x3c93fc80	0.018064737
127	0x3ca5ca7e	0.020238157

bns_conv.1.weight f4 [128]
0	0x3f5bd130	0.8586607
1	0x3f598873	0.8497383
2	0x3f5b710c	0.8571937
3	0x3f59d25f	0.85086626
4	0x3f5b0dce	0.8556794
5	0x3f5cc34d	0.86235505
6	0x3f58b0d7	0.84644836
7	0x3f592c8c	0.848336
8	0x3f5820dd	0.84425145
9	0x3f59df8b	0.85106725
10	0x3f56dd2e	0.83931243
11	0x3f5a0ebb	0.85178727
12	0x3f5a69b4	0.8531754
13	0x3f591b61	0.848074
14	0x3f592481	0.84821326
15	0x3f59392c	0.8485286
16	0x3f57d4d4	0.84309125
17	0x3f599600	0.84994507
18	0x3f58ddbd	0.84713346
19	0x3f575fdd	0.8413065
20	0x3f5b6dab	0.85714215
21	0x3f5957c5	0.8489955
22	0x3f5a3848	0.8524213
23	0x3f5912fc	0.8479459
24	0x3f58f741	0.8475228
25	0x3f57ed98	0.84346914
26	0x3f5a2771	0.8521643
27	0x3f55cf2c	0.83519244
28	0x3f57cb0d	0.84294206
29	0x3f5a0331	0.8516112
30	0x3f59edd6	0.85128534
31	0x3f58ccf7	0.8468775
32	0x3f5bffbe	0.85937107
33	0x3f5a3a58	0.85245275
34	0x3f59e640	0.8511696
35	0x3f5762c4	0.8413508
36	0x3f5991e3	0.8498823
37	0x3f587d31	0.84566027
38	0x3f554c2d	0.8331936
39	0x3f59975e	0.84996593
40	0x3f5a7982	0.85341656
41	0x3f59d76d	0.8509434
42	0x3f59d94b	0.8509719
43	0x3f5977b1	0.8494826
44	0x3f58d392	0.8469783
45	0x3f5a26e1	0.85215575
46	0x3f59203a	0.848148
47	0x3f57a687	0.84238476
48	0x3f5b7e41	0.85739523
49	0x3f5716c6	0.84019125
50	0x3f581286	0.84403265
51	0x3f5c1a67	0.85977787
52	0x3f59205b	0.84814996
53	0x3f5873ab	0.84551495
54	0x3f5a8524	0.85359406
55	0x3f59ac82	0.8502885
56	0x3f594d32	0.84883416
57	0x3f575985	0.8412097
58	0x3f58ca37	0.84683555
59	0x3f58825b	0.84573907
60	0x3f5aca86	0.85465276
61	0x3f58641a	0.8452774
62	0x3f5b8002	0.857422
63	0x3f5ae7b6	0.8550981
64	0x3f596d4c	0.849324
65	0x3f5a7ec4	0.8534968
66	0x3f587568	0.8455415
67	0x3f5a18be	0.85194004
68	0x3f58911a	0.8459641
69	0x3f58c65b	0.84677666
70	0x3f58ba32	0.8465911
71	0x3f574310	0.84086704
72	0x3f5b3733	0.856311
73	0x3f5bb242	0.85818875
74	0x3f59ad9a	0.8503052
75	0x3f58a83f	0.84631723
76	0x3f59ee3c	0.8512914
77	0x3f590540	0.84773636
78	0x3f5981ae	0.849635
79	0x3f58d8e4	0.8470595
80	0x3f58b78c	0.8465507
81	0x3f5b68bc	0.85706687
82	0x3f590c6c	0.8478458
83	0x3f597eaf	0.8495893
84	0x3f581e69	0.844214
85	0x3f5bd5f5	0.8587335
86	0x3f5a241a	0.85211337
87	0x3f58d0e4	0.8469374
88	0x3f5980e1	0.8496228
89	0x3f57f525	0.84358436
90	0x3f595ed9	0.8491035
91	0x3f5ad40f	0.85479826
92	0x3f5a9795	0.85387546
93	0x3f5a7d13	0.853471
94	0x3f583651	0.8445788
95	0x3f57d711	0.8431254
96	0x3f59580d	0.8489998
97	0x3f59eab6	0.85123765
98	0x3f595e6f	0.8490972
99	0x3f593967	0.84853214
100	0x3f57c0c9	0.8427854
101	0x3f5ad09c	0.8547456
102	0x3f5a4d2c	0.85274005
103	0x3f587b16	0.84562814
104	0x3f586b8e	0.84539115
105	0x3f5af853	0.8553516
106	0x3f59f042	0.8513223
107	0x3f598fb0	0.84984875
108	0x3f5b0a17	0.8556227
109	0x3f5ad3bd	0.85479337
110	0x3f579660	0.8421383
111	0x3f57a1f5	0.842315
112	0x3f58d1e3	0.8469526
113	0x3f59152b	0.84797925
114	0x3f5afcf9	0.85542256
115	0x3f58f7af	0.84752935
116	0x3f59418d	0.8486565
117	0x3f57d872	0.84314644
118	0x3f5a14b6	0.8518785
119	0x3f593cbc	0.848583
120	0x3f59c63c	0.85068107
121	0x3f5895d2	0.8460361
122	0x3f598f68	0.84984446
123	0x3f593fda	0.84863055
124	0x3f58ef4e	0.8474015
125	0x3f5b0916	0.8556074
126	0x3f5a5724	0.85289216
127	0x3f5a04f4	0.8516381

bns_conv.1.bias f4 [128]
0	0xbb507a14	-0.0031811045
1	0xbbe075ce	-0.006849981
2	0xbb3be665	-0.0028671261
3	0xbb0c70d3	-0.0021429553
4	0x3be1ba1a	0.00688864
5	0xbb5d7536	-0.0033791787
6	0xb9de39b5	-0.00042386135
7	0x3a8cd504	0.0010744636
8	0x3be3db14	0.0069536064
9	0xbb30936e	-0.0026943344
10	0xbabce859	-0.0014412507
11	0x3a8bfa59	0.0010679468
12	0xbb9cc865	-0.004784631
13	0x3c0ed637	0.008718065
14	0xbb529b18	-0.00321359
15	0x3c1a933b	0.009434517
16	0xbadd6ebe	-0.0016893966
17	0xbba3e075	-0.0050011226
18	0xbc28b7b6	-0.010297706
19	0xbbb59cae	-0.0055423593
20	0xbb859979	-0.0040771333
21	0x3bbc88e6	0.0057536243
22	0x3b86ade5	0.0041100853
23	0xbc493dc1	-0.01228279
24	0x3b6724cd	0.0035269738
25	0x3a9b3adf	0.0011843106
26	0x3ab4f1be	0.0013804955
27	0xbb74bafb	-0.0037342894
28	0x3b001e3e	0.0019549276
29	0x3b9a9a47	0.0047180983
30	0x3b664e3e	0.003514185
31	0xbadb102b	-0.0016713192
32	0xbb64deb7	-0.0034922787
33	0xbbe8b8b5	-0.007102097
34	0xba623093	-0.0008628454
35	0xbbade0fd	-0.0053063617
36	0xbbb4acf8	-0.0055137835
37	0x3a95054d	0.0011369378
38	0x3c28dcb5	0.010306527
39	0xbb9590af	-0.004564367
40	0xbae29b60	-0.0017288737
41	0xbaf175d1	-0.0018421953
42	0x3acc6e96	0.0015596922
43	0xbad241b0	-0.0016041305
44	0xbb9cc6fb	-0.0047844625
45	0xbc4e0659	-0.012574756
46	0x3c2d477c	0.010576125
47	0xbc1c0be3	-0.009524318
48	0x3b5021ba	0.0031758384
49	0xbb5f4bc4	-0.003407226
50	0x395563e9	0.00020350482
51	0x3b9927a4	0.004673915
52	0x3b9a0f83	0.004701556
53	0xbc37a04b	-0.01120765
54	0x3b048ea8	0.0020226631
55	0x3b153362	0.0022766222
56	0xb7367a32	-1.0876496e-05
57	0x3a50e6be	0.00079689536
58	0xbb9e96f9	-0.0048397747
59	0xbb38f64a	-0.0028222972
60	0xbb821387	-0.003969613
61	0xbb7c0bb3	-0.0038459122
62	0xbb20071f	-0.0024418307
63	0x3b132840	0.002245441
64	0x3c0a9dcd	0.008460474
65	0xbbaba2ed	-0.005237928
66	0xbc852fa0	-0.016258061
67	0x3b616e5d	0.0034398057
68	0x395a21d5	0.00020802704
69	0xbc034d22	-0.008013995
70	0x3b1710cc	0.0023050783
71	0xba8bf3bf	-0.00106775
72	0x3add3ed0	0.0016879681
73	0xbbef8922	-0.0073100487
74	0xbbee1f44	-0.0072669107
75	0x3c064eb5	0.008197476
76	0xbaa131ab	-0.0012298127
77	0xbb330eb4	-0.0027321996
78	0x3a34ae53	0.00068924314
79	0xbc62099c	-0.013796236
80	0xbba14b52	-0.004922309
81	0xbbb76e64	-0.0055978764
82	0xbbe08b98	-0.0068525784
83	0xbb0ddc2f	-0.0021646132
84	0xba6e2cb4	-0.0009085641
85	0x3bacbaab	0.005271276
86	0x3b6ec363	0.0036432378
87	0xbb921d64	-0.00445907
88	0x3bfcfe60	0.0077207536
89	0x3b348346	0.0027544065
90	0x3bd38ca7	0.006455976
91	0xbbe0f00e	-0.0068645542
92	0x3c565235	0.013081123
93	0xbc06604b	-0.008201669
94	0xbb90a90e	-0.004414684
95	0x3be0b89f	0.006857946
96	0x3b9635fc	0.004584072
97	0xb8fee22f	-0.00012153794
98	0xbb6a2f23	-0.0035733662
99	0xbb1218b2	-0.0022292552
100	0xbb4a652d	-0.003088306
101	0xba08fa23	-0.00052252616
102	0xbc0415c4	-0.00806183
103	0x3c3a1457	0.011357388
104	0x3b133b3c	0.0022465726
105	0xb939bf2a	-0.00017714189
106	0x3af9fb47	0.0019072079
107	0xbbdd9224	-0.006761806
108	0x3ac6424d	0.001512596
109	0x3ad0e441	0.0015937166
110	0x3a6f024a	0.00091174676
111	0xbb3cc3c0	-0.00288032
112	0xbb4b3d49	-0.003101187
113	0x3c0504ad	0.008118791
114	0xbad1d96c	-0.0016010231
115	0x3b660941	0.003510073
116	0xbafdc5a1	-0.0019361266
117	0xbba64e8e	-0.0050752824
118	0xbb1f1b7b	-0.0024277854
119	0xb821fc73	-3.8620503e-05
120	0x3bd04b5e	0.0063566407
121	0x3c169bcc	0.009192418
122	0x3b8829cf	0.0041553746
123	0x39258cd6	0.00015788092
124	0x3b4fc149	0.00317009
125	0x389beec0	7.4354466e-05
126	0x3bb6d554	0.00557963
127	0x3ac33b42	0.001489498

bns_conv.1.running_mean f4 [128]
0	0x3e75bf1e	0.23998687
1	0x3e8b2d2f	0.2718291
2	0x3e81fad8	0.2538669
3	0x3ebe6651	0.37187436
4	0x3e8bd780	0.2731285
5	0x3eb6c289	0.35695294
6	0x3ebea206	0.3723299
7	0x3eb55eb1	0.35423806
8	0x3eb45d5b	0.35227475
9	0x3ea292e2	0.31752688
10	0x3ebce918	0.36896586
11	0x3ea4a6e4	0.32158577
12	0x3e774aca	0.24149624
13	0x3ed904b7	0.4238641
14	0x3ecaa68d	0.39580193
15	0x3e97b17a	0.2962759
16	0x3ec48578	0.3838308
17	0x3e83f8a0	0.25775623
18	0x3e46f627	0.19429837
19	0x3ebb6c97	0.36606285
20	0x3eda2be8	0.42611623
21	0x3edfce21	0.4371195
22	0x3ec44a8b	0.38338122
23	0x3e6fb84a	0.23410144
24	0x3e8bacd1	0.27280286
25	0x3ec58cbb	0.3858393
26	0x3e5608e8	0.20901835
27	0x3ea5bc2a	0.3237012
28	0x3eddedd8	0.43345523
29	0x3e57adbf	0.21062373
30	0x3ea2ca4f	0.31794974
31	0x3ec9e57d	0.39432898
32	0x3e9f01d2	0.31056076
33	0x3e806dbc	0.2508372
34	0x3e86813c	0.26270473
35	0x3ead0dd7	0.3379962
36	0x3e87ef27	0.26549646
37	0x3eafc3ea	0.34329158
38	0x3e8c2088	0.2736857
39	0x3e807347	0.2508795
40	0x3ed73956	0.4203593
41	0x3e96ba20	0.29438877
42	0x3ec49f0f	0.38402602
43	0x3e90c1f7	0.28272983
44	0x3ed9c99e	0.42536634
45	0x3ed62214	0.41822875
46	0x3ef3782d	0.47552624
47	0x3e86e900	0.2634964
48	0x3e9689a6	0.29401892
49	0x3ec18318	0.3779533
50	0x3eca91d3	0.3956438
51	0x3e5b3a6c	0.21409005
52	0x3eb1a065	0.34692684
53	0x3ea3fd0f	0.32029006
54	0x3ea22643	0.31669816
55	0x3ecaf4fa	0.39640027
56	0x3ea35635	0.31901708
57	0x3e9709e2	0.29499727
58	0x3eb860e0	0.3601141
59	0x3eb84990	0.35993624
60	0x3ec646e3	0.38725957
61	0x3eaec0af	0.3413138
62	0x3e7cb095	0.24676736
63	0x3ec1c91c	0.37848747
64	0x3ec185aa	0.3779729
65	0x3ec0c42c	0.37649667
66	0x3ed539ed	0.41645756
67	0x3efd8784	0.49517453
68	0x3ebb4a59	0.3658016
69	0x3eaf5a8a	0.34248763
70	0x3e7e30bc	0.24823278
71	0x3ea1dbcb	0.31613
72	0x3ea7d7a5	0.3278171
73	0x3e96f47a	0.29483396
74	0x3e7d1428	0.2471472
75	0x3ea012f5	0.31264463
76	0x3ebd7f6a	0.37011272
77	0x3efa4ff6	0.4888913
78	0x3ebcdb52	0.36886078
79	0x3eb198a8	0.3468678
80	0x3eb5a4a8	0.35477185
81	0x3e735227	0.23761807
82	0x3ed81c36	0.42209023
83	0x3ee33f09	0.4438403
84	0x3e84f78f	0.25970122
85	0x3e9a41be	0.30128282
86	0x3ea4ccd1	0.32187513
87	0x3ea7054c	0.3262123
88	0x3e9bd29e	0.30434126
89	0x3e54004e	0.20703241
90	0x3e5e68de	0.21719691
91	0x3e75490a	0.23953643
92	0x3e92a9f2	0.28645283
93	0x3ec3f098	0.38269496
94	0x3ec9d4f9	0.39420298
95	0x3ebaedde	0.36509603
96	0x3e9e6139	0.3093355
97	0x3edd49c6	0.43220347
98	0x3e792178	0.24329174
99	0x3f0a6a22	0.54068196
100	0x3ee0fab9	0.43941286
101	0x3eefe0c6	0.46851176
102	0x3eb02330	0.34401846
103	0x3eb2a18e	0.3488888
104	0x3ed72896	0.42023152
105	0x3ee73f46	0.4516546
106	0x3ec31018	0.38098216
107	0x3ec80add	0.39070788
108	0x3e9bc791	0.30425695
109	0x3eab2369	0.33425453
110	0x3e8d931d	0.276513
111	0x3e92e65f	0.28691384
112	0x3e723d32	0.23656157
113	0x3e9fce9b	0.31212315
114	0x3e61e80c	0.22061175
115	0x3e612889	0.21988119
116	0x3ec8ed11	0.39243367
117	0x3e84c1f4	0.25929224
118	0x3e975a98	0.29561305
119	0x3e9cfcdb	0.30661663
120	0x3eb5d92a	0.35517246
121	0x3ee73216	0.451554
122	0x3e8e21a8	0.27760053
123	0x3ee57601	0.44816592
124	0x3e829d77	0.2551076
125	0x3eaf4688	0.342335
126	0x3ea8d54f	0.32975242
127	0x3edd3530	0.4320464

bns_conv.1.running_var f4 [128]
0	0x3d390662	0.045172103
1	0x3e5370d3	0.20648508
2	0x3df4459f	0.11927342
3	0x3f2d176c	0.67613864
4	0x3dedc4ce	0.11609803
5	0x3e0e5cfd	0.1390266
6	0x3e108f59	0.14117183
7	0x3f468c4a	0.77557814
8	0x3da7bb5d	0.081900336
9	0x3e4929e7	0.1964489
10	0x3dc79bf2	0.09746541
11	0x3d751827	0.059837487
12	0x3e040b1c	0.12894863
13	0x3ef220cd	0.4729065
14	0x3e7e47e4	0.24832112
15	0x3e95b496	0.2923934
16	0x3e91a31f	0.28444764
17	0x3e502e15	0.20330079
18	0x3dc04582	0.093882576
19	0x3ddf8fef	0.10916125
20	0x3ea2cb5b	0.31795773
21	0x3ec5c862	0.38629442
22	0x3e84e117	0.2595298
23	0x3e30c0a8	0.17260993
24	0x3e5ae620	0.21376848
25	0x3f1ffb11	0.6249247
26	0x3eaae27c	0.3337592
27	0x3e36ba8d	0.17844601
28	0x3eaf2738	0.3420961
29	0x3d8bafa2	0.06820609
30	0x3e552cc4	0.20817858
31	0x3e69124e	0.22760889
32	0x3e244117	0.16040455
33	0x3e0aaf62	0.13543466
34	0x3d82efb4	0.06393376
35	0x3ea74449	0.32669285
36	0x3d9567fb	0.07295223
37	0x3eeaf30e	0.4588856
38	0x3dea7b0a	0.11449249
39	0x3de4cbf8	0.111717165
40	0x3e4c7b71	0.19968964
41	0x3e777cbd	0.24168678
42	0x3e90f249	0.2830985
43	0x3dad6e2f	0.084682815
44	0x3ee184e4	0.440467
45	0x3ec66563	0.38749227
46	0x3eb13cc5	0.34616676
47	0x3e2ee39c	0.17079014
48	0x3d9ca933	0.0764946
49	0x3e818f95	0.25304857
50	0x3f745cb1	0.95453936
51	0x3d9cd3ee	0.0765761
52	0x3e6af5fa	0.22945395
53	0x3d8fb66d	0.07017217
54	0x3daced27	0.08443671
55	0x3f21393c	0.6297796
56	0x3e06d266	0.13166198
57	0x3e90eb17	0.2830436
58	0x3eb88be9	0.36044243
59	0x3e0dd60b	0.13851182
60	0x3e32966f	0.17440198
61	0x3e0fe1f6	0.14051041
62	0x3d4095ee	0.047017984
63	0x3e30f9db	0.17282812
64	0x3f1a6ad5	0.6031926
65	0x3ea7e9d7	0.32795593
66	0x3e79b01d	0.24383588
67	0x3f5f98b6	0.87342393
68	0x3e951b1c	0.29122245
69	0x3e79158e	0.24324629
70	0x3e41c2f6	0.18922028
71	0x3e3a6fe2	0.18206742
72	0x3db51770	0.08842361
73	0x3de833fc	0.1133804
74	0x3da6214d	0.0811182
75	0x3e2c212c	0.16809529
76	0x3dd9d509	0.10636336
77	0x3edea02d	0.4348158
78	0x3e3e8d3e	0.18608567
79	0x3e569813	0.20956449
80	0x3e85943f	0.26089665
81	0x3d1a806f	0.03772014
82	0x3e9fbafd	0.31197348
83	0x3ec04990	0.37556124
84	0x3d9a6e5a	0.07540579
85	0x3d90f0eb	0.070772015
86	0x3f0678e7	0.5252823
87	0x3e13f05c	0.14447159
88	0x3daad099	0.08340568
89	0x3f14e2c5	0.5815852
90	0x3da81ce9	0.08208639
91	0x3dcce2f5	0.10004226
92	0x3e38d3d4	0.18049556
93	0x3da4e2b9	0.080510564
94	0x3e5fc299	0.21851577
95	0x3ef94a8e	0.48689693
96	0x3e168830	0.14700389
97	0x3e72152f	0.23640893
98	0x3e0fed8a	0.14055458
99	0x3efb0876	0.49029893
100	0x3e885758	0.26629138
101	0x3f0c6519	0.5484176
102	0x3e22061c	0.15822643
103	0x3df5fde3	0.12011316
104	0x3ecac985	0.39606872
105	0x3f397e98	0.7245879
106	0x3ee8d6ca	0.4547637
107	0x3eb9f488	0.36319375
108	0x3e6717eb	0.22567718
109	0x3e0bc330	0.13648677
110	0x3ec1a0ed	0.3781809
111	0x3e2c6e45	0.1683894
112	0x3db7b1f3	0.08969488
113	0x3e7418c3	0.23837571
114	0x3d8664c5	0.06562189
115	0x3d5ccf02	0.053908356
116	0x3f1f0a9b	0.6212556
117	0x3e8edf60	0.27904797
118	0x3d6343b2	0.05548448
119	0x3e04be88	0.12963307
120	0x3e74724d	0.23871727
121	0x3ec5ab32	0.38607174
122	0x3df942f3	0.12170973
123	0x3e3d9d4a	0.18517032
124	0x3db4b2ec	0.08823189
125	0x3e57ba89	0.21067251
126	0x3dedf69f	0.11619305
127	0x3ee84aa9	0.4536946

bns_conv.2.weight f4 [128]
0	0x3f59754a	0.84944594
1	0x3f5a0153	0.8515827
2	0x3f5b4891	0.856576
3	0x3f5a0539	0.8516422
4	0x3f581d40	0.8441963
5	0x3f5a61cc	0.85305476
6	0x3f590cda	0.84785235
7	0x3f5b4957	0.8565878
8	0x3f58f401	0.8474732
9	0x3f599490	0.84992313
10	0x3f5a3f48	0.8525281
11	0x3f596dbb	0.8493306
12	0x3f59a10b	0.8501136
13	0x3f582982	0.84438336
14	0x3f5a40b2	0.8525497
15	0x3f590660	0.8477535
16	0x3f5aec39	0.855167
17	0x3f5bc313	0.85844535
18	0x3f59acd0	0.85029316
19	0x3f594d67	0.8488373
20	0x3f5a7307	0.8533177
21	0x3f5b204f	0.85596174
22	0x3f5a1b0e	0.8519753
23	0x3f59262e	0.8482388
24	0x3f5929a3	0.8482916
25	0x3f5a1d13	0.85200614
26	0x3f59c38e	0.8506402
27	0x3f59c520	0.85066414
28	0x3f58b3aa	0.84649146
29	0x3f598f13	0.8498394
30	0x3f5abf80	0.85448456
31	0x3f595d5d	0.84908086
32	0x3f5a299a	0.8521973
33	0x3f58eada	0.84733355
34	0x3f5928af	0.84827703
35	0x3f582887	0.8443684
36	0x3f58f9f6	0.8475641
37	0x3f58bfd9	0.84667736
38	0x3f5ab088	0.85425615
39	0x3f5a486e	0.8526677
40	0x3f59a00d	0.85009843
41	0x3f58bbde	0.8466166
42	0x3f5858ed	0.8451069
43	0x3f5d45ed	0.86434823
44	0x3f58f6ef	0.8475179
45	0x3f5a3b36	0.852466
46	0x3f594c73	0.8488228
47	0x3f58a938	0.8463321
48	0x3f592c5a	0.848333
49	0x3f58ca90	0.84684086
50	0x3f591c81	0.8480912
51	0x3f599e6a	0.85007346
52	0x3f5a0819	0.85168606
53	0x3f574f13	0.8410503
54	0x3f58c8b0	0.84681225
55	0x3f587a98	0.84562063
56	0x3f58cf1c	0.84691024
57	0x3f58b074	0.84644246
58	0x3f588564	0.8457854
59	0x3f5961f3	0.84915084
60	0x3f5a539d	0.85283834
61	0x3f5cbbd6	0.86224115
62	0x3f5b7a5e	0.8573359
63	0x3f5944c8	0.84870577
64	0x3f58daad	0.8470867
65	0x3f592457	0.84821075
66	0x3f5a2c5a	0.85223925
67	0x3f590e1d	0.8478716
68	0x3f57f2a7	0.84354633
69	0x3f590743	0.84776706
70	0x3f58c550	0.84676075
71	0x3f58ec17	0.84735245
72	0x3f5916db	0.848005
73	0x3f592cbf	0.848339
74	0x3f5ba319	0.8579574
75	0x3f5985f9	0.8497005
76	0x3f5a82ef	0.8535604
77	0x3f581b59	0.8441673
78	0x3f58ddc9	0.8471342
79	0x3f59541d	0.8489397
80	0x3f58a926	0.846331
81	0x3f59f975	0.85146266
82	0x3f5b3b56	0.85637414
83	0x3f58f46c	0.8474796
84	0x3f596444	0.8491862
85	0x3f5a135b	0.85185784
86	0x3f587c2f	0.8456449
87	0x3f5b77c1	0.85729605
88	0x3f5a5768	0.8528962
89	0x3f58ea18	0.847322
90	0x3f5bcf0f	0.8586282
91	0x3f595c91	0.8490687
92	0x3f585b61	0.84514433
93	0x3f59155c	0.84798217
94	0x3f5b8274	0.8574593
95	0x3f592a6b	0.8483035
96	0x3f5917b6	0.84801805
97	0x3f5af944	0.855366
98	0x3f5b2bb5	0.85613567
99	0x3f59075e	0.84776866
100	0x3f5a8b73	0.8536903
101	0x3f58f299	0.84745175
102	0x3f59825c	0.8496454
103	0x3f589454	0.8460133
104	0x3f594fdf	0.848875
105	0x3f599e3e	0.85007083
106	0x3f590df4	0.84786916
107	0x3f58f5f4	0.84750295
108	0x3f5834f1	0.8445578
109	0x3f585ae3	0.8451368
110	0x3f5785d1	0.8418856
111	0x3f598439	0.8496738
112	0x3f5c35fe	0.86019886
113	0x3f58b7b5	0.84655315
114	0x3f588847	0.8458294
115	0x3f591489	0.8479696
116	0x3f59de46	0.8510479
117	0x3f59b7d5	0.8504613
118	0x3f590b86	0.8478321
119	0x3f5a5354	0.852834
120	0x3f58fb69	0.8475862
121	0x3f583ea5	0.8447059
122	0x3f593f3f	0.8486213
123	0x3f59e309	0.85112053
124	0x3f592903	0.84828204
125	0x3f589c15	0.8461316
126	0x3f5afb95	0.85540134
127	0x3f5750e6	0.84107816

bns_conv.2.bias f4 [128]
0	0xbb5c9077	-0.0033655444
1	0x3aabacdc	0.0013097781
2	0xbbb54677	-0.0055320817
3	0x3b361deb	0.0027788829
4	0x3a9a16b0	0.0011756029
5	0xbb7d241e	-0.0038626264
6	0xb98f20dd	-0.0002729957
7	0x3b95434f	0.004555143
8	0x3b85264e	0.004063404
9	0xbb31043b	-0.0027010578
10	0xbc09b2d4	-0.008404452
11	0xbc090e38	-0.008365206
12	0xbba15b03	-0.0049241795
13	0xbb4b34d4	-0.003100683
14	0xbae700f9	-0.0017624191
15	0xb9aadc9e	-0.000325893
16	0x3b5b4359	0.003345689
17	0xb9978817	-0.0002890236
18	0xbb847684	-0.0040424485
19	0xbb373ada	-0.0027958662
20	0xbb3053f7	-0.0026905516
21	0xbbfaff6d	-0.0076598437
22	0x3a29c6ab	0.0006476442
23	0xbc2d89f5	-0.010591974
24	0xb9b78c42	-0.0003500898
25	0x3b097222	0.002097257
26	0xba80d439	-0.0009828872
27	0x3abbeac3	0.0014336932
28	0x399cb3b5	0.0002988853
29	0x3b4aefb9	0.003096564
30	0x3b809535	0.003924037
31	0xbbf53100	-0.007482648
32	0x3b191e29	0.0023363924
33	0x3ab2f6ce	0.0013653876
34	0xbb453195	-0.0030089368
35	0x3b1eea7f	0.0024248657
36	0xbb0b243b	-0.0021231312
37	0x3bbc8e0e	0.005754239
38	0x3b943fc0	0.004524201
39	0x3a98ce29	0.001165812
40	0xba581747	-0.00082432147
41	0x3b8b5d61	0.004253075
42	0x3ae56eb1	0.0017504302
43	0x3b5b86a0	0.003349699
44	0x3a554142	0.00081350293
45	0xbb97f5a9	-0.0046374393
46	0xb952fcca	-0.00020121332
47	0xb9a54f32	-0.00031530258
48	0xb7f27331	-2.8902288e-05
49	0x3a3e4a7f	0.00072590256
50	0xba3e7efb	-0.00072668464
51	0xbb80ce60	-0.003930852
52	0xbb7c1301	-0.0038463476
53	0xbb54e77e	-0.0032486613
54	0xbb479ab8	-0.003045721
55	0x3bc03a00	0.005866289
56	0x3bbab913	0.005698332
57	0x3acd7025	0.001567368
58	0xbb2280ad	-0.0024795935
59	0x3b9a39f1	0.004706614
60	0x3baf3f8a	0.0053481506
61	0xbacd3f91	-0.0015659203
62	0xbbaccfe7	-0.0052738073
63	0x3b211adb	0.0024582657
64	0x3aa02f46	0.001222112
65	0x3b6a4215	0.0035744954
66	0x3b4be2d8	0.0031110551
67	0x3ab3e2cc	0.0013724207
68	0x3ade6e18	0.0016970066
69	0x3b4d143b	0.0031292576
70	0x3a12f3e0	0.0005605798
71	0xbba1836e	-0.0049289977
72	0x3c0f2282	0.008736255
73	0x3c0456a2	0.0080772955
74	0xbbf0d242	-0.0073492834
75	0x3b9d68ea	0.0048037665
76	0xbad8f838	-0.0016553467
77	0x3b8b6819	0.0042543528
78	0x3aa9f8fc	0.001296788
79	0xbbf9d17e	-0.0076238504
80	0xb91f9127	-0.00015217495
81	0x3ac79fc6	0.0015230111
82	0x3add1297	0.0016866502
83	0x3b8634ba	0.004095641
84	0x3b8e40f0	0.0043412372
85	0x3b1765bc	0.002310141
86	0xbb9df1f5	-0.0048201033
87	0x39a3f182	0.0003126972
88	0x3abc2eb5	0.0014357181
89	0x3bc9b09a	0.0061550857
90	0x3b629b0e	0.0034577283
91	0x3bae7808	0.0053243674
92	0xbba94009	-0.0051651043
93	0x3c2b6dc3	0.010463181
94	0x3bfb21de	0.0076639494
95	0x3b37abce	0.0028025988
96	0xbafdade0	-0.0019354187
97	0x3c26ca0d	0.010180009
98	0xba9b173a	-0.0011832484
99	0x3bffbc99	0.007804465
100	0x3abe391d	0.0014512871
101	0xbacf3dcc	-0.0015811264
102	0xbb6bec61	-0.0035999047
103	0x3c0fafa8	0.008769907
104	0xbbbf0737	-0.0058297175
105	0x3b44ff80	0.0030059516
106	0x3b648bac	0.003487329
107	0xba9686f5	-0.0011484312
108	0xbb7218e3	-0.0036941103
109	0x3a1803c4	0.0005798901
110	0x3ac63d76	0.0015124518
111	0xbc0d099d	-0.008608249
112	0x3adcf9c1	0.00168591
113	0xbb94bbf0	-0.0045390055
114	0x3a5a392d	0.000832456
115	0x3bfa2151	0.007633366
116	0x396e2546	0.00022711334
117	0xbba7d537	-0.0051218527
118	0x3bbd9bd0	0.0057863966
119	0xbb17443d	-0.0023081445
120	0x3b1679bb	0.002296074
121	0x3af5eb48	0.0018762136
122	0xbb01a9fc	-0.0019785156
123	0x3c077a2e	0.008268876
124	0x3b8dfbbc	0.0043329876
125	0x3c6564d0	0.014001086
126	0x3b32bcc9	0.002727317
127	0x3b481fb9	0.0030536486

bns_conv.2.running_mean f4 [128]
0	0x3ed0985e	0.40741247
1	0x3f0942da	0.5361763
2	0x3f064040	0.5244179
3	0x3f2392c2	0.6389581
4	0x3f07cef5	0.53050166
5	0x3f1a2ea5	0.60227424
6	0x3f271a75	0.65274745
7	0x3f02c70e	0.51084983
8	0x3f15c5f9	0.5850521
9	0x3f27ef14	0.6559918
10	0x3f178f7b	0.5920331
11	0x3f03874d	0.5137833
12	0x3efc0c5f	0.49228188
13	0x3f263dd1	0.64938074
14	0x3f3f7c22	0.74798787
15	0x3f220ffb	0.63305634
16	0x3f17e267	0.5932984
17	0x3f081603	0.5315859
18	0x3f008342	0.50200284
19	0x3f1e057b	0.6172711
20	0x3f1be9fe	0.6090392
21	0x3f2848c3	0.65736026
22	0x3f1b9fe2	0.60790837
23	0x3f0872ab	0.5329997
24	0x3ef48a0e	0.47761577
25	0x3f25dfad	0.6479443
26	0x3f01612d	0.50538903
27	0x3f09255b	0.53572625
28	0x3f1c749a	0.6111542
29	0x3ee765ac	0.45194757
30	0x3f46057b	0.7735211
31	0x3f2ff61f	0.68734926
32	0x3f15a3e0	0.5845318
33	0x3efb44c9	0.49075916
34	0x3f0eb271	0.5574103
35	0x3f00baf5	0.50285274
36	0x3f0a9931	0.5414
37	0x3f2170b1	0.6306258
38	0x3eff0bf2	0.498138
39	0x3ed18888	0.40924478
40	0x3f262eba	0.6491505
41	0x3eefd0a9	0.46838883
42	0x3f17e77a	0.5933758
43	0x3f0fd5ba	0.56185496
44	0x3f11bd55	0.5692952
45	0x3f323d88	0.6962514
46	0x3f350b70	0.7072058
47	0x3f10050a	0.5625769
48	0x3ee38f7d	0.4444541
49	0x3f191357	0.59795135
50	0x3f0881fb	0.53323334
51	0x3ef4773a	0.47747213
52	0x3f134007	0.5751957
53	0x3efe6495	0.49686113
54	0x3f2498b6	0.6429552
55	0x3f11405d	0.56738836
56	0x3f2a31bf	0.66482157
57	0x3f2b69fb	0.6695859
58	0x3f288855	0.65833026
59	0x3f1faab5	0.62369853
60	0x3f2632b7	0.64921135
61	0x3f022ab0	0.50846386
62	0x3ed425bd	0.41435042
63	0x3f266b11	0.6500712
64	0x3f15bf9b	0.5849549
65	0x3f118ed7	0.5685858
66	0x3f1d1cf4	0.61372304
67	0x3f3d4fdb	0.73949975
68	0x3f1abb33	0.60441893
69	0x3f47c74a	0.78038466
70	0x3f0a7f8f	0.5410089
71	0x3f139406	0.5764774
72	0x3f27228a	0.6528708
73	0x3f10ec50	0.56610584
74	0x3eeecc8c	0.46640432
75	0x3f155705	0.58335906
76	0x3f008eb9	0.5021778
77	0x3f2e23ed	0.6802357
78	0x3f330e97	0.6994414
79	0x3f15bedf	0.5849437
80	0x3f18e79a	0.59728396
81	0x3ef9a992	0.48762184
82	0x3f380e56	0.71896875
83	0x3f438a57	0.76382965
84	0x3ee06f1c	0.4383477
85	0x3f039800	0.5140381
86	0x3f1a6650	0.60312366
87	0x3f06eba3	0.52703303
88	0x3f0e1241	0.55496603
89	0x3f01d4de	0.50715435
90	0x3ef39246	0.47572535
91	0x3f0c69f9	0.548492
92	0x3f1209d7	0.57046264
93	0x3f30119d	0.68776876
94	0x3f3cafac	0.73705554
95	0x3f2f6011	0.6850596
96	0x3f0e9def	0.5570974
97	0x3f3ac201	0.72952276
98	0x3ee1cee1	0.4410315
99	0x3f42a825	0.7603782
100	0x3f3f7313	0.74784964
101	0x3f351ab2	0.7074386
102	0x3f1e584f	0.618535
103	0x3f29ede3	0.6637861
104	0x3f2969f5	0.661773
105	0x3f2f04c7	0.68366665
106	0x3f3865c3	0.72030276
107	0x3f1dfc7a	0.61713374
108	0x3efecb93	0.4976469
109	0x3f09a943	0.537739
110	0x3f0e26bf	0.5552787
111	0x3f06b240	0.5261574
112	0x3f02f901	0.511612
113	0x3f05e8f3	0.5230858
114	0x3edd71ee	0.43250984
115	0x3f14662b	0.57968396
116	0x3f21351a	0.6297165
117	0x3ee1a568	0.44071507
118	0x3f19ef82	0.60131085
119	0x3f0f0fd6	0.5588354
120	0x3f1cd4ce	0.61262214
121	0x3f3a3e69	0.7275148
122	0x3f13f999	0.5780273
123	0x3f22d05c	0.6359918
124	0x3f15838a	0.5840384
125	0x3f0e2238	0.55520964
126	0x3f106e84	0.56418633
127	0x3f19fea9	0.60154206

bns_conv.2.running_var f4 [128]
0	0x3e258dbe	0.16167352
1	0x3f1e31f4	0.6179497
2	0x3e64f383	0.22358517
3	0x3feb1de8	1.8368502
4	0x3e6a8b9d	0.2290482
5	0x3ebe3d1d	0.37156
6	0x3ebc1c19	0.36740187
7	0x3f74ca82	0.956215
8	0x3e3e2cb3	0.18571739
9	0x3ebfee13	0.37486324
10	0x3e4d821d	0.20069166
11	0x3de7ce78	0.11318678
12	0x3e767518	0.24068105
13	0x3f6e1a76	0.93009126
14	0x3f5e9e79	0.8696056
15	0x3eb5041d	0.353547
16	0x3ee1639f	0.44021317
17	0x3ed1bf70	0.40966368
18	0x3f3af444	0.7302897
19	0x3e98229f	0.29713914
20	0x3edf91d8	0.43665957
21	0x3f0c8d0d	0.54902726
22	0x3f34309b	0.70386666
23	0x3f4fa10a	0.811051
24	0x3eb84abb	0.35994515
25	0x3f4f4c45	0.80975753
26	0x3fcada35	1.5847842
27	0x3e8618b4	0.26190722
28	0x3ef02e82	0.46910483
29	0x3e8ceef0	0.27526045
30	0x3f05942c	0.5217922
31	0x3f85955a	1.0436203
32	0x3e7c2bf3	0.2462614
33	0x3efe5e38	0.49681258
34	0x3e90bc74	0.28268778
35	0x3ea374a7	0.31924936
36	0x3ebd2583	0.36942682
37	0x3f7a4d41	0.9777413
38	0x3e64d1d9	0.22345676
39	0x3df460c0	0.11932516
40	0x3eb468b9	0.35236147
41	0x3e8e63fe	0.27810663
42	0x3f0eb66a	0.5574709
43	0x3e31a30b	0.17347352
44	0x3f0b0c8e	0.5431603
45	0x3f22126f	0.6330938
46	0x3ea3f1fc	0.32020557
47	0x3ee53459	0.447665
48	0x3e62127b	0.22077362
49	0x3ecca6ba	0.39970952
50	0x3fb54112	1.4160483
51	0x3e4c84b8	0.19972503
52	0x3e857642	0.26066786
53	0x3e45ffbd	0.19335838
54	0x3ea0b704	0.3138963
55	0x3f944224	1.1582685
56	0x3f0cb4d5	0.5496343
57	0x3ea09a35	0.3136765
58	0x3f69ed04	0.9137728
59	0x3e5fcaf8	0.2185477
60	0x3f0382d4	0.513715
61	0x3e3e8684	0.18606001
62	0x3dad83be	0.084723935
63	0x3ec1c773	0.3784748
64	0x3f8ac0a9	1.0840045
65	0x3ebff15f	0.3748884
66	0x3edd552e	0.4322905
67	0x3fa41326	1.2818344
68	0x3ec546a9	0.38530472
69	0x3f8ea44c	1.114389
70	0x3ef8c5c2	0.48588377
71	0x3ef4c5d2	0.47807175
72	0x3e5c5cca	0.21519771
73	0x3e9eb648	0.30998445
74	0x3e2d7f28	0.16943038
75	0x3e79ccc7	0.24394523
76	0x3e72c98a	0.23709694
77	0x3f9f8c60	1.2464714
78	0x3f831e9a	1.0243714
79	0x3e901248	0.28138947
80	0x3f0daa28	0.5533776
81	0x3e181331	0.14851071
82	0x3ebef19c	0.37293708
83	0x3eba4e65	0.36387935
84	0x3e309f5c	0.17248291
85	0x3e88010a	0.26563293
86	0x3f3f0b18	0.746263
87	0x3e16c6bf	0.14724253
88	0x3e7445fd	0.23854823
89	0x3fafb8fa	1.3728325
90	0x3e050429	0.12989868
91	0x3e88d1c7	0.26722547
92	0x3ed496ed	0.41521397
93	0x3e85b0ad	0.26111355
94	0x3eb84282	0.3598824
95	0x3fd1ae22	1.6381266
96	0x3f2418fe	0.64100635
97	0x3f3cb1c9	0.7370878
98	0x3e6a8241	0.2290125
99	0x3f25e3d9	0.6480079
100	0x3f7095f6	0.9397882
101	0x3f220649	0.6329084
102	0x3e9839ca	0.2973159
103	0x3ed0a16f	0.40748164
104	0x3f672fe2	0.9030744
105	0x3f869449	1.0514003
106	0x3fbf3823	1.4939007
107	0x3f1931da	0.5984169
108	0x3eee4fb9	0.465452
109	0x3e5a9358	0.2134527
110	0x3efc049f	0.49222276
111	0x3ea6aec2	0.32555205
112	0x3e204e26	0.15654811
113	0x3f1a786a	0.6033999
114	0x3e77a5d4	0.24184352
115	0x3f0af87e	0.5428542
116	0x3fafb390	1.3726673
117	0x3f2b6f07	0.6696629
118	0x3e40b447	0.1881877
119	0x3ebc4b01	0.36775973
120	0x3ed66249	0.4187186
121	0x3f7819a8	0.9691415
122	0x3e64270b	0.22280519
123	0x3eb62d26	0.3558132
124	0x3e87311a	0.2640465
125	0x3eac3cdc	0.33640182
126	0x3e34e8b5	0.17666896
127	0x3f0b91e3	0.5451948
