ckpt/best_GraphSage_model.pt (torch, 40855 bytes, 13 tensors)

convs.0.lin.weight f4 [32, 41]
00000000: 988b cf3c 1857 ab3c 2038 ad3c f2b2 1c3e
00000010: b0b9 cd3c 4655 0b3e a4ec c7bd add6 1cbe
00000020: b0a9 c93c 35fb d0bd 6c9e 2fbd ca76 fbbd
00000030: 6c0d bcbd 1e25 66bd 00ae e8ba 8400 533d
00000040: c846 85bc 9b8e bcbd 9c85 59bd e0fb 513d
00000050: 62e9 ebbd e301 b0bd 3886 143e e805 8a3d
00000060: 868d 1cbd 6830 0fbd 8c3c f23d 1020 f8bc
00000070: b81f e8bc 0882 c03c 3a3b 163e 9841 82bc
00000080: 6881 3b3d 0436 4b3d 7454 54bd ef6d b4bd
00000090: 9c19 f6bd f07f 9e3d 7c83 073d f467 0c3e
000000a0: 1008 56bc b4f7 eabd d8d1 ff3d 80d5 f93b
000000b0: ad36 edbd c446 ae3d c84d eb3d 8454 383d
000000c0: 804f e13c fa2f c1bd 8fbe 18be 20c0 033d
000000d0: 92b7 8e3d 6648 bcbd 0cbd 9fbd 0d1d 1cbe
000000e0: 781b e6bc 593d 1bbe e0e5 6fbc 5c40 73bd
000000f0: fed1 1bbe a028 60bc 2a6d 0dbe b471 0d3e
00000100: a8ec c83d 2b42 1bbe 0c55 313d b249 063e
00000110: 70ed c3bd 78e9 be3d c676 af3d ba31 02be
00000120: 6ec1 19be 167c 073e 70b9 1a3e c485 1e3e
00000130: 01db a3bd 8298 8cbd ee33 fdbd c07a 2abc
00000140: 0080 d0b7 d006 7c3d 036a d1bd 7a62 57bd
00000150: 0294 73bd f917 1dbe d733 adbd feb4 68bd
00000160: a8de b73c 0859 153d d7f6 01be f796 1ebe
00000170: fc4a 843d 8c68 133e e007 e93c 5080 533d
00000180: 7c03 0b3e 22ff 183e 182b 05be 835a dcbd
00000190: 5aa4 1dbe 2075 933d 5ec0 f9bd 1a78 00be
000001a0: b4de 17be d226 21bd dcc5 1d3d 7ec7 eabd
000001b0: fccf 0b3e ae91 103e 30c8 abbc fc2b 723d
000001c0: 4191 0dbe 4308 15be 7feb bebd ec52 ef3d
000001d0: 885a ccbd 70c6 fa3c 5246 923d f42b 8f3d
000001e0: 1411 a03d 7e62 36bd b984 91bd ac4b 0a3e
000001f0: 60bd 9abb 6074 783d 22cd 2cbd 3663 ab3d
00000200: d813 b5bc 40d2 09bc d0d5 0d3e 3444 b63d
00000210: 10a0 023d f863 503d b045 863c d2d5 dcbd
00000220: fad5 0cbe 4096 2abb 0498 333d 9242 15be
00000230: 5c6f c53d 80cb f7ba 7ce5 17be 36b8 13bd
00000240: 58c9 073e 9cc6 fd3d 4c37 30bd a2e9 f1bd
00000250: 0034 f13b 7e30 153e 869f febd d82d 153e
00000260: 00a6 a1bc 5499 e43d 5c77 f03d e807 ec3d
00000270: a8fe b03c 6c16 053e 9cc4 8b3d 2003 debd
00000280: ad21 89bd c42e 09be 7c50 3f3d c01e 693b
00000290: 15e9 d5bd 662e 01be 8641 febd 6c2a a63d
000002a0: b899 cb3d 68d6 f13c aad7 72bd ce5d 0b3e
000002b0: 9a2c 16be a0ec cabc fef2 87bd 6099 d1bd
000002c0: 48ae a33c 7cd9 db3d df0f 11be beb3 913d
000002d0: 1034 323c ba77 1abe 6221 0a3e 1642 45bd
000002e0: 581b 3a3d 6ed3 f9bd c083 a83d b0d5 71bc
000002f0: 1030 f9bc f918 f7bd e0b8 343d fd83 03be
00000300: 0cd3 12be e2c6 aabd 2008 283d 3c81 d7bd
00000310: 100e 9c3d 7a5b c7bd c0da 913d 604c 43bd
00000320: 8b92 10be db21 a6bd b09c 1f3e 2031 d53b
00000330: 0093 24bd ab93 e2bd 8455 8e3d 20d5 86bc
00000340: d077 093e b8a3 c5bc 1cab 5b3d 3812 e4bc
00000350: 82fb aebd d0bb 4dbc c406 4b3d cbd3 03be
00000360: e806 1ebe d26c af3d c8b7 823d b8ab 9bbc
00000370: 5f07 13be b485 793d c092 da3d 20bc ac3b
00000380: 961c 40bd 26ce bebd e020 eb3c 58c3 db3d
00000390: 60cd 963b b06a 903d 78e7 163e 7003 4abd
000003a0: 00f8 253c 7238 00bd f880 0e3e 9254 913d
000003b0: 44ad 283d baa0 83bd 3eec 66bd 6cbf d23d
000003c0: 56ed 99bd 2258 6ebd 0eb5 0e3e c8f6 abbc
000003d0: 06e3 1e3e 283f 033e 5bb7 b3bd 1c9a 3c3d
000003e0: 00c3 903b 9871 eabc 007d 1bbe 10bf 503c
000003f0: 9482 323d fae5 8abd 8a11 1b3e a33e cbbd
0.025335118 0.020915553 0.021144927 0.15302637 0.025112957 0.13606748 -0.097619325 -0.15316267
0.024617046 -0.10204164 -0.042875692 -0.122785166 -0.091822475 -0.05618774 -0.0017752051 0.051514164
-0.016269103 -0.09206887 -0.053105935 0.051265597 -0.115191236 -0.0859411 0.14504325 0.06739408
-0.038220905 -0.034958273 0.11827955 -0.030288726 -0.028335437 0.023499504 0.1467103 -0.015900418
0.04577771 0.04961206 -0.051838353 -0.08810031 -0.12016603 0.07739246 0.033084378 0.1371153
-0.013063446 -0.11473027 0.124911964 0.007624328 -0.11582694 0.08509591 0.11489445 0.045002475
0.027503729 -0.09432979 -0.14916442 0.032165647 0.06968607 -0.091934964 -0.0779973 -0.15245457
-0.02808927 -0.15160121 -0.014642209 -0.05938755 -0.15216824 -0.013681561 -0.13811174 0.13812906
0.098107636 -0.1516196 0.043293998 0.1311405 -0.09566772 0.093218744 0.08567576 -0.12714282
-0.15015194 0.13230929 0.15109801 0.15480715 -0.08000756 -0.06865026 -0.123634204 -0.010405242
-2.4855137e-05 0.061529934 -0.10225298 -0.05258415 -0.059467323 -0.15341176 -0.08457153 -0.056813233
0.022445038 0.03646186 -0.12691818 -0.15487276 0.06459615 0.1439535 0.028446138 0.05163604
0.13575548 0.14941075 -0.1300472 -0.10759451 -0.15394726 0.07200074 -0.12194894 -0.12545815
-0.14831048 -0.039343663 0.03851877 -0.11463831 0.13653558 0.14118072 -0.02096948 0.059123978
-0.13824941 -0.14553933 -0.09322261 0.11685738 -0.09978205 0.0306122 0.07142319 0.06990805
0.078157574 -0.044527523 -0.07105393 0.13505429 -0.0047222823 0.06065786 -0.042187817 0.08368532
-0.022104189 -0.008411944 0.13851094 0.088997275 0.03189093 0.050876588 0.016390651 -0.107829705
-0.137535 -0.0026029497 0.043846145 -0.14576176 0.09640381 -0.0018905252 -0.14833635 -0.03606435
0.132604 0.12391397 -0.043021485 -0.1181214 0.007360935 0.1456928 -0.124327704 0.14568269
-0.019732475 0.111620575 0.11741516 0.115249455 0.021605805 0.12996835 0.0682461 -0.1084044
-0.06695876 -0.13396746 0.046707615 0.0035571307 -0.104448475 -0.12615356 -0.12414841 0.0811356
0.09941429 0.029521182 -0.059287705 0.13610002 -0.14665452 -0.024771035 -0.06638144 -0.10234332
0.019980565 0.10734841 -0.1416621 0.07114361 0.0108766705 -0.15084735 0.13489297 -0.048158728
0.045436233 -0.1219853 0.08228254 -0.01476042 -0.030418426 -0.1206531 0.044121623 -0.12843318
-0.1433832 -0.08338715 0.041023374 -0.105226964 0.0761987 -0.09734245 0.071218014 -0.04768026
-0.14118402 -0.08111926 0.15587115 0.0065061003 -0.040179253 -0.11063322 0.069499046 -0.016459048
0.13424611 -0.024125919 0.05362998 -0.027840719 -0.08544065 -0.012556985 0.049567 -0.12873761
-0.15432322 0.08565678 0.0638271 -0.01900278 -0.1435828 0.060918525 0.106725216 0.0052714497
-0.04690226 -0.093166634 0.0287022 0.10730618 0.0046021193 0.07051599 0.14736736 -0.049319685
0.010129929 -0.03130383 0.13916385 0.07096209 0.041180864 -0.064271405 -0.05637764 0.10290417
-0.07515971 -0.05818952 0.13936254 -0.020991698 0.1551629 0.12817061 -0.08775207 0.046045408
0.004417777 -0.028618619 -0.15184402 0.012740865 0.04358156 -0.06782146 0.1514341 -0.099240564

convs.0.agg_lin.weight f4 [32, 9]
00000000: d4b7 0f3e e2d9 fb3d a155 14be 9aab 613e
00000010: 3411 533e 0249 abbd 0f15 52bc 9abb 8e3d
00000020: fd80 833b 8600 0080 c902 0000 f600 0000
00000030: e576 d4a4 0c02 0000 da0c 65a7 3f04 0080
00000040: f803 0000 9b06 0080 475a 3ebc 7e18 f3bd
00000050: f7dd 8d3d f5bd 3d3e 8a78 aebd 34f2 1bbe
00000060: 4bd4 143c 6e3c a2bc 34cd 973b b396 20be
00000070: ebff 8bbd 6d0e 623e fa32 8cbe edee a03d
00000080: bf46 703e f9aa d53c 570e 493d 2b14 af3c
00000090: 398f 073d 3053 eebd a860 b03e ff73 333b
000000a0: 6b02 d5bd 1173 28bd 9532 1fbd 2326 5ebd
000000b0: 3fa0 a6bc 378e 53bd 7639 9d3d 8538 023e
000000c0: b97e 103d 239c 013d fc30 2abe d9fb 2cba
000000d0: cf5d c43c 8ea5 d63b 4b45 373e c93a 3dbe
000000e0: b8d5 f43c a867 9c3e fdae 4abe dcb1 6dbe
000000f0: a169 cab9 4094 e1bd 66be fbbb c269 673d
00000100: d12c 98bc 6a91 b43d c3bf 1dbe dbff 013d
00000110: 72c1 c53d 4a88 17bd 50e4 a8bc 4468 c0bb
00000120: fef8 fbbd 8551 6c3e 62d2 123e 70af 133d
00000130: 6e42 ed3d 56f9 103d ce14 1bbd b58a e43b
00000140: aa40 28bc 1f21 74bd 3405 2d3e 3c61 993d
00000150: 8650 29ba c08c 693e 4ea9 ab3c 5813 d5bc
00000160: dcf5 083e 3ebc 703c 2c47 ea3d fc0c 24bd
00000170: 9db8 6bbe e92e 393e aea7 67bc 14a9 1dbe
00000180: 2c11 58bb 256f 9d3b 0327 a23b 714d ddaa
00000190: dd01 0080 99cb 2fac 347a 24b9 a303 0080
000001a0: 8853 8eb9 9f04 0000 7100 0000 5603 0080
000001b0: 6463 47be 25ec 12be 0c09 023e 7cc4 203e
000001c0: 71df dabd 6e2a 96bd a4a6 643d d2e6 ffbb
000001d0: 5dd3 793c f8ef ecbb e28b 3fbc 39c4 b7bc
000001e0: f052 9abc 8b6e 2abb d687 cfbc ae29 263b
000001f0: 2d4f e5ba 72f7 ef39 775c a4bd 9e62 87be
00000200: e27e 9bbe 6083 713e c828 41be 9e51 1ebc
00000210: bd1a 90bb 86c1 a3bd 415f f5bb 8113 d0bc
00000220: 0744 2bbe 06fb b13d baa9 3abd 36ef 26be
00000230: 9787 433e 6179 9b3b 92ce c4bd 5d76 4ebc
00000240: 1c3d e0bd 200f dfbc 7efd fb3d a27e 89be
00000250: 20a8 9fbc 09ca 0f3e de42 05bd dfaa 1fbd
00000260: 29f0 10bc 0948 0abe 142b 7d3e 9ba8 183e
00000270: 7416 b1bd fd10 403e 6b90 163e e178 a6bc
00000280: 772b 7c3d 8a50 34bb c7fd 2bbe 06d4 c23a
00000290: c938 cf3d 15d9 98bc f71f f3bc 8939 33bc
000002a0: 1781 ffbb 3b6a 12bc d5d3 cabb 4028 5cb6
000002b0: 77e0 2a80 e369 59b9 dca5 0abb 3602 0080
000002c0: 6eec 78bb 7700 0080 7b01 0000 dc01 0080
000002d0: 0ced c23d 1eab 243e f5db 84be aac6 e83d
000002e0: e69e 803d ce14 c6bd 1379 63bb 4cd2 893d
000002f0: 0101 0e3c 4202 413e 407d 163d 6ea6 c1bc
00000300: c253 87bd 95f7 893d 19ae 223e b6a2 c5bc
00000310: 0f3a e0bc 8e8b 09bc ac86 f83d 3278 b2be
00000320: 94a7 39bc 2e05 dc3d de97 5bbe 2f7d 9cbd
00000330: ae47 6cbc aeba b8bd 4703 a3bb 56d6 eabd
00000340: 5862 0a3e 8c9d 31be 2afd 13bd 856b 043c
00000350: c35f 353e d32c b93a 04ec 8f3d 61fa 1b3c
00000360: bcbf 33bc 9657 a3bc 827a 9d3e f536 edbc
00000370: 93c9 1dbd 5694 1f3d c716 183c 8c53 59bd
00000380: dd65 bcbb 76a7 5bb7 49ff 2a85 4fee 7eb7
00000390: 9410 c0bb c302 0000 2524 f8bb 5101 0080
000003a0: cb01 0080 8a03 0080 8176 8110 fb02 0080
000003b0: f501 0080 f4a7 92ad da03 0080 b0c9 a3ac
000003c0: ef06 0000 0e04 0000 1601 0000 6786 b6bd
000003d0: de8b 143c 30bd bd3e df29 fd3c 2120 1ebc
000003e0: 290b 19be 227b a53d 560d 273d 6b2e 8a3c
000003f0: ab5b bebc 2fba a83d 8769 573e 6dec a43d
0.14034969 0.12297417 -0.1448579 0.22038117 0.20612031 -0.083635345 -0.012822404 0.06969376
0.0040131793 -1.88e-43 9.99e-43 3.45e-43 -9.214176e-17 7.34e-43 -3.17871e-15 -1.523e-42
1.424e-42 -2.37e-42 -0.0116182035 -0.11869906 0.06927102 0.18529494 -0.08519085 -0.15229112
0.009083818 -0.019804206 0.0046326164 -0.15682487 -0.06835922 0.22075815 -0.27382642 0.078580715
0.23464487 0.026082503 0.04908594 0.021371922 0.033095572 -0.116369605 0.34448743 0.0027382371
-0.10400852 -0.04112536 -0.0388666 -0.05423559 -0.020340083 -0.0516493 0.076769754 0.12716873
0.035277102 0.031643044 -0.16620249 -0.00065988075 0.023970513 0.0065504974 0.17897527 -0.18479456
0.029887065 0.30547833 -0.19793315 -0.23212379 -0.00038607142 -0.110146046 -0.0076826094 0.056497343
-0.018576058 0.08816798 -0.15405183 0.031738143 0.096560374 -0.03699521 -0.02061668 -0.0058718044
-0.12303351 0.23077972 0.14338067 0.036055982 0.11584936 0.035394035 -0.037861638 0.006974543
-0.010269323 -0.0596019 0.16896516 0.07489249 -0.00064588373 0.22807598 0.020954754 -0.0260102
0.13375038 0.014693318 0.11439356 -0.040051445 -0.23019643 0.18084301 -0.014139099 -0.1539653
-0.003296922 0.004804509 0.004948498 -3.9311222e-13 -6.68e-43 -2.4982015e-12 -0.00015685783 -1.305e-42
-0.00027146586 1.658e-42 1.58e-43 -1.197e-42 -0.19471508 -0.14347894 0.12698764 0.15699953
-0.10687149 -0.073323116 0.055822983 -0.0078094983 0.015248147 -0.007230755 -0.0116910655 -0.022432433
-0.018838376 -0.002600583 -0.025333326 0.0025354433 -0.001749491 0.00045769993 -0.08025449 -0.26442426
-0.3037024 0.23585272 -0.18863213 -0.009663014 -0.0043977187 -0.07995896 -0.007488162 -0.025399925
-0.16725169 0.08690457 -0.04557202 -0.16302189 0.19094692 0.004744694 -0.09609713 -0.012601462
-0.10949156 -0.027228892 0.12304209 -0.26854426 -0.019489348 0.14041914 -0.032534473 -0.038981315
-0.008846321 -0.13504042 0.24723464 0.14908068 -0.08646861 0.1875648 0.14703529 -0.020321311
0.06156489 -0.0027513825 -0.16796027 0.0014864213 0.10118253 -0.0186582 -0.029678328 -0.01093901
-0.007797371 -0.00893646 -0.006189803 -3.2805983e-06 -3.937614e-39 -0.00020734179 -0.0021155989 -7.93e-43
-0.003798272 -1.67e-43 5.31e-43 -6.67e-43 0.09517869 0.16080901 -0.25949064 0.11366017
0.062803075 -0.09671937 -0.0034709617 0.06729564 0.008667232 0.18848518 0.03674054 -0.02363893
-0.066077724 0.06736676 0.15886725 -0.024125438 -0.027371434 -0.008395089 0.121350616 -0.34857327
-0.011331458 0.107431754 -0.21444651 -0.076410644 -0.014421387 -0.09019981 -0.004974756 -0.114666626
0.13514078 -0.17345256 -0.036130108 0.008082275 0.17712311 0.0014127739 0.07027438 0.009520144
-0.010971006 -0.019939225 0.3075753 -0.02895687 -0.038522314 0.038959824 0.009282774 -0.053058192
-0.0057494477 -1.3092407e-05 -8.04025e-36 -1.5195065e-05 -0.0058613513 9.91e-43 -0.007572668 -4.72e-43
-6.43e-43 -1.27e-42 5.106411e-29 -1.069e-42 -7.02e-43 -1.6672864e-11 -1.382e-42 -4.6551304e-12
2.487e-42 1.455e-42 3.9e-43 -0.08912354 0.00906655 0.370584 0.030903755 -0.009651215
-0.14945664 0.08080126 0.040784203 0.016867837 -0.02323707 0.08238637 0.21036349 0.08052907

convs.0.agg_lin.bias f4 [32]
00000000: f3b7 823e 4002 0000 a1c5 a6bb 637c 59bd
00000010: 1bca 41be 66bf 333e 5f18 22be 55be 23bd
00000020: eb47 d33d 4781 863e 17a7 d7bd dc02 0080
00000030: 8d2d 69bd f4ad 8ebc b22e 0ebe 1d77 77bd
00000040: bb81 b3bd df83 a43e f4dc 433a ba77 6811
00000050: b1f8 203e 5f64 83bd a7c5 34be 0a79 4f3e
00000060: 9c1f dbbc 4e70 4610 de02 0080 8018 e73d
00000070: 221f 3a3e 282f f7bd f997 033e 20ae 3b3e
0.25530967 8.07e-43 -0.005089477 -0.05309714 -0.18924753 0.17553481 -0.1582961 -0.039976437
0.10316452 0.26270506 -0.10529917 -1.026e-42 -0.056928206 -0.017416932 -0.13885 -0.06041633
-0.087649785 0.3213186 0.0007471584 1.8338467e-28 0.15719868 -0.06415629 -0.17653523 0.20261016
-0.026748471 3.913513e-29 -1.029e-42 0.1128397 0.18175939 -0.12069541 0.12850942 0.18328142

convs.1.lin.weight f4 [32, 64]
00000000: aeca cc3d fc4e a93d a099 c7bb c2d8 db3d
00000010: b26d b13d 9094 a3bd e0bd eabc a461 72bd
00000020: f01e c4bd f651 b4bd 9021 023d 1e80 a5bd
00000030: 3834 dd3d 401e c03b ca2a b43d 04a5 a0bd
00000040: f865 9bbd 18f1 483d d0ac 82bc 8855 c1bc
00000050: 2019 083d 1c8a f7bd 3809 883d 2aaa cf3d
00000060: d0b7 013d f205 84bd c2ff 99bd 6063 1e3c
00000070: d89f a33d 70c9 403d a004 dabc 7a54 cc3d
00000080: 5496 aa3d f042 94bd 3a40 c73d e026 123d
00000090: 30c9 983c 44ee 703d 1af7 ecbd 2080 c53b
000000a0: c033 c43c aed2 cbbd f8e0 78bd ee39 fe3d
000000b0: a03d 19bd 0881 a0bd 504b a93d 80a2 c3bb
000000c0: c436 1c3d 2823 833c e2d5 91bd 98a4 5f3d
000000d0: 5c4d d9bd e0b6 163d caf6 85bd 8431 40bd
000000e0: 9a46 b73d 8071 933a eaa3 e23d 7c8f db3d
000000f0: d0c0 59bc a22d fdbd b624 f83d e05f 0cbd
00000100: a0a0 823d 9af3 e1bd 089a eebd 90dd 423c
00000110: 60b9 d7bd 8c01 b5bd d414 31bd 1023 ffbc
00000120: 700a 7d3d f4d7 91bd 48b4 eabc d8bf 53bd
00000130: cc98 efbd 9456 2fbd b812 d7bc d03b 3b3c
00000140: 580d 753d 2ed5 dd3d 4889 813d fcee 8ebd
00000150: 32aa e73d f0b9 27bc 8496 14bd 7001 e8bc
00000160: c8cd bb3d 20cc ec3d 38f3 18bd ea00 d83d
00000170: 90fd fa3c 089e f6bc 9464 7ebd 60c9 443c
00000180: 9a8a b93d 30df 29bc 70ba 203d 04fe 1a3d
00000190: 28d0 9dbc 9c4d 143d 80b1 9c3a dac7 923d
000001a0: 34d4 64bd 10e3 56bc 9688 88bd a06d c93b
000001b0: 4a0b adbd 9cff 79bd 78f1 b5bc e88c a8bc
000001c0: d602 9b3d 9295 803d 88c4 ff3c a0ae 6bbc
000001d0: ec47 23bd 388c 803d 28f2 9fbc 58c5 6e3d
000001e0: ec1e b8bd 20d3 663d 6837 a93d 5e1f 8b3d
000001f0: dcdf 3fbd 20f7 c93d 70da 76bc b821 ed3d
00000200: 1a62 b23d b417 4b3d 3804 be3d 42f6 fc3d
00000210: b4d9 813d 947b 22bd 8828 0dbd dc7b 183d
00000220: 3452 e9bd 0418 abbd dc1b 823d 4c4f 723d
00000230: e625 e83d 508f fa3d 9cb1 e6bd c25e dfbd
00000240: 188d 2e3d f63c be3d 82e9 f53d 10bb cb3c
00000250: 2093 d93d 5c23 b53d 04bf 89bd 8e1d 893d
00000260: a82b a13d 700b 74bd 00a7 273c 825a fdbd
00000270: 98b5 cbbc d884 acbc a01d a43c 34bd 19bd
00000280: 2a0c 833d 8e56 e43d a859 aabc 78cc db3c
00000290: 4a9f cb3d b01d 293d e061 cc3b f0a3 26bc
000002a0: 1009 a0bd 8091 49bb b0f1 c53c 043d 5fbd
000002b0: 648c e0bd 8e2d d03d 8056 c9bd 86ce f2bd
000002c0: 041e c93d d82a d83c f8ab bb3c 6023 4abc
000002d0: 4c5b 583d 88d3 ce3c b08b b6bd d652 aebd
000002e0: b2e3 ad3d 86c4 d4bd 24d6 60bd d022 c23c
000002f0: 8c4e e03d e0c5 d9bd fc97 5dbd e8c0 00bd
00000300: b6d2 b43d 4cdd c5bd 3c0e f13d 7cd8 c2bd
00000310: 60de cf3c 5881 ba3c 0cf3 2e3d 8e0b b4bd
00000320: 6442 9d3d a821 d7bc 741d 3c3d 30e3 3f3d
00000330: 000b 80bc 80d4 153d f8f1 16bd 9493 f5bd
00000340: 58fd f9bd c4c6 24bd 36a4 bdbd 407e 993c
00000350: 6a85 c63d 6ad5 abbd 6cc0 183d 9a73 e1bd
00000360: f6fd ea3d 2440 55bd 9403 6bbd 2e54 e73d
00000370: f45f c0bd 64af 84bd 60c0 86bc fe2c d6bd
00000380: a07c 47bd 10a5 6f3c 0aee a2bd 06da f63d
00000390: 047f e03d 286d d8bc 9870 883d 002a 9d3d
000003a0: 02e8 c0bd b0cc 943c d839 453d c07b 78bb
000003b0: 2e61 bb3d 0092 8abd 08bb 37bd 983f a03d
000003c0: 40ca 54bd b81a f2bc a24e b13d 10e7 c1bc
000003d0: 82d5 ca3d b0b6 653d 74b5 f4bd 409c dd3c
000003e0: 7006 013c d81e e13c 80a9 373c 3ee6 90bd
000003f0: da77 a7bd b8c6 8abc 60fc 8bbb c272 d73d
0.099995956 0.08267018 -0.0060913116 0.10734703 0.08663501 -0.079873204 -0.028654993 -0.05917515
-0.09576213 -0.08804695 0.03177029 -0.08081077 0.108009756 0.005862981 0.08797224 -0.07843974
-0.07587808 0.04905805 -0.015951544 -0.023600355 0.033227086 -0.12086889 0.06642383 0.10139878
0.031669438 -0.064464465 -0.07519485 0.0096672475 0.07989472 0.047067106 -0.026613533 0.0997705
0.08329454 -0.0723933 0.09729047 0.035681605 0.018650621 0.058820978 -0.115705684 0.0060272366
0.023950458 -0.09952293 -0.060761422 0.12413393 -0.037412286 -0.07837111 0.08266318 -0.0059702992
0.038138166 0.016007975 -0.07120873 0.05460033 -0.10610458 0.036795497 -0.06541212 -0.04692222
0.08949013 0.0011249036 0.110664204 0.10720727 -0.013290599 -0.123622194 0.12116377 -0.03427112
0.06378293 -0.110327914 -0.11650473 0.011893645 -0.10533404 -0.08838186 -0.043232754 -0.031144649
0.061777532 -0.07121268 -0.028650418 -0.05169663 -0.116990656 -0.042807177 -0.026254043 0.011427835
0.05982718 0.108316764 0.063250124 -0.069791764 0.11311759 -0.010237202 -0.036276355 -0.028320998
0.09170109 0.11562371 -0.037341326 0.10547049 0.030638486 -0.030104652 -0.062107638 0.012010902
0.09059639 -0.010368153 0.0392403 0.037839904 -0.019264296 0.036206827 0.0011954755 0.07167025
-0.055866435 -0.013115659 -0.06666677 0.0061471015 -0.08449419 -0.061034784 -0.022209868 -0.020575002
0.075689 0.06278528 0.031221643 -0.014384896 -0.039863512 0.062767446 -0.019524649 0.05829367
-0.08990273 0.05635369 0.08262521 0.06793092 -0.04684435 0.098615885 -0.015066728 0.11578697
0.08710118 0.049583152 0.092781484 0.123516575 0.06340352 -0.039668635 -0.03446248 0.037227497
-0.11392632 -0.0835419 0.0635297 0.059157655 0.113353536 0.12234366 -0.11264345 -0.109067455
0.042615026 0.09288971 0.12007429 0.024869472 0.10623765 0.08844635 -0.067258865 0.0669509
0.07869655 -0.05958122 0.010232687 -0.123707786 -0.024866864 -0.021059439 0.020033658 -0.037533954
0.063988045 0.111493215 -0.020794705 0.026830897 0.09942491 0.041288078 0.0062372535 -0.010170922
-0.078142285 -0.003075689 0.024163097 -0.05450155 -0.109642774 0.10164939 -0.09830952 -0.118557975
0.09820178 0.026387617 0.02290915 -0.012337536 0.052821442 0.02524735 -0.08913362 -0.085118935
0.08490695 -0.10389046 -0.05489172 0.02369824 0.109524816 -0.10633445 -0.05410002 -0.03143397
0.088292524 -0.0966135 0.11770293 -0.09513947 0.025374591 0.022766754 0.042712256 -0.087912664
0.07678679 -0.026261166 0.045926526 0.046847522 -0.015630245 0.03657961 -0.036851853 -0.11991039
-0.122065246 -0.04022862 -0.092598364 0.018736959 0.096934155 -0.08390315 0.037292883 -0.110083774
0.114742205 -0.052063122 -0.05737646 0.11295353 -0.093933016 -0.064787656 -0.016449153 -0.104578
-0.048702836 0.014626756 -0.079555586 0.120533034 0.10961726 -0.026419237 0.066621006 0.076740265
-0.09419252 0.018164009 0.048150867 -0.0037915558 0.09149395 -0.067661285 -0.0448561 0.078246295
-0.051950693 -0.029553756 0.08657576 -0.02366975 0.09904005 0.056082428 -0.11948672 0.027052045
0.00787507 0.027480528 0.011209846 -0.07075165 -0.08177157 -0.01694046 -0.004272029 0.10519935

convs.1.agg_lin.weight f4 [32, 32]
00000000: 6302 85b8 5205 0000 19b1 6fae 7fc6 4daa
00000010: e139 489a 5400 0000 399d a8b7 b303 0000
00000020: 491f edb6 4251 3aa7 473a beb2 7607 0000
00000030: 923a 10ab 8106 0000 7da3 0fb8 0c70 55b7
00000040: 8a00 0080 3cf9 16b4 c700 0000 fa04 0000
00000050: 5da9 1a97 8230 b0b7 0046 6cac 52e5 fcb7
00000060: deee 71b0 2102 0080 d101 0080 c906 3b88
00000070: 1d00 0080 aaef 29b7 ffba 8bb0 ff02 0080
00000080: ea0b b53d 6298 6e2a 799c fdbd 8006 00be
00000090: 1bb8 b03d 37b3 edbd b0d6 8abd 3fae 47bc
000000a0: 6cd1 e53d 4401 013d 30d8 23be b5b9 8121
000000b0: 4a49 09bd a00b 023d f067 0a3c 3038 293d
000000c0: 9446 d93d b98f b13d e724 ad3d 88fc b4ba
000000d0: 64be 7bbe 8dd0 debc fa9c 94bb 30fd c2bd
000000e0: f64b 703b d55b 742f ab03 0000 0bfd 81bd
000000f0: dfa9 57be 1518 ea3d 6371 853d 1da9 28be
00000100: 27c5 acbd eb8b 3b20 224d 883d 2f3e cdbd
00000110: 2771 1fbd bf5a 363e 0ccf f83d 53f8 85bd
00000120: c4c4 623d 97db d3bd b721 89bd 7089 4d32
00000130: 395b f93c 03fd 093d 31ff 22bc 4770 023e
00000140: de6c b6bd d07a 123d 3ebe 33bd 4173 423a
00000150: 9c5e 59be 46fb b83c d24c e13d 351f 28be
00000160: 2438 073e cb73 3d39 3c32 12b1 678d 923d
00000170: cf2f 903e 9442 443d 367c 4b3d 2886 8e3e
00000180: 40aa 4a3d 9603 0000 4e98 cbbd 8d34 d2bb
00000190: 0ca6 13be 3399 623c 7515 56be 312e 433a
000001a0: d3e7 11bc d926 acbd e04a e4bd 9901 0000
000001b0: 993d 85bd 34ac 0d3d f8a6 81bd b212 133d
000001c0: 8271 0abd aefd 5c3d da99 ae39 d40d 0e9c
000001d0: 1b4a 0ebe bafb 9abd 3d1c aabd b217 d03d
000001e0: be54 ccbd 8567 b98b 9100 0000 de1f dfbc
000001f0: 93ac 4e3c 193d 20be d53a 16be fe65 0d3c
00000200: 8729 6b9f 2b03 0000 d501 0000 b73e b19c
00000210: 6a03 0000 9702 0000 282a 0497 a703 0000
00000220: 1f7c 9aaa 3401 0080 cf02 0000 eb09 0080
00000230: a701 0000 6a02 0000 788d c9a1 9621 86a5
00000240: 2602 0080 14c1 90a3 f502 0000 ac07 0000
00000250: f502 0000 a52e d29f 0d04 0080 23a2 61a6
00000260: 42cd 2791 4f04 0080 2607 0000 b102 0000
00000270: e500 0080 a554 429d 442f 8898 1205 0080
00000280: 8e2b 98bd e003 0080 80af d0bd d928 5fbd
00000290: 7eff 08bd 0516 e1bc 8645 2a3a af84 06bd
000002a0: 4606 dcbd aab2 bd3c 50cb 92bc aa02 0080
000002b0: 2e65 86bc ffe0 f33b 7490 8ebe 4927 1f3d
000002c0: 6858 e6bd ebb8 fd3d ac1e 28bd e16a 3233
000002d0: 161a 9a3d fb20 4a3d 3b56 cdbd 5f1d 093d
000002e0: c5cc 653d 1825 47ac 4c00 0080 d270 f0bd
000002f0: cd07 10bd 8e36 5abe 49f0 8b3d 737f fc3a
00000300: 8b3e aa39 1901 0080 1b21 613c 68bb cabd
00000310: d2cb 133e db08 29be 105a 153d 7f25 363d
00000320: 49f0 de3b 6656 8fbc 9e78 9e3c 7597 9423
00000330: d3d9 89bc b103 03bd 75fc 083d b5dd ca3c
00000340: b501 8e3c 568a 403c b7d9 4dbc 23d2 f039
00000350: 1919 9dbb 9e62 093c e2e7 7f3c d590 1ebd
00000360: 1676 053d 5e30 ab39 1d0f 9680 a7b9 43bd
00000370: 9cd8 2fbe 02a3 323d b920 243d 8968 2bbe
00000380: 9d0b b1ba 5500 0000 6e6a 0bb7 8f7f 95b3
00000390: 37f8 c7aa 0301 0080 67ae f6b9 e222 e399
000003a0: 6c5d 20ba 5058 e5b5 0d89 aab5 5501 0080
000003b0: 122d c7b5 fb00 0000 1d7c 84ba f6e7 5fba
000003c0: 1501 0000 1b17 41b9 9202 0080 1105 0000
000003d0: d587 f8ad 1f2a 59ba 3b26 aab0 f9bc 98ba
000003e0: 9cc6 44b7 eb05 0080 ef03 0000 5937 5281
000003f0: 2104 0000 9eed d2b9 323e 31b8 f103 0080
-6.342379e-05 1.909e-42 -5.4499603e-11 -1.8276525e-13 -4.1405785e-23 1.18e-43 -2.0100373e-05 1.327e-42
-7.0667925e-06 -2.5856735e-15 -2.2145413e-08 2.676e-42 -5.124036e-13 2.333e-42 -3.4246117e-05 -1.2721877e-05
-1.93e-43 -1.406051e-07 2.79e-43 1.785e-42 -4.997385e-25 -2.1003423e-05 -3.3576475e-12 -3.0147527e-05
-8.801474e-10 -7.64e-43 -6.52e-43 -5.628124e-34 -4e-44 -1.0128986e-05 -1.0166729e-09 -1.075e-42
0.08840163 2.1191515e-13 -0.123833604 -0.1250248 0.08628865 -0.11606448 -0.0677923 -0.01218754
0.11221585 0.031495348 -0.16000438 8.790536e-19 -0.03351716 0.031749368 0.008447632 0.04131335
0.10609165 0.08669991 0.08454304 -0.001380817 -0.24584347 -0.027199054 -0.0045353146 -0.09520948
0.003666637 2.2224296e-10 1.316e-42 -0.06347092 -0.21060894 0.114303745 0.065157674 -0.16470762
-0.08436041 1.5885811e-19 0.06655337 -0.10021626 -0.03892627 0.17808054 0.12148866 -0.06541505
0.05536343 -0.10344618 -0.06695884 1.196382e-08 0.030439006 0.033688556 -0.009948538 0.12738143
-0.089074835 0.035761654 -0.0438826 0.0007417687 -0.21227497 0.022580754 0.110009804 -0.16418155
0.1320501 0.00018067581 -2.1274351e-09 0.071558766 0.28161475 0.047915056 0.049679004 0.27836728
0.04947877 1.286e-42 -0.09941159 -0.006414956 -0.1441881 0.013830471 -0.20906623 0.0007445543
-0.008905369 -0.08405847 -0.11147094 5.73e-43 -0.065058894 0.034588054 -0.06330675 0.0359065
-0.033799656 0.053952865 0.00033302495 -4.700173e-22 -0.13895456 -0.07567544 -0.08306167 0.101607695
-0.09977101 -7.1415167e-32 2.03e-43 -0.027236875 0.012614387 -0.15648307 -0.1467088 0.008630274
-4.9797536e-20 1.136e-42 6.57e-43 -1.1729089e-21 1.225e-42 9.29e-43 -4.270471e-25 1.31e-42
-2.7442022e-13 -4.32e-43 1.008e-42 -3.558e-42 5.93e-43 8.66e-43 -1.3657736e-18 -2.3268053e-16
-7.71e-43 -1.5694283e-17 1.061e-42 2.752e-42 1.061e-42 -8.9015626e-20 -1.453e-42 -7.8282293e-16
-1.3237227e-28 -1.546e-42 2.564e-42 9.65e-43 -3.21e-43 -2.5719446e-21 -3.5202902e-24 -1.819e-42
-0.074301824 -1.39e-42 -0.10189724 -0.054482315 -0.03344678 -0.02747632 0.0006495345 -0.03284138
-0.10743384 0.023156483 -0.017919213 -9.56e-43 -0.016405668 0.007442593 -0.27844584 0.038855825
-0.11247331 0.12388786 -0.041044876 4.154106e-08 0.07524507 0.04934786 -0.10026213 0.033475276
0.056103487 -2.8300192e-12 -1.06e-43 -0.11740269 -0.03516369 -0.21309873 0.0683294 0.0019264057
0.00032471525 -3.94e-43 0.013740803 -0.09899026 0.1443322 -0.16507284 0.036462843 0.044469353
0.0068035466 -0.017497253 0.019344624 1.6110337e-17 -0.0168275 -0.031985942 0.033443887 0.024763921
0.017334798 0.011751732 -0.012564114 0.0004593293 -0.0047942516 0.008385329 0.01561925 -0.03871234
0.03258332 0.00032651698 -1.3780746e-38 -0.047784474 -0.17172474 0.043612488 0.04007027 -0.16739096
-0.0013507489 1.19e-43 -8.309826e-06 -6.961556e-08 -3.5521735e-13 -3.63e-43 -0.00047050716 -2.3485339e-23
-0.00061174366 -1.7087532e-06 -1.2705874e-06 -4.78e-43 -1.4839773e-06 3.52e-43 -0.001010779 -0.000854134
3.88e-43 -0.00018414522 -9.22e-43 1.817e-42 -2.8254657e-11 -0.00082841696 -1.2379994e-09 -0.0011652998
-1.1728753e-05 -2.123e-42 1.411e-42 -3.8610618e-38 1.481e-42 -0.0004023136 -4.2258012e-05 -1.414e-42

convs.1.agg_lin.bias f4 [32]
00000000: 11cd 0cbb 5216 09bd 9292 b6bc 5f10 ec3d
00000010: 5ead b1b5 a356 973d 2987 e43b 563c 19bc
00000020: c49c 8132 02a5 53bc 6cfa c53d 03a9 8fbc
00000030: 693b 65ac 182a 5c3c 24c7 a6a0 407c feba
00000040: 5456 093e 9ba2 b3b9 f213 9bbb 3586 d295
00000050: f9ce 573b f293 0db5 db81 a4af 669c 3a3c
00000060: c161 1aa4 2414 433d c67f daa3 42af 4abc
00000070: 3ac3 863c 62c6 0cbd 3f11 65bc 0447 939e
-0.0021484534 -0.033468552 -0.022286687 0.1152656 -1.3237984e-06 0.073895715 0.00697412 -0.009352764
1.5088865e-08 -0.012917759 0.09666905 -0.017536646 -3.2575837e-12 0.01343777 -2.8253274e-19 -0.0019415691
0.13411838 -0.0003426269 -0.0047326023 -8.5030066e-26 0.0032929762 -5.274188e-07 -2.9923694e-10 0.011389827
-3.3476228e-17 0.04762663 -2.3689722e-17 -0.012370886 0.016450513 -0.03436888 -0.013981163 -1.5593602e-20

convs.2.lin.weight f4 [32, 64]
00000000: 98b5 4a3d acca cbbd 06df 84bd f67d 90bd
00000010: 8083 713d 606d 653d 8c4c f03d 1878 ecbc
00000020: ee7c fabd 5e52 933d 2090 f9bb f095 363c
00000030: b8be e63c 70a3 6a3c 7068 773c 1874 043d
00000040: 80b1 59bc 66ae 8a3d aecc 8c3d 30fa 743c
00000050: 103b d6bc bedf d13d 7c77 50bd 5cb5 5d3d
00000060: 8848 da3c 1241 ed3d 705d d83c 00ec 103a
00000070: fced e23d 8e56 98bd f64d 953d 1c5c 483d
00000080: e0a0 6c3c 2ca3 533d 22ef 9dbd 12d6 aebd
00000090: e812 733d ba58 a73d c812 c53d 143b 90bd
000000a0: 1c0c 2dbd 80b5 d1bc fca0 2fbd 201c 7c3d
000000b0: 0838 27bd 30b8 ffbd f6cd da3d 2e8e c43d
000000c0: 129c 833d 1c28 623d 4ac5 fd3d e0b4 c93c
000000d0: 38b0 41bd 08a5 cf3c 3835 f63d 281b 76bd
000000e0: c2db ab3d 845f 8a3d f06b 23bd dc06 5bbd
000000f0: 14b6 a5bd 841b bbbd f826 5c3d e404 24bd
00000100: 10ef 233d 82d6 e53d 0675 e7bd 34f1 fd3d
00000110: e8a6 c23c 5ad8 babd bc00 d53d 90dd 1abc
00000120: dcda cf3d 5804 dcbd 40ae d43d 782c 9f3d
00000130: 1e9d 823d d22d bfbd 9cbc 6bbd 00d6 40bb
00000140: 80d3 ecbb dade f73d 7428 d6bd e8f8 47bd
00000150: 7a16 803d 90e2 0dbd 0262 98bd 48da 81bd
00000160: 406f b2bb 8e4d c63d 4c8b a63d 80b9 c5bc
00000170: 30b6 36bd 243c b53d 1099 0c3d b8e0 d1bc
00000180: c420 b2bd 9413 de3d 38e8 c9bc 4c13 963d
00000190: ecce aabd e848 e9bc 8a87 fdbd e805 e23c
000001a0: 8075 b2bc 1087 ac3d 0cf7 86bd ecd1 843d
000001b0: a881 e13c 2684 93bd a030 cc3c 908d 5e3d
000001c0: 24cb aa3d c0e6 8ebc 6014 a2bc 840a e3bd
000001d0: 7eab cc3d 5805 5e3d 502b f23d bc2d 24bd
000001e0: 8024 bd3b 149a 7bbd 00d1 a5bb 68c1 e0bc
000001f0: 14a8 763d 2c06 a0bd 84b2 393d 7e5b c03d
00000200: 4ee2 cebd dc14 72bd 405d 903b faee b83d
00000210: 301d a73c b4e9 8dbd ecfd 80bd 8208 f2bd
00000220: 80c5 3dbc ecdd 39bd 007c c53a 9093 9fbc
00000230: cad1 c23d 1eae f9bd b021 f33d 34d0 7c3d
00000240: baeb a3bd caaf e7bd 30d3 62bd 4808 a2bd
00000250: 00b7 7e3b 803c c7bb 78d1 8a3d 7cfe 0c3d
00000260: 38d6 9f3c 00ca a83a a02e 2e3c fafd 83bd
00000270: 8eae a1bd 48db 8ebc 083d f43c 4c33 003d
00000280: f2a0 da3d cc9b db3d 2812 f13d 8013 493c
00000290: 0454 5f3d 287a a1bc 72da f23d 9497 91bd
000002a0: e4d0 123d 9486 d73d c0c9 67bc 84b0 dcbd
000002b0: cc78 643d d47d e0bd ec69 78bd b8c2 24bd
000002c0: 2a17 b83d 7a5c a2bd 00ea d43c d0e8 d2bc
000002d0: 401a 8e3c 0afc e13d a295 a5bd acbf 57bd
000002e0: f48e 14bd d6ee 933d 7054 cc3d c620 f93d
000002f0: 00a4 17ba 30ef ebbc 4e84 ac3d c69f d5bd
00000300: 388a 183d d483 ab3d 2213 f63d d83e cb3d
00000310: 7010 f13c e035 c5bb 764e f3bd 18ff e2bd
00000320: 6af0 a63d 6abf 94bd 38bd 923d 2043 113d
00000330: a863 73bd c83f 23bd 9052 c0bd 38c0 ec3c
00000340: 8008 dd3b 9ebb 88bd 0c1f 623d d8b4 c33d
00000350: cc56 6f3d 06a2 e63d dc33 c6bd 7cd6 77bd
00000360: 3af1 b4bd dc06 89bd c830 a93c 0062 ccba
00000370: 9010 2fbc a06c 46bc 8c41 38bd 4c43 77bd
00000380: 50e1 c9bd 9ab8 e83d d43a dd3d 2067 9abc
00000390: a059 ed3b 18f3 80bd 3856 d1bd 0826 a4bc
000003a0: 00a5 d6bb 5405 ee3d d2d8 983d 0aa1 e13d
000003b0: 00b1 8c3a 40a4 6f3c b411 973d a27b e93d
000003c0: aa86 a43d 5c3b 68bd 041f 28bd 2cf1 65bd
000003d0: 2ea3 a43d 5ee1 f93d 4acb eb3d 52eb acbd
000003e0: 9cf3 e03d 8a8d a1bd 00dc f0bd d80d dabd
000003f0: fa88 e8bd e40e 08bd 68f2 da3d 101d 8fbd
0.049489588 -0.09950766 -0.06487851 -0.07055275 0.0589633 0.05601251 0.1173335 -0.028865859
-0.1223086 0.07193445 -0.007616058 0.011144146 0.028167114 0.014321193 0.015100583 0.032337278
-0.013286948 0.06771545 0.06874977 0.0149522275 -0.02615121 0.102477536 -0.0508952 0.054128036
0.026645914 0.11584677 0.026411742 0.0005528331 0.11080548 -0.07438384 0.072902605 0.048915967
0.014442652 0.051669285 -0.077116266 -0.085369244 0.059344202 0.0817122 0.09622723 -0.07042518
-0.042247877 -0.025599241 -0.042878136 0.06155026 -0.04082492 -0.12486303 0.10683815 0.09597431
0.064262524 0.055214033 0.123911455 0.02462238 -0.047287196 0.025347248 0.120218694 -0.060084492
0.08391525 0.067564994 -0.03989786 -0.05347334 -0.08091369 -0.091361076 0.0537481 -0.040043727
0.04002291 0.11222555 -0.11301617 0.123995215 0.023761228 -0.09123297 0.10400531 -0.009452239
0.10149166 -0.10743016 0.10384798 0.077721536 0.06377624 -0.093349114 -0.05755292 -0.002942443
-0.007227361 0.121030524 -0.104569346 -0.04882136 0.06254287 -0.034639895 -0.074405685 -0.06340462
-0.005445391 0.09682761 0.081320375 -0.024136305 -0.04460734 0.088493615 0.03432566 -0.02561985
-0.08697656 0.10843578 -0.024646863 0.07327899 -0.083402485 -0.028477147 -0.12379368 0.027590707
-0.021784544 0.08424199 -0.06590089 0.06485352 0.027527645 -0.0720294 0.02492553 0.054334223
0.08339527 -0.017444015 -0.019785106 -0.1108599 0.09993647 0.054204315 0.118246675 -0.04008268
0.0057721734 -0.061426237 -0.005060315 -0.027435973 0.060218886 -0.07813677 0.04533626 0.09392451
-0.10101758 -0.059101924 0.0044056475 0.09029956 0.02039966 -0.06929341 -0.06298432 -0.11818029
-0.011582732 -0.045377657 0.0015066862 -0.019479543 0.0951267 -0.12191413 0.1187166 0.061721995
-0.08003946 -0.11312826 -0.055377185 -0.07911736 0.00388664 -0.00608021 0.06778234 0.034422383
0.019511327 0.0012877584 0.010631233 -0.064449266 -0.07894622 -0.017438546 0.029814258 0.03129892
0.10675229 0.10723075 0.11771041 0.012272716 0.054523483 -0.019711569 0.118580714 -0.07108989
0.035843745 0.105237156 -0.014147222 -0.10775855 0.055779263 -0.109615 -0.06064789 -0.04022476
0.08988793 -0.07927795 0.025990486 -0.02574578 0.017346501 0.11034401 -0.08085181 -0.052673027
-0.036269143 0.07223289 0.09977043 0.12164454 -0.0005784631 -0.028800577 0.084236726 -0.10430865
0.03724119 0.083747536 0.12015368 0.09924096 0.029426783 -0.0060183853 -0.118801996 -0.110838115
0.08151324 -0.07263072 0.07164997 0.035464406 -0.05942121 -0.03985575 -0.093907475 0.02890025
0.006745398 -0.0667641 0.05520539 0.095559776 0.058432385 0.11261372 -0.0967786 -0.060507283
-0.08835073 -0.066907614 0.020653144 -0.0015593171 -0.010685101 -0.012110859 -0.044984385 -0.060366914
-0.09857428 0.11363335 0.10802236 -0.018848002 0.00724335 -0.062963665 -0.10221523 -0.020037666
-0.0065504313 0.1162211 0.0746323 0.11017044 0.0010733902 0.014626563 0.073764235 0.11400534
0.08033498 -0.056697235 -0.041045204 -0.056138203 0.080389366 0.122011885 0.11513384 -0.08443321
0.10983965 -0.078883246 -0.11760712 -0.10647172 -0.11354251 -0.033217326 0.106907666 -0.06987965

convs.2.agg_lin.weight f4 [32, 32]
00000000: b13c b31e 35d1 c43a 1e39 0ebb 5c66 e2b3
00000010: fa03 0000 ef68 b838 a001 cf3c 8800 0000
00000020: cb04 0080 5002 0000 4a50 e93a 60ab 0030
00000030: 0700 0080 e36b 4dbb 4103 0000 39b5 2d87
00000040: 2893 12bc b4eb 2c1b 3e07 e32f 5902 0000
00000050: 5165 23b8 5b00 0080 9505 0000 e702 e0ba
00000060: 7a03 0000 d24d 9cb9 7002 0080 c604 0000
00000070: 34a3 f337 26bc 90b6 0200 0000 a200 0000
00000080: 7f00 0080 8d9b 42bb e364 c4bb 62ff 12bb
00000090: ee02 0000 799d 03bd 11f0 ccbb 8f03 0000
000000a0: 31c0 7d17 be01 0000 2867 a13b 555f 96b9
000000b0: bf04 0080 891a 86bc fb00 0080 5d03 0000
000000c0: e84f a8bc 8e10 0080 2b71 cf2a 5007 0080
000000d0: 8cf0 b2bc 4500 0000 a802 0080 6dfb d2bc
000000e0: e7b0 37b1 5c16 f0bc 3504 0080 9809 0080
000000f0: 2fc8 33bc 366e 58bb 0302 0080 310c 0080
00000100: 03ba 0eae be1d f7bd 09a7 3d3e dd25 eb3b
00000110: d145 0280 ab17 0bbd d0de fbbd 10c0 01ac
00000120: 731c a8b4 2f85 1cb9 957e 8dbd dbdc febd
00000130: d903 0000 d47e 033e a602 0000 832b 14a5
00000140: aebf f03d 5575 f381 697d a9bd 506c fc13
00000150: 9c60 edbd 5c00 0000 6901 0000 8908 eebd
00000160: 2203 0000 badb 66bd 1002 0000 963f 6fb7
00000170: 4236 b9bd 6dde 723d 4e2f f436 b401 869b
00000180: 25d7 3f00 7ebc b83a 4749 d8bc a369 2e3b
00000190: 6b04 0080 c4ee c83b 4a4d 9abd 55e4 961e
000001a0: 894b efb1 f34d 02ba cb22 863d 9560 2638
000001b0: a700 0000 0d92 503e 2b00 0000 9502 0000
000001c0: eb65 023b c570 cf85 9191 cc38 c78e f090
000001d0: ebab 5d39 a500 0080 0201 0080 4c6b 593b
000001e0: cf02 0080 1640 03be 6300 0080 1689 d9ab
000001f0: 04d0 673a a1fd 0038 3c4b 6439 6aeb 079a
00000200: 9e93 aa26 e075 a4bd 6c7a bfbd 7169 02bd
00000210: ad01 0080 194d 043e 569f 293c be56 0935
00000220: 0c6e 86b1 f5ae ddba 4111 b13d d1d9 bf3d
00000230: bf00 0080 c37a efbd a205 0000 43eb 4836
00000240: f93f 803d ca42 5ca3 a1b8 9d3d 4224 db93
00000250: f231 81bd 8001 0000 4000 0080 6506 a1bd
00000260: 3804 0080 ca96 e5bb f702 0000 9bd0 a7b7
00000270: fa79 ee3d de31 b73b 28d3 243a a643 9999
00000280: 3d63 5db5 26f7 d93c e07f dcbd 83bd 58be
00000290: fdba 9593 b6c3 523c f3d4 35bd 1e5f e737
000002a0: 323f 0d33 02ec afbc 49b5 5abc f965 f8bd
000002b0: 7e03 0080 0154 4ebe be00 0080 cc98 ca39
000002c0: f34c df3c c1c1 cdb0 5b28 a9bd 64e4 9193
000002d0: 8eab 59bc bfcd e1a2 23e6 6ead d9d5 f43c
000002e0: 0903 0000 6577 833c cb25 4015 3e9c 94ba
000002f0: 5462 25bc fb58 1cbe 1fc5 7d3b cea9 859c
00000300: d301 0000 7e0d e1b9 390f 27b8 4ad1 cf34
00000310: 0400 0000 a654 b4b9 395e 95bc 0e00 0000
00000320: 6200 0080 7b00 0000 7bed b32f 0bd6 1d17
00000330: aa02 0080 4b80 52bb c401 0080 bf00 0000
00000340: 83eb a8bb 7e01 0080 09e3 8497 6805 0080
00000350: 83be c5b9 5703 0000 820d 0000 6cfb f339
00000360: 9503 0080 8f43 6a3c f602 0080 6905 0000
00000370: 584c 14b7 0244 79b2 3703 0000 6602 0000
00000380: ae0c 99b7 e325 03be 0b9a 9c3d f21e 223e
00000390: 4401 0080 fb3a afbd 2850 e0bd 9a1e fab4
000003a0: a260 a031 1eb3 06bc 8f64 09be 02d9 0fbe
000003b0: b003 0080 8348 3e3d ae03 0000 1288 3bb6
000003c0: 8e8b cfbd 2b17 5da8 26da e0bd 532f 9c12
000003d0: bce5 243d 5c02 0000 0301 0000 2b5a 4a3b
000003e0: b603 0080 e432 d3bd 3e04 0000 6c18 9bbb
000003f0: 1747 8bbd 5edd c3bd 5140 5bba 9a7c ac9b
1.8977464e-20 0.0015015962 -0.0021701525 -1.0542564e-07 1.427e-42 8.793349e-05 0.02526933 1.9e-43
-1.72e-42 8.3e-43 0.0017800417 4.680967e-10 -1e-44 -0.0031344823 1.167e-42 -1.306833e-34
-0.008946218 1.4303666e-22 4.1296205e-10 8.42e-43 -3.8956587e-05 -1.28e-43 2.002e-42 -0.0017090709
1.247e-42 -0.0002981262 -8.74e-43 1.712e-42 2.9043855e-05 -4.313438e-06 3e-45 2.27e-43
-1.78e-43 -0.0029694766 -0.005993472 -0.0022430052 1.051e-42 -0.0321326 -0.006254204 1.277e-42
8.199129e-25 6.25e-43 0.0049256273 -0.00028681257 -1.703e-42 -0.016370075 -3.52e-43 1.207e-42
-0.020545915 -5.939e-42 3.6849113e-13 -2.623e-42 -0.021843217 9.7e-44 -9.53e-43 -0.025754655
-2.6730562e-09 -0.029307537 -1.509e-42 -3.442e-42 -0.01097302 -0.0033024675 -7.22e-43 -4.373e-42
-3.2452274e-11 -0.1206622 0.1852075 0.0071761445 -2.08716e-40 -0.03395812 -0.122983575 -1.8438619e-12
-3.1313138e-07 -0.00014926934 -0.06908909 -0.124444686 1.38e-42 0.1284135 9.5e-43 -1.2851696e-16
0.1175531 -8.9432465e-38 -0.08275873 6.3720548e-27 -0.115906924 1.29e-43 5.06e-43 -0.11622722
1.124e-42 -0.05636189 7.4e-43 -1.4260315e-05 -0.09043552 0.059294153 7.2772737e-06 -2.216954e-22
5.862816e-39 0.0014094261 -0.026402129 0.0026613257 -1.585e-42 0.0061319787 -0.07534273 1.5976304e-20
-6.964403e-09 -0.0004970722 0.06549605 3.9667433e-05 2.34e-43 0.20368214 6e-44 9.26e-43
0.0019897174 -1.9507611e-35 9.754592e-05 -9.488329e-29 0.00021140247 -2.31e-43 -3.62e-43 0.0033175526
-1.008e-42 -0.12817416 -1.39e-43 -1.5456826e-12 0.00088429474 3.075379e-05 0.00021771801 -2.8107512e-23
1.1836131e-15 -0.08030295 -0.09349522 -0.031838838 -6.01e-43 0.12920035 0.01035293 5.1162704e-07
-3.912424e-09 -0.0016913103 0.08645869 0.09367717 -2.68e-43 -0.11693337 2.02e-42 2.9939263e-06
0.06262202 -1.1940367e-17 0.07701231 -5.5319125e-27 -0.063083544 5.38e-43 -9e-44 -0.07862548
-1.513e-42 -0.007006501 1.064e-42 -2.000509e-05 0.11644359 0.0055906614 0.0006287568 -1.5847152e-23
-8.2473326e-07 0.026607107 -0.10766578 -0.21166043 -3.7797273e-27 0.012864044 -0.044392537 2.7581638e-05
3.2886597e-08 -0.021474842 -0.013348886 -0.12128825 -1.253e-42 -0.20149232 -2.66e-43 0.00038642285
0.027258372 -1.4970781e-09 -0.0825965 -3.6828357e-27 -0.013285531 -6.1204214e-18 -1.3579834e-11 0.029887127
1.089e-42 0.016048143 3.8803905e-26 -0.0011338068 -0.010094244 -0.15268318 0.003872223 -8.845095e-22
6.54e-43 -0.00042925397 -3.983008e-05 3.8709032e-07 6e-45 -0.00034395343 -0.018233405 2e-44
-1.37e-43 1.72e-43 3.272865e-10 5.0999596e-25 -9.56e-43 -0.0032119926 -6.33e-43 2.68e-43
-0.0051550283 -5.35e-43 -8.587612e-25 -1.94e-42 -0.0003771671 1.198e-42 4.846e-42 0.00046535896
-1.285e-42 0.014298334 -1.062e-42 1.941e-42 -8.839263e-06 -1.4509171e-08 1.153e-42 8.6e-43
-1.8244926e-05 -0.12807421 0.07646569 0.15832117 -4.54e-43 -0.085561715 -0.109527886 -4.6588394e-07
4.6675988e-09 -0.008221416 -0.13417266 -0.14047626 -1.323e-42 0.04645587 1.32e-42 -2.7944375e-06
-0.1013404 -1.2272988e-14 -0.109791085 9.85665e-28 0.040258154 8.46e-43 3.63e-43 0.0030876498
-1.331e-42 -0.10312441 1.522e-42 -0.004733136 -0.06800669 -0.09563707 -0.0008363771 -2.8535535e-22

convs.2.agg_lin.bias f4 [32]
00000000: f0a9 fbbc 688a 9bbc ff86 74ba 2433 42bd
00000010: f4ee 1dbc 01f7 3d3d 43b4 62bc c2ef af3d
00000020: 6e03 53bb 15f1 879a 8d12 af3b e25a 0bbd
00000030: cbf8 be39 db27 e33c ed41 20bd 03d4 a43c
00000040: d77d b2bc 3c48 813b 6c5d f03c e1bf 56bd
00000050: 8798 a8b3 47e5 0cbc 0e5c 9dbb 8098 3a3d
00000060: 2640 afbc 1ac8 a0bc b105 1dbd 540b c3bc
00000070: dfdf a7ad 7cc2 36bd e70d d5b3 20eb b9b9
-0.030720681 -0.018986896 -0.00093279773 -0.047412053 -0.00963949 0.04637814 -0.013836923 0.08590652
-0.003219809 -5.622418e-23 0.0053427876 -0.03402222 0.0003642499 0.027728966 -0.03912537 0.020120626
-0.02178852 0.0039453786 0.029341422 -0.052429084 -7.850854e-08 -0.008599586 -0.0048022335 0.04555559
-0.021392893 -0.019626666 -0.038335506 -0.023809113 -1.908512e-11 -0.04461907 -9.921114e-08 -0.00035461131

post_mp.0.weight f4 [32, 32]
00000000: 3479 91b1 149d 91b6 54ae c43d 0e1d ec3d
00000010: 659e ecbd 9897 3dbe 3c65 09a7 66ff 0a3e
00000020: e103 0000 e804 0000 b3d6 173e e658 b13c
00000030: d314 a63d 7612 e9bc 61b5 15be 724f c33c
00000040: fc1c 843d 1ca4 7cbd a6ea 09bc f28c 39bd
00000050: cb02 0000 1c92 58bd 262a 798a dbc8 c23d
00000060: ab8a 42be 076d b9bd 118a db3d c5c9 063e
00000070: 4cc1 0495 1637 283d 3700 0080 fe6d 9636
00000080: 952a 9230 af1e 5c37 4967 97bd 050b c9bd
00000090: d129 ce3d 3e0f 443e 577b af24 3813 f5bd
000000a0: df01 0080 5d06 0080 d386 02be f370 c1bc
000000b0: 73e0 abbd 4d45 e83b fad3 153e 1327 48bd
000000c0: 880e 90bd b0e1 5a3d 8b41 d53c 9021 4c3d
000000d0: 9902 0000 e011 6c3d 5137 9a86 75d4 c9bd
000000e0: 3940 233e 2790 d13d 5f4e debd 716a 06be
000000f0: 31af 7e95 f2cc dfbc 2904 0080 5532 91b6
00000100: b75c dc23 8871 1133 d55b c0bc eb89 46bd
00000110: a279 463d 54df 053e 9770 ec17 6f2e 85bd
00000120: fd01 0000 2b04 0080 2326 7cbd 7dc9 5abc
00000130: e7b4 73bd 76ad 5bbc cc82 b43d 931d 6dbd
00000140: b1b3 43bd 3be2 ca3c 76a3 033d 6f25 133d
00000150: 0203 0080 b80f 2d3d a012 0c8a 5c85 8cbd
00000160: 8da5 983d ea53 a03d 6bf1 92bd b34d acbd
00000170: 9f84 9915 4f18 63bb db03 0000 046f 0036
00000180: 175f 4d28 1856 90b6 0d36 6439 8717 293d
00000190: b7ab 43bd ac31 3fbe 9b00 649a c9bc 833d
000001a0: 5e03 0000 2000 0000 2bb8 603d d3b4 943c
000001b0: a7ee ab3d 212d 4d3d ff39 dfbd ddec db3d
000001c0: f1f1 9c3d b0a0 c8bc a719 8cbd 0bbd 65bd
000001d0: 9502 0080 7ad4 84bd 6105 148b 9167 d03d
000001e0: deed 72bd 3e69 ffbd 36cb cd3d ef7c ea3d
000001f0: 80ec a815 0200 4cbc 8603 0080 dde9 b834
00000200: c8c8 832a e83f 4e38 f98b 923d 19f4 933c
00000210: 2a5f 2a3c 7693 5a3e f1ac 381a cf18 4ebc
00000220: e100 0000 c504 0000 90fc b53b c374 d0bc
00000230: 22fe c6bd 02d7 00be 8e31 973d 184b 34be
00000240: 55f9 d2bd 6bcd 8f3b f877 013e ff92 973d
00000250: fd00 0080 4007 b03d e605 d10a a7b9 ffbd
00000260: 5894 17bd 9f20 303e fc5e e8bd 173d fdbd
00000270: bb12 f915 0783 633d 0b02 0000 6a88 bdb5
00000280: 17c2 282b 19cd 2a38 5a0c 443d ee09 45bb
00000290: 3cef 063d 5b8f 683e 228f ef9c 933a 16bd
000002a0: 8402 0000 3e04 0000 c859 9ebc d1fd b9bc
000002b0: eede cebd 9eed d9bd 782f bc3d ad50 29be
000002c0: 5ab0 d3bd 00ce 563c 1307 eb3d 8fcb 983d
000002d0: 0504 0000 3a79 b03d 5c90 1a0b da4b 03be
000002e0: c2d1 813a 48b6 2d3e 1281 f3bd 2542 06be
000002f0: 277a 9715 4213 2d3d d50c 0080 8cc2 fc35
00000300: b074 1aa8 d295 9237 3c8c 993b 35db 2dbd
00000310: e064 613d 0634 563e a6e7 9b9b 0fc6 8abd
00000320: 7e05 0080 0003 0080 ec8d 69bd 1756 afbc
00000330: ecfc c1bd a0c5 80bd a6a3 d73d 4668 01be
00000340: 39cb b5bd 37d7 dc3c a58c a73d 4554 843d
00000350: 0d04 0080 ab0f 9a3d 1306 500b c928 efbd
00000360: 43da 6e3d 6c12 143e c4a6 eabd 4321 05be
00000370: 1034 0a16 41c4 8b3c cd05 0080 9bd5 dd35
00000380: 850a f72b 938d 3f38 3e4b bf3d 2b59 233d
00000390: 4586 6ebc dad5 403e bdee a318 211f 833c
000003a0: 7103 0000 e304 0000 40d9 113d 2f2c e3bc
000003b0: 67c9 b2bd 7ef3 0ebe 03c9 523d 647b 35be
000003c0: d65b c8bd d23e 22bc 0095 063e 1b15 8c3d
000003d0: e501 0080 9baf a33d e818 2b8b 0eed e7bd
000003e0: 881e 99bd 3ea1 273e 6b7a cbbd c68b d7bd
000003f0: b4b5 2015 7ffe 883d 5d02 0080 29c4 b4b2
-4.2338346e-09 -4.339623e-06 0.09603563 0.11528979 -0.11553649 -0.1851486 -1.9067449e-15 0.1357399
1.391e-42 1.76e-42 0.14827995 0.021648835 0.08109441 -0.028451186 -0.14619972 0.023841593
0.06450841 -0.061679944 -0.008417761 -0.04530043 1.002e-42 -0.052873716 -1.1996841e-32 0.095109664
-0.1899821 -0.090539984 0.107196935 0.13162906 -2.6809672e-26 0.04106816 -7.7e-44 4.483153e-06
1.0635001e-09 1.3120166e-05 -0.07392747 -0.09816555 0.100665696 0.1914644 7.61031e-17 -0.11966556
-6.71e-43 -2.283e-42 -0.12746744 -0.023613429 -0.0839242 0.0070883394 0.14631644 -0.04886539
-0.070340216 0.05343789 0.02603223 0.049836695 9.32e-43 0.057634234 -5.800964e-35 -0.09854976
0.15942468 0.10232573 -0.10854792 -0.13126542 -5.1433093e-26 -0.027319405 -1.492e-42 -4.327196e-06
2.3891714e-17 3.38637e-08 -0.023481289 -0.048471373 0.04845584 0.13073474 1.5279564e-24 -0.06502997
7.13e-43 -1.495e-42 -0.061559808 -0.013353703 -0.059498694 -0.0134080555 0.0881401 -0.057889532
-0.04777879 0.024766078 0.03213831 0.03592437 -1.079e-42 0.04225132 -6.744258e-33 -0.06861374
0.07453451 0.07828505 -0.07174953 -0.084132574 6.200545e-26 -0.003465194 1.383e-42 1.9138106e-06
1.1400405e-14 -4.301557e-06 0.0002176391 0.041282203 -0.047771182 -0.18671292 -4.7149784e-23 0.06432492
1.208e-42 4.5e-44 0.054863136 0.01815263 0.08395129 0.050091866 -0.10899734 0.107385375
0.07663334 -0.024490684 -0.0684083 -0.05608849 -9.26e-43 -0.06485839 -2.850781e-32 0.10176004
-0.05930888 -0.12471245 0.10048525 0.114496104 6.822779e-26 -0.012451174 -1.264e-42 3.444283e-07
2.3409595e-13 4.9173745e-05 0.07155604 0.01806073 0.010398665 0.21345314 3.819001e-23 -0.012579157
3.15e-43 1.711e-42 0.0055537894 -0.025446301 -0.09716441 -0.12582019 0.07382499 -0.17606771
-0.103014626 0.0043885014 0.1264342 0.07401084 -3.55e-43 0.08595133 2.0128187e-32 -0.12486582
-0.037006706 0.17199944 -0.11346242 -0.123651676 1.0059985e-25 0.05554488 7.33e-43 -1.4121299e-06
5.9954944e-13 4.072217e-05 0.047863342 -0.0030065733 0.032942995 0.22710936 -1.5852692e-21 -0.036676954
9.02e-43 1.522e-42 -0.01932992 -0.022704037 -0.10101114 -0.10641025 0.091887414 -0.16534682
-0.10336371 0.013110638 0.11475959 0.07460701 1.442e-42 0.08616872 2.9767925e-32 -0.12821904
0.0009904432 0.16964066 -0.118898526 -0.1311117 6.1181137e-26 0.042254694 -4.603e-42 1.8832084e-06
-8.57402e-15 1.7474322e-05 0.0046859067 -0.04244538 0.055027843 0.20918283 -2.5792298e-22 -0.06776058
-1.97e-42 -1.076e-42 -0.057020113 -0.021403356 -0.09472069 -0.06287694 0.1052926 -0.12637433
-0.08876652 0.026958091 0.08181123 0.06461386 -1.453e-42 0.0752252 4.0063913e-32 -0.11677701
0.05831362 0.14460152 -0.11457589 -0.1300097 1.1163979e-25 0.017061355 -2.081e-42 1.652795e-06
1.7553325e-12 4.56698e-05 0.09340523 0.03987996 -0.01455838 0.18831578 4.2375577e-24 0.016006054
1.235e-42 1.753e-42 0.035607576 -0.02773103 -0.08729821 -0.13960072 0.05146123 -0.17722851
-0.09783141 -0.009902673 0.13142776 0.06839963 -6.8e-43 0.079924785 -3.295214e-32 -0.113245115
-0.074765265 0.16370103 -0.09935459 -0.105247065 3.245508e-26 0.06689166 -8.48e-43 -2.1043961e-08

post_mp.0.bias f4 [32]
00000000: ac93 033e 2ee3 07be 05be 85bd 8fb1 783d
00000010: 53ce 7abd de1b 65bd 66e7 c3bd d711 bdbc
00000020: 2709 0c3d 5003 543b 52c5 b73d 521e ce3d
00000030: ad8d 093e 2b71 bb3d ec96 f63d c040 edbd
00000040: 9513 fabd ac20 67bd 296a 603c 9b5c 67bc
00000050: d484 063e dd10 ba3d 5fe2 ba3d ef3c 1ebe
00000060: 3eab 90bd caf2 d93d 2f20 01bd fc2d 58bd
00000070: b46e 823d 796c 04be d793 81bd a3ef c9bd
0.12849301 -0.13270256 -0.06530384 0.060716208 -0.061231922 -0.05593478 -0.0956562 -0.023079796
0.034188416 0.0032350607 0.08973183 0.10064377 0.13432951 0.091524445 0.12040505 -0.11584616
-0.12210766 -0.056427643 0.013697186 -0.0141212 0.13136607 0.09085248 0.09125208 -0.15452932
-0.07063912 0.106420115 -0.031524833 -0.05277823 0.06368771 -0.12932004 -0.06327026 -0.0986016

post_mp.2.weight f4 [3, 32]
00000000: b275 a5bd 3239 2c3d 60f1 ebbc ff4e de3d
00000010: 27eb 90be 6958 72be b5f8 0dbe 18d2 a2be
00000020: f6ba 7f3e 4a58 b9be 534c ad3d cacf 403e
00000030: 30be a5bd 3b28 9e3e 1141 9bbe e425 95be
00000040: d4c4 6ebe 9e9a f93e 5ad0 b93e ae70 143f
00000050: 14e6 ccbe de0d 03be ab3d 9ebe 39dc dcbd
00000060: b4ff 6f3e 9505 93be 34c8 c0be 29aa 17bd
00000070: 5c13 c7bd 62b1 d63e 994e a8bd ee92 f03d
00000080: b475 98be 5bfc a43e 9d17 5e3e 3bc2 a2be
00000090: 1610 c23e 799d c83e dd5d b93e b2c5 ac3e
000000a0: e928 d3be 55d5 7c3e 1d4d a6be 4f1e c3be
000000b0: c0cd 96be 4003 e6be e167 ebbd 6f84 013f
000000c0: 8948 023f 67b2 71be ba8c e4be d4e8 74be
000000d0: 5dcc 82bd acce 32be c51d e9bd 0a5a ee3e
000000e0: b2d9 923d f03b 09be c931 be3e b3f5 823e
000000f0: 9cc5 55be 6a6d 823d fd3c a43e c775 973e
00000100: 1618 c93e 1b82 afbe 47b6 40be b122 503e
00000110: d999 d1bd 7bfd 20be bc97 65be fea4 f8bc
00000120: 65df 343e 0ab9 ef3d 2cac 883e 6ecc 233e
00000130: c309 c63e 7192 073e 19a9 d33e 6a70 64be
00000140: 213c 91be 418c 81be 66e9 cb3d bd2f b2be
00000150: 0833 f03e 0284 993e 7cd3 d83e 65b9 b4be
00000160: 6eda 9cbe 6f68 da3e b395 9b3c 7eac 61be
00000170: 5577 9e3e 5c2f f7be 5afd 70be 6707 d2be
-0.08079089 0.042046733 -0.02880162 0.10854911 -0.28304407 -0.23666538 -0.13864405 -0.31800914
0.24973664 -0.36200172 0.08461823 0.18829265 -0.08092916 0.30890068 -0.3032308 -0.2913047
-0.23317271 0.48750776 0.36291772 0.57984436 -0.40019286 -0.12798259 -0.30906424 -0.10784192
0.23437387 -0.28715196 -0.37652743 -0.03702751 -0.097204894 0.41932207 -0.08218116 0.117467746
-0.297773 0.32223782 0.21688695 -0.3178881 0.37902898 0.39182642 0.36204425 0.3374458
-0.4124215 0.24690755 -0.32480708 -0.3810906 -0.2945385 -0.44924355 -0.11494423 0.505927
0.5089193 -0.23603211 -0.44638616 -0.23916942 -0.063866355 -0.17461652 -0.11382631 0.4655307
0.07170428 -0.1340177 0.37147358 0.2557808 -0.20876163 0.06368525 0.3207778 0.29582044
0.3927619 -0.3427895 -0.18819533 0.20325734 -0.10234422 -0.15721695 -0.22421163 -0.030352112
0.17663343 0.11705215 0.26693857 0.15995952 0.38679323 0.13239457 0.4133995 -0.22308508
-0.28366187 -0.25302318 0.099566266 -0.34802046 0.46913934 0.29983526 0.4234885 -0.35297695
-0.306354 0.42657802 0.01899228 -0.22038457 0.30950418 -0.4827832 -0.23534146 -0.41021273

post_mp.2.bias f4 [3]
00000000: ca5c 4f3d a877 39bd 7916 a73d
0.0506256 -0.04528013 0.08158583
