ckpt/best_GFN1_model.pt (torch, 295145 bytes, 36 tensors)

bn_feat.weight f4 [9]
00000000: 3e3c 663f 5a0f 6b3f eea7 653f 1bec 663f
00000010: 0959 573f 1b07 653f 900e 673f 1927 753f
00000020: f23c 6e3f
0.8993567 0.918203 0.89709365 0.9020402 0.8412023 0.8946397 0.90256596 0.95762783
0.93061745

bn_feat.bias f4 [9]
00000000: 2867 b23c 188f 10bc ee0d 023d 0fdc 0ebc
00000010: d2a1 e53b ccd6 003c dbd5 61bc 4629 2cbb
00000020: 3aa1 833c
0.021777704 -0.008823179 0.031751566 -0.008719458 0.007007816 0.007863712 -0.013783897 -0.0026269718
0.01606809

bn_feat.running_mean f4 [9]
00000000: 7ab9 d141 a516 663f e32d d440 c283 a142
00000010: 374e 033f 705f 8f42 a5ec f33b 9d7f c73d
00000020: 981d 5f3c
26.215565 0.898783 6.6306014 80.75734 0.5129122 71.6864 0.0074439817 0.09741137
0.013617896

bn_feat.running_var f4 [9]
00000000: ebc8 b044 c802 013d 4966 2a44 cbad e745
00000010: aa3f ba3d 0f9e de45 c27a 473b 7ace 863b
00000020: 65c9 2239
1414.2787 0.031496793 681.5982 7413.724 0.09094174 7123.7573 0.003043816 0.0041139694
0.00015524549

conv_feat.weight f4 [9, 128]
00000000: a3f2 0c3e 74e4 263b 3f48 be3d cc49 5d3b
00000010: 0090 263e e6fe 20be fa60 a23d f794 dfbd
00000020: 5894 0bbe ef99 15be b617 45bd bc37 0a3e
00000030: ed90 0a3e c2c6 26bc c7b7 2abe 653b 8bbd
00000040: 5eef b93d 8948 d2bd e483 22be 6c41 cabc
00000050: e398 013e 90b3 983d 0c45 403e 4e1d fdbd
00000060: bd6c 0c3e deba 243e 4595 b53d 80e8 4f3e
00000070: 6d10 4dbd 8bce 5a3d 8436 0dbe acb4 d23d
00000080: 6dfd 99bd 4404 12bd 009f 283e cb7d 82bd
00000090: 6354 d03d 4179 e53d 94fe a7bb 71a4 1a3d
000000a0: 50ec b83c d044 323e 9de4 ca3d 7dd5 7c3b
000000b0: 0a33 5d3d fd11 19be 91bb 0c3e 4005 c23d
000000c0: 1c68 2d3d ce6b 2cbe b846 d8bd 8091 36be
000000d0: 4c4a c33c 5b15 27be 0015 3cbe 69fc c0bd
000000e0: fc57 a5bd 6bc9 2bbd 3ecf 133e ebf4 8b3d
000000f0: 1023 41be 0d3b 153e eb53 a7bd bba1 933d
00000100: 2545 7ab9 2d5f 23be 07b5 913d ea01 63bd
00000110: fcb6 a1bd 6ed2 103c 51d8 eb3c db9e a9bd
00000120: 25fd 023e 3e3a 2cbe 65dc 12bd 4b9d 1fbe
00000130: daae 123e 7f2a 293d a792 6b3d fcfa 363e
00000140: 698a b23d 31ab 3a3e 2514 68bd 14af 193d
00000150: a8e1 11bc 3cd2 13be 2708 31be 4c2b 86bd
00000160: 8161 da3d d4c3 493e fa53 aebd 8e15 bb3d
00000170: b56b fdbc fbad 173e b2e4 adbd 58d0 36be
00000180: 7d4a 14bd a45d 3a3d e105 413e 31fe 3bbe
00000190: d1e0 193e 6e63 d53d 9fdb 32be a70c 9f3d
000001a0: 5600 ca3d 8ca3 08be 52e6 eb3d c076 653d
000001b0: 4844 09be 7bd7 b23d 5280 cd3d f402 f0bc
000001c0: 2f9a 95bc 6276 90bd 3c7d 97bd ccee 24be
000001d0: da00 723d 187e c9bd 5040 943d 237b fc3c
000001e0: 37a4 123e 1dfb 823d da97 2ebe 9a73 a73d
000001f0: dffa e73d f4dd a1bd 0e82 28bd a440 c0bd
00000200: b553 dbbd 6ef1 47be fdc5 d23d f599 193d
00000210: 5031 973d bbf8 f63b 557d a13c 7c4c 9abd
00000220: 620f 4cbd 335e 0e3e 4a92 1b3e d2dc dbbd
00000230: 7bcb c73c 43ad 34be a811 29be 51a2 babc
00000240: bb5f b8bc 7f8f 423c 333c a33d 4f79 9dbd
00000250: 9571 173e 91c4 09bd 0f45 37bd 1f1a b0bd
00000260: 137f a6bb 7d56 183e 7594 9fbd 3c69 9ebc
00000270: a4e0 0cbe a7a1 c83c 4e9c 053e 4134 6bbd
00000280: c255 0cbe e9df 9b3c c7a6 39be 8098 083e
00000290: 2b3c 8abc e34e c8bd ad06 b73d 051e 093e
000002a0: 11a6 f5bc 1927 2c3d ca0a cdbd 47b5 2dbe
000002b0: 2455 17be 1c58 fa3d 3d99 bfbb 3a89 593e
000002c0: 33d0 043c 354d 28bd 753d 16be 19ac a03d
000002d0: dbba d93d 8025 f5bd 7188 ff3d 195c 79ba
000002e0: a6d2 e93c 9d0d fb3d 9051 843c 7436 2d3e
000002f0: 042f 213e 2a6f fabd 6016 653b 3dd0 453e
00000300: 9da2 373e cf7c fe3d 491b 7abd 26dc bd3d
00000310: 7501 2cbe c52b 91bc 8f95 44be 230a 07be
00000320: c2f7 abbd 68c9 2d3d 3c91 9bbd fa04 28bd
00000330: 72ae 1e3d 1eb2 273c c731 103e 8636 c03d
00000340: e810 083e 9f64 083e 9675 183e 7885 27bb
00000350: 2cc8 183e 87d0 373e 6f52 df3d 74b4 a2bd
00000360: ec81 e93d 47ba a2bd 1683 053e f6fa 86bc
00000370: 6e02 ed3d 0e42 efbd 00af 7ebd 5883 f83c
00000380: 8002 233e 90b7 643d c373 87bc 2536 debd
00000390: 81e2 11bd 4492 a33d fa47 093b 6685 313e
000003a0: 267f 8ebd c6a5 ec3d 3050 bf3d 77a1 a5bc
000003b0: a02c 013e c219 133d 171a 8d3d 86aa ba3d
000003c0: 30e9 71bd dff4 163e 9135 053e 1ef5 c53c
000003d0: d610 12be 629e 11be 1e13 0abe 875f 1fbe
000003e0: 4944 df3d 0726 bd3d 2144 ec3d 0170 b2bd
000003f0: fb01 0a3e d100 0a3e 836c e2bc d684 f8bd
0.13764434 0.0025465759 0.092911236 0.003376591 0.16265869 -0.15722236 0.07928653 -0.10917085
-0.13630807 -0.14609502 -0.048118316 0.13497823 0.13531847 -0.0101792235 -0.16671668 -0.06798438
0.09078859 -0.10267741 -0.15870625 -0.024689399 0.12655978 0.07456124 0.1877634 -0.12359105
0.13713355 0.16086909 0.088663615 0.20303535 -0.050064493 0.05341963 -0.13790327 0.10288367
-0.0751904 -0.0356486 0.16466904 -0.06371649 0.101723455 0.11204768 -0.0051267836 0.03775448
0.02257362 0.17409062 0.09906886 0.0038579397 0.054003753 -0.14948268 0.13743426 0.094736576
0.042335615 -0.16837999 -0.105603635 -0.17828941 0.023839138 -0.1631674 -0.18367386 -0.094231434
-0.08073422 -0.041940134 0.14434525 0.06833824 -0.18861032 0.14573307 -0.08170303 0.07208582
-0.00023867616 -0.15954275 0.07114606 -0.055421747 -0.078962296 0.008839233 0.028789671 -0.082822524
0.1279188 -0.16819093 -0.035854716 -0.15587346 0.14324513 0.041300293 0.057512905 0.1786918
0.08717806 0.18229367 -0.056659836 0.037520483 -0.008903898 -0.14435667 -0.17288266 -0.06551227
0.10663129 0.19703609 -0.08512111 0.091349706 -0.030935148 0.14812462 -0.08490886 -0.17852914
-0.03620385 0.04549946 0.18849899 -0.18358685 0.15027167 0.10419355 -0.17466591 0.07766085
0.09863345 -0.13343638 0.115185395 0.056021452 -0.13404953 0.08732506 0.10034241 -0.029298283
-0.018261997 -0.0705383 -0.073969334 -0.16106719 0.059082843 -0.098385036 0.07238829 0.030820435
0.14320455 0.06395552 -0.17050114 0.08176346 0.11327147 -0.07903662 -0.041139655 -0.09387329
-0.10709325 -0.19525692 0.102916695 0.03750034 0.073824525 0.007536975 0.019713083 -0.075341195
-0.049819358 0.13903122 0.15192524 -0.107354775 0.02438902 -0.17644219 -0.16510642 -0.022782477
-0.022506585 0.011875032 0.079704665 -0.076891534 0.14789422 -0.033634726 -0.044743594 -0.08598732
-0.0050810664 0.14876743 -0.07791988 -0.019337289 -0.13757569 0.024491144 0.13047907 -0.05742288
-0.13704589 0.019027667 -0.18130027 0.13339424 -0.016874393 -0.097806714 0.0893682 0.13390358
-0.029986413 0.042029474 -0.100118235 -0.16963683 -0.14778572 0.12223837 -0.005847125 0.21243754
0.008106279 -0.041089255 -0.14671881 0.07845325 0.10631343 -0.11970043 0.12477196 -0.000951232
0.028542828 0.12258456 0.016152173 0.16915303 0.15740591 -0.12228234 0.0034955963 0.19317718
0.17933126 0.12426149 -0.061061177 0.092705056 -0.16797431 -0.017721066 -0.19197677 -0.1318746
-0.083968654 0.042428404 -0.07596061 -0.04102037 0.038740583 0.010235338 0.14081489 0.093853995
0.13287699 0.13319634 0.14888605 -0.0025561731 0.1492011 0.1795064 0.10904395 -0.07944575
0.11401734 -0.07945686 0.13038287 -0.01647709 0.11572729 -0.11682521 -0.06217861 0.030336067
0.15918922 0.05583912 -0.016534692 -0.10850171 -0.0356164 0.07986882 0.0020947442 0.17336044
-0.069578454 0.11555056 0.093414664 -0.020218594 0.1261468 0.035913236 0.06889742 0.09114556
-0.059060276 0.14741848 0.13008715 0.024164733 -0.14264235 -0.14220574 -0.13483855 -0.15563785
0.10901696 0.09235769 0.11536432 -0.08712769 0.13477318 0.13476874 -0.027639633 -0.121347114

conv_feat.bias f4 [128]
00000000: 0000 0000 0000 0000 0000 0000 0000 0000
00000010: 0000 0000 0000 0000 0000 0000 0000 0000
00000020: 0000 0000 0000 0000 0000 0000 0000 0000
00000030: 0000 0000 0000 0000 0000 0000 0000 0000
00000040: 0000 0000 0000 0000 0000 0000 0000 0000
00000050: 0000 0000 0000 0000 0000 0000 0000 0000
00000060: 0000 0000 0000 0000 0000 0000 0000 0000
00000070: 0000 0000 0000 0000 0000 0000 0000 0000
00000080: 0000 0000 0000 0000 0000 0000 0000 0000
00000090: 0000 0000 0000 0000 0000 0000 0000 0000
000000a0: 0000 0000 0000 0000 0000 0000 0000 0000
000000b0: 0000 0000 0000 0000 0000 0000 0000 0000
000000c0: 0000 0000 0000 0000 0000 0000 0000 0000
000000d0: 0000 0000 0000 0000 0000 0000 0000 0000
000000e0: 0000 0000 0000 0000 0000 0000 0000 0000
000000f0: 0000 0000 0000 0000 0000 0000 0000 0000
00000100: 0000 0000 0000 0000 0000 0000 0000 0000
00000110: 0000 0000 0000 0000 0000 0000 0000 0000
00000120: 0000 0000 0000 0000 0000 0000 0000 0000
00000130: 0000 0000 0000 0000 0000 0000 0000 0000
00000140: 0000 0000 0000 0000 0000 0000 0000 0000
00000150: 0000 0000 0000 0000 0000 0000 0000 0000
00000160: 0000 0000 0000 0000 0000 0000 0000 0000
00000170: 0000 0000 0000 0000 0000 0000 0000 0000
00000180: 0000 0000 0000 0000 0000 0000 0000 0000
00000190: 0000 0000 0000 0000 0000 0000 0000 0000
000001a0: 0000 0000 0000 0000 0000 0000 0000 0000
000001b0: 0000 0000 0000 0000 0000 0000 0000 0000
000001c0: 0000 0000 0000 0000 0000 0000 0000 0000
000001d0: 0000 0000 0000 0000 0000 0000 0000 0000
000001e0: 0000 0000 0000 0000 0000 0000 0000 0000
000001f0: 0000 0000 0000 0000 0000 0000 0000 0000
0.0 0.0 0.0 0.0 0.0 0.0 0.0 0.0
0.0 0.0 0.0 0.0 0.0 0.0 0.0 0.0
0.0 0.0 0.0 0.0 0.0 0.0 0.0 0.0
0.0 0.0 0.0 0.0 0.0 0.0 0.0 0.0
0.0 0.0 0.0 0.0 0.0 0.0 0.0 0.0
0.0 0.0 0.0 0.0 0.0 0.0 0.0 0.0
0.0 0.0 0.0 0.0 0.0 0.0 0.0 0.0
0.0 0.0 0.0 0.0 0.0 0.0 0.0 0.0
0.0 0.0 0.0 0.0 0.0 0.0 0.0 0.0
0.0 0.0 0.0 0.0 0.0 0.0 0.0 0.0
0.0 0.0 0.0 0.0 0.0 0.0 0.0 0.0
0.0 0.0 0.0 0.0 0.0 0.0 0.0 0.0
0.0 0.0 0.0 0.0 0.0 0.0 0.0 0.0
0.0 0.0 0.0 0.0 0.0 0.0 0.0 0.0
0.0 0.0 0.0 0.0 0.0 0.0 0.0 0.0
0.0 0.0 0.0 0.0 0.0 0.0 0.0 0.0

bns_conv.0.weight f4 [128]
00000000: e1d8 693f bb6d 6b3f 1733 6a3f ab9b 683f
00000010: 3765 693f 48eb 693f ce5e 693f 7d08 683f
00000020: b8e9 693f 3b16 683f 542b 6a3f b622 683f
00000030: cc33 693f 350f 6a3f 2bae 683f 7bf3 683f
00000040: 3381 683f d93c 663f b546 673f b4a4 6a3f
00000050: f885 693f ac73 693f 0627 693f cd59 673f
00000060: d432 693f a483 693f d84d 693f 7f86 693f
00000070: c37f 683f 51c7 6a3f 42b6 683f 484a 683f
00000080: c93b 6a3f 55e2 693f b771 6b3f 9184 6b3f
00000090: b025 683f 396d 6a3f 9956 693f 5582 693f
000000a0: 4e00 693f bc80 693f 458a 6a3f 2310 6b3f
000000b0: 1402 6a3f 36ed 693f d477 6b3f 7e0b 6b3f
000000c0: e5d8 683f ca24 683f d32f 6b3f 5d56 6a3f
000000d0: 6521 6b3f d29d 693f c9a7 693f f383 6e3f
000000e0: 1ffd 683f 516e 683f 7a2e 693f a832 693f
000000f0: ba94 6b3f 2bde 6a3f 6d6e 6a3f 0a08 6a3f
00000100: f187 693f 100d 6a3f e314 6a3f 15df 683f
00000110: a338 693f 39f4 693f d342 693f c0d3 693f
00000120: 32cc 683f 6a48 6b3f 3637 683f 257f 6b3f
00000130: d04b 693f 54f8 683f 1a49 6a3f 6f86 693f
00000140: 71ef 683f 4987 693f 8b98 6a3f 3ddc 683f
00000150: 6159 683f 3b49 693f 4c3e 683f 36fb 673f
00000160: 35e1 683f 2c28 6a3f ff70 6a3f d438 693f
00000170: e3bb 683f 29f1 683f abae 6a3f d61c 693f
00000180: e4dc 663f bc5f 6a3f 8c70 6a3f d106 6a3f
00000190: 0667 693f 33a9 683f 0c47 6c3f 5ae8 683f
000001a0: 76b3 693f 63c5 673f 2c60 6a3f 3629 6a3f
000001b0: 5870 693f b4b7 693f 9ed2 6a3f 3e91 673f
000001c0: 6678 6a3f ae33 693f 760b 6a3f aa6e 693f
000001d0: 1f9d 683f 2117 693f 7871 693f ecd8 693f
000001e0: 12ec 6a3f 6587 693f a836 663f 298e 683f
000001f0: bf11 693f 9a77 6b3f a6ab 693f 37f6 683f
0.91346556 0.9196431 0.91484207 0.9086253 0.91170067 0.91374636 0.91160285 0.9063795
0.9137225 0.9065892 0.91472363 0.90677965 0.9109466 0.91429454 0.9089076 0.9099652
0.9082214 0.89936596 0.90342265 0.9165757 0.91220045 0.91192126 0.9107517 0.903714
0.9109318 0.9121649 0.91134405 0.9122085 0.9081995 0.9171038 0.90903103 0.90738344
0.91497475 0.9136098 0.9197039 0.91999155 0.90682507 0.9157291 0.9114776 0.91214496
0.9101609 0.9121206 0.9161723 0.918215 0.9140942 0.9137758 0.9197972 0.9181441
0.90955955 0.90681136 0.9186985 0.9153803 0.9184783 0.9125644 0.91271645 0.9317009
0.9101123 0.9079333 0.9108654 0.9109292 0.92023814 0.9174525 0.91574746 0.91418517
0.91223055 0.9142618 0.9143812 0.90965396 0.91102046 0.9138828 0.9111759 0.9133873
0.9093658 0.9190737 0.90709245 0.9199088 0.91131306 0.9100392 0.91517794 0.91220754
0.9099036 0.91222054 0.9163901 0.90961057 0.9076138 0.91127366 0.9072006 0.9061769
0.9096864 0.9146755 0.9157867 0.9110234 0.9091169 0.9099298 0.9167277 0.91059625
0.901808 0.9155233 0.9157798 0.9141665 0.91172826 0.9088318 0.9229591 0.9097954
0.9128946 0.90535563 0.91552997 0.9146913 0.9118705 0.91295934 0.91727626 0.90455997
0.91589963 0.9109448 0.9142374 0.91184485 0.9086475 0.91050917 0.91188765 0.9134662
0.91766465 0.9122222 0.8992715 0.9084192 0.91042703 0.9197937 0.9127754 0.91000694

bns_conv.0.bias f4 [128]
00000000: ccaa c1ba aa76 14bb 5f79 4cbb f598 9cbb
00000010: f85d a13c f2c3 133c 4685 8d38 a980 ef3b
00000020: e729 7c3b f1ad a73b 3ead 8f3b a528 d73a
00000030: b3cb 143c b66a a5bb c509 2c3b 3560 e5bb
00000040: 70f2 a1ba 25dd bdba 7642 e83b 3e8d 0cbc
00000050: c663 8cbb 5e5c a93b c978 693b ce8e 87bb
00000060: f2ce 9a3b f464 07bb f6a2 073a 50da b0ba
00000070: 62ba 6e3b ff4a 14bc 3789 caba 1785 5e3b
00000080: d029 363b d449 a8b8 fbc3 333c cf71 cebb
00000090: 5dd2 863b d60e aabb 86a7 7739 135a 85ba
000000a0: 6f65 ee39 3c3f 653b 9d5a 6abb 6362 203b
000000b0: b98c dcba 9a08 ab3b 6f42 9238 05d4 86bb
000000c0: 1f04 3fb9 6f5e dd39 bcb3 e03a 13ff 52bb
000000d0: 7879 aebb 8ecc dc3b 7151 d03a 0165 cf3b
000000e0: 40e1 25bb a3cb 803a 5dfb 85bb 7c9f 2e3c
000000f0: f5b1 12bc 8a20 ea3a 906a 69bb b261 4a3b
00000100: 9f2d 86bb 7b25 2a3b b92e dd3b f71e 443c
00000110: 06b1 fdbb 1fa6 b73a 83ec f0b9 5be0 bfbb
00000120: feea c1bb 4eab 2ebb 64b7 b0bb f930 84bb
00000130: a6c0 fd3b 2e0b 3c3c 3987 8cba ed7e 5a3c
00000140: 8e53 573b 2e50 6dbc 5ae8 0c3b 0721 4dbc
00000150: cf59 dbba 2c1c 8db8 0c55 38ba 591d 6e3a
00000160: 35e5 90bb 34fa 0938 7d62 333c 2b6e d33b
00000170: 2e0d 9c3b 03a6 55bb f32d 583a ee75 27bc
00000180: fc2f d43b df03 6abb f19f c33a 1b55 9a39
00000190: a62d e8bb 11a9 663c 5bd9 bebb 366f c13b
000001a0: f072 a93b a41c 21ba 4e21 213b d897 b4b9
000001b0: 8960 ed3b 8e6f 62bb e5fb 15bc ef2e 54bc
000001c0: 708e cc3b e17b 08ba 1c95 c53b f184 df3b
000001d0: f818 4dbb 6387 b33b 3449 173c c999 b8bb
000001e0: fe51 21bb 4a30 fabb f2d1 72bb 6e55 ebba
000001f0: 64ef 023c 4923 b9bb 9cf1 9dba 569f 99bb
-0.0014775633 -0.0022653737 -0.0031200272 -0.004778976 0.019698128 0.009018885 6.748228e-05 0.0073090387
0.0038477124 0.005117171 0.0043846657 0.0016415311 0.009081769 -0.0050481213 0.002625094 -0.006999994
-0.0012355577 -0.0014485462 0.007088001 -0.008578597 -0.004284355 0.0051684817 0.0035624972 -0.0041368967
0.004724377 -0.0020659538 0.00051741244 -0.0013492797 0.003642701 -0.009051084 -0.001545227 0.003395384
0.0027795918 -8.024616e-05 0.010972018 -0.006300188 0.0041144327 -0.005189757 0.00023618163 -0.0010173939
0.0004547047 0.0034980318 -0.0035759576 0.0024472706 -0.0016826607 0.0052195312 6.974197e-05 -0.00411463
-0.00018216715 0.00042222763 0.0017143409 -0.0032195493 -0.005324539 0.006738252 0.0015893412 0.0063291793
-0.0025311261 0.0009826313 -0.0040888027 0.010658141 -0.008953561 0.0017862481 -0.0035616495 0.0030880985
-0.004094794 0.0025962282 0.0067499545 0.011970273 -0.00774205 0.00140113 -0.00045952582 -0.0058556027
-0.005917906 -0.0026652399 -0.0053929556 -0.0040341583 0.0077439127 0.011477275 -0.0010721452 0.0133359255
0.00328562 -0.014484448 0.0021500797 -0.012520081 -0.0016735139 -6.728651e-05 -0.0007031716 0.00090833526
-0.004421855 3.2896365e-05 0.010948774 0.006452342 0.0047623133 -0.0032600171 0.0008246593 -0.010220988
0.0064754467 -0.0035707874 0.0014924986 0.00029436577 -0.00708552 0.0140783945 -0.0058242506 0.00590315
0.0051711723 -0.00061459304 0.0024586502 -0.00034445408 0.007244174 -0.0034551355 -0.009154295 -0.012950643
0.006242566 -0.00052064477 0.006029738 0.006821268 -0.00312954 0.005478786 0.009233762 -0.005633567
-0.0024615522 -0.007635151 -0.0037051407 -0.0017954537 0.0079916455 -0.0056499583 -0.0012050155 -0.004688184

bns_conv.0.running_mean f4 [128]
00000000: 00cd 773d 33ac c13d 36d4 b53d 2537 f83d
00000010: 61b6 2d3d bca9 463d 31e9 823d e4db 893d
00000020: eb92 773d 2220 fb3d de07 153e 543c c83d
00000030: ab69 b33d a0ba 083e 16e3 443e 766f 7b3d
00000040: 54ab a13d 7b2a b33d 2a91 8a3d a0e2 b73d
00000050: 2302 f43d 4091 013e 390a f83d f618 bc3d
00000060: 53a9 f13d bebf dc3d b1a1 113e f2c3 b33d
00000070: b875 013e 5c3c e83d cc13 8e3d 3b8a 9a3d
00000080: 6deb e53d d410 f73d 8bbd 083e f988 b43d
00000090: b65c 273e 8ca2 803d 5597 ea3d f706 aa3d
000000a0: 3190 893d f7ae 153e b5f9 b03d dd35 8f3d
000000b0: 9bf2 cd3d 34ad af3d 891b a73d c07d c53d
000000c0: f1a7 8d3d 8e23 313e ac28 063e 5b5c 853d
000000d0: ab7f 503d 0f37 c43d c59c 4e3e 9f00 793d
000000e0: b1d7 ca3d 7e89 9b3d 3eb7 a63d 7d93 a33d
000000f0: f2ef 813d 1739 b23d a4e0 c23d 55a8 413e
00000100: ff01 ed3d 2a33 cf3d 4268 8c3d c00e 8f3d
00000110: 3460 353e b7a4 cb3d 42de f03d 0e80 fd3d
00000120: 93e1 c93d 47a1 a93d 5ccf b23d b824 633e
00000130: b4af 2b3e 3305 583d 7178 953d 55b9 183e
00000140: 5687 f83d b208 d83d 7866 a93d fc1a ba3d
00000150: f054 d43d 11ca 973d 1cd3 af3d 1e82 8f3d
00000160: 0f1a 023e fc89 933d a1d0 673d 1d6b ae3d
00000170: b9cb c03d 3e1c 1a3e 4a3e 993d 0d60 d63d
00000180: 0b56 d93d 06ce be3d 2e66 c03d 6b1d 253e
00000190: 948d 353e 5262 d43d 6cf8 dd3d b2ab c43d
000001a0: 1378 643d db76 c93d c3c2 ad3d 430f 183d
000001b0: 6ed4 0b3e 209d e03d e91e cd3d aede bc3d
000001c0: f463 9c3d feeb 813d f059 fc3d 776e 173d
000001d0: a145 103e 0ac3 dc3d 51ff ca3d 6474 a43d
000001e0: 5e83 b63d c6e7 8f3d 2aa6 e13d 04a5 d03d
000001f0: 82cb ec3d 9198 ad3d 060b b13d caf3 cb3d
0.060498238 0.094566725 0.08878367 0.12119893 0.04241026 0.048501715 0.06392134 0.06731394
0.060442846 0.12261988 0.14553782 0.09777132 0.08760389 0.13352442 0.19227251 0.061385594
0.07894006 0.08748337 0.06765969 0.08978772 0.1191447 0.12653065 0.12111325 0.091844484
0.11799874 0.107787594 0.14221837 0.08777608 0.12642562 0.11339638 0.0693737 0.075458966
0.112265445 0.120637566 0.13353555 0.08815188 0.1634396 0.06281003 0.114546455 0.0830211
0.067169555 0.14617525 0.08641378 0.069926955 0.10056039 0.08577958 0.08159549 0.096431255
0.06916798 0.1729872 0.13101453 0.06511756 0.050903004 0.09580814 0.2017699 0.060791608
0.09904421 0.07594584 0.081404194 0.079871155 0.06344594 0.08702295 0.09515503 0.1891187
0.11572646 0.10117181 0.06855823 0.06985235 0.1771248 0.09943526 0.11761142 0.1237794
0.09857478 0.08282714 0.08730957 0.22181976 0.16766244 0.052739333 0.07298363 0.14914449
0.12135188 0.105485335 0.082714975 0.09087178 0.10367763 0.07411588 0.08585188 0.0700724
0.12705253 0.07204053 0.05659545 0.08516524 0.09413857 0.15049836 0.07482584 0.10467539
0.106121145 0.093166396 0.09394489 0.16124503 0.17729789 0.103703156 0.10838398 0.09603061
0.055778574 0.09837123 0.084844135 0.03712393 0.13655254 0.10967469 0.10015661 0.0922216
0.07636252 0.0634384 0.12321842 0.03697058 0.14089061 0.10779388 0.09911979 0.08030012
0.08911775 0.07026629 0.110180214 0.10187724 0.115622535 0.08476365 0.08644681 0.099586084

bns_conv.0.running_var f4 [128]
00000000: 341d 093d 4c50 e53c 97fd bd3c 499a 023d
00000010: 66ef 843c e654 6b3c 0930 453d 61a4 293d
00000020: fc7c 263c fed9 da3c c5f9 923d 236c 073d
00000030: d789 a13c 08be df3d 0e4b 2e3e b9b6 823d
00000040: a5f6 143d ff04 9a3c 86d5 443c 7d91 253c
00000050: 72a6 0b3d 029d 793d 3860 0d3d 7204 c33c
00000060: 3ccd 033d 8e5f fe3c 298f 853d 0991 a53c
00000070: 2aa9 a03d 6489 5c3d 959c 8e3c 2123 df3c
00000080: 4351 1b3d 184b a83c 0f0f 5c3d 7d85 343c
00000090: abb8 903d 5930 1b3c 89fd 2b3d 0da5 113c
000000a0: d96d 283c deef 823d f321 eb3c 47f2 563c
000000b0: dbf3 fb3c c433 9c3c 65c6 773c 85a8 f73b
000000c0: b8bd cd3b ade7 503d 492d b53d 04ac d73b
000000d0: d9e5 bc3b 8909 e43c 39d9 a23d 427f b63b
000000e0: 946c 823c 8627 083c a0d2 3c3d f5b5 9f3c
000000f0: 8ccf 7c3b f49e c73c 6d51 e43c a3a4 d63d
00000100: 4b9c 123d ab62 803c 1d19 353c e7ec b83c
00000110: 0114 383d 8c9a ba3c e4f0 d33d c070 0c3e
00000120: da65 0f3d 245d d13c eb11 b33c 394c 0c3e
00000130: 3a26 873d 3490 7b3c aed9 403c 5232 b23d
00000140: aa00 bb3c 73e1 cc3c d68a ed3b 5eea 833c
00000150: 5fd9 cf3c b105 1c3c f363 833c f213 5d3c
00000160: 328f 3a3d fa41 4b3c 4fcc af3b c425 d33c
00000170: 84ab b93c 2547 863d b55c 3a3d 4e02 753c
00000180: a27e 8f3c 2c33 573c cead b73c c68c 313d
00000190: e4fc e83d 60ae 003d ca93 203d 76a0 a73c
000001a0: becc 2a3c 8512 ea3c e317 653c 2388 c23b
000001b0: 28da 233d e850 923d 8547 df3c b085 453c
000001c0: b47c 133d 56ef 7a3c aaf0 103d 107f 2a3c
000001d0: 40f7 623d 1eeb d93c c04a 0d3d a19e 8e3c
000001e0: 493f a53c 4049 5a3c 3155 9d3c e6c1 d63c
000001f0: ce5d d73c 8fa6 fe3c 9079 733d 7d42 103d
0.033475116 0.02799239 0.02319221 0.03188542 0.016227435 0.014363503 0.048141513 0.04141653
0.010161635 0.026715275 0.07176546 0.03306211 0.019719047 0.109249175 0.17020819 0.06382508
0.03636803 0.01880121 0.012013799 0.010105488 0.03409428 0.06094075 0.03451559 0.02380583
0.03217815 0.031051423 0.06521446 0.02021076 0.078447655 0.053841963 0.017408649 0.02723843
0.037919294 0.02054362 0.0537253 0.011018154 0.070664726 0.009471976 0.041989837 0.008889449
0.010280096 0.06393407 0.028702712 0.013119287 0.030755928 0.019067653 0.015122985 0.007557931
0.0062787198 0.051002193 0.08846528 0.006581785 0.0057647047 0.027836578 0.07951588 0.0055693695
0.015920915 0.008310204 0.046099305 0.019495944 0.0038575856 0.024367787 0.027870858 0.10480621
0.035793584 0.015672049 0.011053351 0.022573901 0.044940952 0.022778772 0.103486806 0.13714886
0.035009243 0.025557108 0.02185913 0.13700952 0.06599088 0.015354205 0.011770649 0.08701004
0.022827465 0.025009846 0.0072492165 0.016102966 0.025372205 0.009522841 0.01603887 0.013493525
0.045546718 0.012405867 0.0053649317 0.025774844 0.022664793 0.065565385 0.04549857 0.014954163
0.017516438 0.013134759 0.022421744 0.043347143 0.1137636 0.031416297 0.039203443 0.020462256
0.010424791 0.028573284 0.013982746 0.005936639 0.040002972 0.07144338 0.027255783 0.012055799
0.036007598 0.015315851 0.035385765 0.010406271 0.055411577 0.02660137 0.034495115 0.017409625
0.020171778 0.013323128 0.019205661 0.026215505 0.026289847 0.03108528 0.059442103 0.03521966

bns_conv.1.weight f4 [128]
00000000: b61c 6b3f 360a 693f 060f 6c3f b8ed 683f
00000010: 35ad 6a3f cbdd 673f 3048 693f 3115 683f
00000020: 4ed9 693f dbed 693f ade1 6a3f 8a5b 693f
00000030: 174f 6a3f a869 6c3f 54d5 6a3f 99fa 693f
00000040: f868 6a3f b86e 6b3f a261 6a3f 7690 693f
00000050: 9064 6a3f b5a2 6b3f 45c6 693f d1d2 683f
00000060: b19f 693f 4e28 6a3f 06de 683f 3f64 6b3f
00000070: 1dd2 693f bcb3 6a3f 18b6 683f e720 6b3f
00000080: 5880 6c3f cb21 6c3f 06b2 693f ae83 683f
00000090: 8a09 693f a54c 693f 5b6f 6a3f 3f50 693f
000000a0: 2fb3 6a3f 6847 6a3f 99c4 693f cebe 6c3f
000000b0: 0235 6b3f 06ba 693f 0c4a 6a3f 1d45 693f
000000c0: 6a0a 6a3f ce0e 693f 5d9f 6a3f f9ae 683f
000000d0: 73f2 693f dcb7 673f ba39 6b3f 57a5 693f
000000e0: 4d8c 693f f0d7 6b3f f62b 6a3f 9306 693f
000000f0: 5f12 6b3f 363e 683f be48 6a3f be44 6a3f
00000100: a5a0 693f 2713 683f f4cb 683f 0a70 6a3f
00000110: 66a3 6a3f 25da 6a3f f126 6a3f 49c7 683f
00000120: 1dfc 693f 49e4 683f 7e11 6a3f d47a 6a3f
00000130: c5d2 693f c817 693f 4ce9 693f ab0d 6b3f
00000140: b5ef 6a3f 32f9 6a3f f0c7 6a3f f153 6a3f
00000150: 97b7 6a3f 73f9 683f aede 693f 9abb 6a3f
00000160: cbcb 693f 3dae 683f a201 6a3f d383 693f
00000170: b20f 693f 896a 6a3f 041c 6b3f 44c3 6b3f
00000180: d984 6a3f 70b3 6a3f 0e8e 683f d579 693f
00000190: cf26 683f aae1 683f 9c68 693f 6e3a 6b3f
000001a0: a200 693f 9b56 6a3f eb1b 693f 8fc0 693f
000001b0: 95cb 693f 44d5 683f e9f5 683f 8095 6a3f
000001c0: 13e8 693f eef8 6a3f 97a9 6a3f 3170 6b3f
000001d0: 70aa 683f c87b 693f 8ebe 683f 6f73 683f
000001e0: 7c82 683f a496 6a3f cdb3 683f 1eca 683f
000001f0: 047b 6b3f 2a8a 693f 8398 693f c18f 693f
0.91840684 0.91031206 0.92210424 0.9098773 0.9167054 0.90572804 0.91125774 0.90657336
0.91347206 0.91378564 0.91750604 0.911553 0.9152693 0.9234872 0.9173176 0.91398007
0.9156642 0.9196582 0.91555226 0.91236055 0.91559696 0.92045146 0.9131816 0.9094668
0.91259295 0.9146775 0.9096378 0.9194984 0.9133623 0.916805 0.90902853 0.9184708
0.9238334 0.92239064 0.9128727 0.9082593 0.9103018 0.91132575 0.91576165 0.9113807
0.9167966 0.9151521 0.9131561 0.92478645 0.9187776 0.91299474 0.91519237 0.91121083
0.9142214 0.91038215 0.9164942 0.9089199 0.91385573 0.9051492 0.9188496 0.91267914
0.91229707 0.9212637 0.9147333 0.91025656 0.9182491 0.90719926 0.91517246 0.9151114
0.9126075 0.90654224 0.9093621 0.9157721 0.91655576 0.9173911 0.9146567 0.90929085
0.9140032 0.90973336 0.9143294 0.9159367 0.91337234 0.9105191 0.9137161 0.9181773
0.91772014 0.9178649 0.9171133 0.91534334 0.91686386 0.9100563 0.9135541 0.9169251
0.9132659 0.90890867 0.9140874 0.9121677 0.91039574 0.9156881 0.91839623 0.92094827
0.9160896 0.9168005 0.9084176 0.91201526 0.9068422 0.90969336 0.91175246 0.9188603
0.9101659 0.915384 0.91058224 0.91309446 0.91326267 0.9095042 0.9100023 0.9163437
0.9136974 0.91786087 0.91665024 0.91968066 0.90885067 0.912045 0.90915763 0.9080114
0.90824103 0.9163611 0.90899354 0.90933406 0.9198458 0.91226447 0.9124834 0.91234976

bns_conv.1.bias f4 [128]
00000000: a9db 67ba 9c0c d13a 6445 de3a cf6e 9838
00000010: d90e 67bb d7d1 06bb eb86 d737 a1c9 a23b
00000020: 3b87 623b 2f39 673b 53f9 26b9 58be 5bbb
00000030: 6e7c 26bb 2c7b 5f3a 8878 653b 1425 a2bb
00000040: 8bf7 663b 65b5 39ba 2f88 2f3b 7b6e 73bb
00000050: dd4d 233b 49cc a6bb 7c9c 953b e730 ad39
00000060: 3068 753b 6fd6 7e3a 63de 57bb 42b6 b33b
00000070: f12c c43b 8d4e e33b 8a37 45bb a0d8 4c3b
00000080: d41c e8ba 7ac1 f839 0d5b b83a 8220 72ba
00000090: 19a6 47bb 912b 51bb d42a 293a 7d4b 663a
000000a0: 905c f5ba 5b7c 303b 0254 b039 be3e a53b
000000b0: 1bd0 533b 63ce 67bb 8a43 c93b fca6 dbba
000000c0: cbeb 1fbb 08c7 633a b4a8 53ba 5a32 33bb
000000d0: 746e e9bb ef21 d4bb 4c31 4c3b 4e5d e6bb
000000e0: 4d52 003b 1ada caba 648f 353b ac6e b139
000000f0: e725 96ba 58ab c7bb 2503 89bb 28e3 3fbb
00000100: b438 b83b 8dc3 013c b781 0d3a 3bcd 50ba
00000110: fe5e 83b9 dfdb 1e39 67f3 273b 7ffe 573b
00000120: a237 0ebc 7c9f 8b3b 3795 a4ba e1c7 343b
00000130: 3898 20bb e8ba b439 de7d 2b3b 6053 a238
00000140: 4a8a 363a 070a deb9 f772 c23a 42c9 bcbb
00000150: 93f4 acba d7be d73a cb32 fb39 4d65 553b
00000160: 3707 5abb e78f 913a 344a 5bbb ab20 40bb
00000170: b9ca b939 52a7 95bb eff1 f8ba fdbf 1fbb
00000180: 709c 16bb a9c7 3bbb 3ec8 393a 451a 53ba
00000190: 18b1 1fbb 0a69 173a 00e7 c238 27d3 8b3b
000001a0: ce2d db3a 762b dcba 8a92 653b 9f24 3cbb
000001b0: f716 d13b c2c4 063b d752 a7ba 2c39 0dbc
000001c0: f425 1ebb d791 02bb 9cf8 6a3b 19e0 0b3b
000001d0: e343 973b 48ee 323b af9b 413b 2d02 97bb
000001e0: 6df8 bb39 4f92 003a ce20 fc3a 7ab8 b6ba
000001f0: 65b8 bbbb 20f2 adba f296 9139 27d9 15bb
-0.00088446826 0.0015949192 0.0016957936 7.2685645e-05 -0.0035256653 -0.0020571852 2.5692823e-05 0.0049678837
0.0034565467 0.0035281887 -0.00015923874 -0.0033530202 -0.0025403756 0.0008525129 0.003501447 -0.0049482677
0.0035242762 -0.000708422 0.0026784053 -0.003714471 0.0024918236 -0.0050902707 0.0045657735 0.00033033566
0.0037446134 0.0009721284 -0.003293895 0.0054843733 0.0059868027 0.006936854 -0.0030092918 0.0031257048
-0.0017708787 0.00047446397 0.0014065221 -0.00092364114 -0.0030463992 -0.0031916837 0.000645322 0.00087850523
-0.0018719602 0.002692959 0.00033631927 0.00504288 0.0032320085 -0.0035370819 0.0061420845 -0.0016758139
-0.0024402018 0.0008689021 -0.000807415 -0.0027343244 -0.0071237627 -0.0064737718 0.0031157313 -0.0070301658
0.0019580305 -0.0015476376 0.0027703876 0.00033842528 -0.0011455388 -0.006093424 -0.004181283 -0.0029279683
0.005621994 0.007920158 0.0005398052 -0.0007965152 -0.00025057042 0.00015149963 0.0025627257 0.0032958088
-0.008680256 0.0042609554 -0.0012556677 0.0027584957 -0.0024504792 0.0003447153 0.0026167552 7.740292e-05
0.00069633557 -0.0004235061 0.0014835288 -0.0057612965 -0.0013195447 0.0016460073 0.00047912294 0.00325616
-0.003326846 0.0011105508 -0.0033460977 -0.0029316347 0.0003543699 -0.0045670653 -0.0018993 -0.0024375909
-0.0022981428 -0.0028652942 0.00070870284 -0.00080529257 -0.002436703 0.0005775845 9.293668e-05 0.0042671147
0.0016722025 -0.001679762 0.003502997 -0.0028708351 0.0063809115 0.0020564054 -0.0012765777 -0.008619588
-0.0024131509 -0.0019923353 0.003585375 0.002134329 0.004616247 0.0027302671 0.0029542258 -0.0046084137
0.0003585251 0.0004904614 0.0019235851 -0.0013940476 -0.0057287687 -0.0013271011 0.00027769018 -0.0022865029

bns_conv.1.running_mean f4 [128]
00000000: 00d3 a03e a4dc d13e 7603 7f3e 207e fe3e
00000010: df8e d43e 56dc 903e ee53 003f 765a b13e
00000020: 0d4d ed3e b76b b33e f721 c63e b484 f43e
00000030: 68ea df3e d6ee ac3e 907c 013f c949 933e
00000040: 532f 8c3e 695e a83e bdc3 f63e 5f73 063f
00000050: fa0f 973e 0cdb b83e 603d f33e fc4f e73e
00000060: 64c1 a93e b0c2 c63e 36b9 173f cc1e a43e
00000070: f566 cb3e c1eb b03e 02f7 a13e 1ded e63e
00000080: 8e97 f53e c511 863e bfd0 bc3e f37e b33e
00000090: edd7 eb3e 8368 843e 4771 ca3e b8f7 cd3e
000000a0: 3cf1 943e 7abd 123f 50bc 9f3e 08a3 ab3e
000000b0: be19 c43e 299b bb3e 791f de3e 3b41 533e
000000c0: 38eb bb3e 8feb fb3e 6013 cc3e e8a4 ab3e
000000d0: b9ac 283f 6448 d73e 6e10 0b3f 4eda 783e
000000e0: e0e5 e93e e613 923e d00e a83e 75ef a93e
000000f0: 5b91 003f b837 c33e 75e2 073f ac48 073f
00000100: d45f bb3e dda4 cb3e 665e d93e d276 db3e
00000110: b8df d23e 1784 cc3e f819 a03e 4987 c23e
00000120: 95d2 e13e 6408 b13e dda5 ba3e e9be 0a3f
00000130: 23f5 183f 91c8 b93e e88a 853e cc07 bf3e
00000140: 1d86 963e 48a6 a73e 188d d13e b879 cf3e
00000150: 3619 973e b571 003f 4ce6 a93e e80b cd3e
00000160: 4b17 d73e 7a44 ab3e 21d4 983e 6953 c13e
00000170: 4d4a da3e e5f6 c63e 5d08 a03e 152f e83e
00000180: c3db d13e 26fe fe3e 9c3c f23e 9c23 da3e
00000190: d1ba c83e 0263 c83e 1891 ad3e 6fbf 7a3e
000001a0: fec6 ff3e 6d87 9a3e a09d 9d3e 7ac7 953e
000001b0: 7918 0e3f 1e0c d93e 441f c03e d557 d13e
000001c0: 22ae be3e dfe3 f53e 33ed df3e 9bda d23e
000001d0: 423a df3e 118b 933e a27d cf3e 8e12 aa3e
000001e0: d7c2 c13e 9c30 923e 431b ce3e 9b98 c43e
000001f0: a055 a13e 83b9 963e 92d8 a63e 8834 ae3e
0.3141098 0.40988648 0.24903664 0.497056 0.41515252 0.28293103 0.50128067 0.3463933
0.46347848 0.35043117 0.38697788 0.47757494 0.43733525 0.33775967 0.5058069 0.2876723
0.27379856 0.3288453 0.4819621 0.5251979 0.29504377 0.3610462 0.47507763 0.4517821
0.33155358 0.3882041 0.59266984 0.32054746 0.39726987 0.34554866 0.31633765 0.45102778
0.4796719 0.26185432 0.3687801 0.35057792 0.46063176 0.25860986 0.3953955 0.40228057
0.29090297 0.5732037 0.3119836 0.3352282 0.3830089 0.36641815 0.43383387 0.20630352
0.36702895 0.49203154 0.39858532 0.3352425 0.65888554 0.42047417 0.54321945 0.24302027
0.45683193 0.28530806 0.328238 0.33190504 0.50221795 0.38128448 0.5307992 0.52845263
0.3659655 0.39774218 0.42454833 0.4286409 0.4118631 0.39944527 0.31269813 0.3799384
0.44105974 0.34576714 0.3645467 0.54197556 0.5974905 0.36285833 0.2608254 0.37310636
0.29399195 0.3274405 0.40927958 0.40522552 0.29511422 0.50173503 0.33183515 0.40048146
0.4200996 0.3345068 0.29849342 0.3775895 0.42634812 0.3886024 0.3125638 0.4534842
0.40987977 0.49803275 0.47311866 0.42605293 0.3920503 0.39138037 0.3389976 0.24487089
0.49956506 0.30181447 0.3078432 0.2925375 0.5550609 0.42392057 0.37523854 0.40887323
0.37242228 0.48025414 0.43735656 0.41182408 0.43599135 0.28817037 0.40525538 0.3321728
0.37843964 0.2855271 0.40255174 0.3839768 0.3151064 0.2943841 0.32587105 0.34024453

bns_conv.1.running_var f4 [128]
00000000: c530 dc3d 0740 fd3e df86 363d 03f5 583f
00000010: bde4 373e 64c5 e53d da76 793e 4677 383e
00000020: 194a f33e b6ee 363e 4410 d13d b735 003f
00000030: 38d5 963e 67cc 043e 2122 963e e597 183f
00000040: f980 1c3e e01a c33d c05a 633e 4255 163f
00000050: 56b9 623e bea1 0d3e 4dab 1a3f b781 a23e
00000060: 5a96 4c3f f910 fd3e c53b 963f fa72 583e
00000070: 6b0f 2d3e 2da8 eb3d e9c6 5e3e da0f 123e
00000080: e55d 493e 92dd 293d 5c27 d23e 5701 e13d
00000090: 60c6 b03e 83f0 603e d885 c63e a485 653e
000000a0: f2b5 433e ba9c 843f 5a24 a33e c6e5 7b3d
000000b0: 2f4d a53e 0c5a 153e edb2 b33e 4d08 183d
000000c0: 176b 2a3e f5e3 c43d 1540 a33e a775 863e
000000d0: 5a0a ad3e 7d2d 043e c5f7 073f 6964 593e
000000e0: 5b73 a43e 55c8 ac3d eeca 323f 2b33 603e
000000f0: fe4b 853e c23a 133f e4b2 9b3e 79ec 963e
00000100: 2414 043f f77e 483e 5327 ba3e 3915 063f
00000110: 0efa e73d 2021 ec3e 5953 613f 1a1f b83f
00000120: 8817 463e 56a0 3e3e a866 073e a3f0 9f3f
00000130: 7e95 c83f 818e 353f ed01 b63e 5e4d 2e3e
00000140: 2193 783d 36d6 483e a120 893e cbc4 bc3e
00000150: d4d8 a73d f371 293f 3353 f53d 2222 a23e
00000160: 1a5d 0f3e 56af ba3e e889 9b3d 76b0 1f3e
00000170: 9d0d 2b3f 7d09 d73e 2525 293e a15d 983e
00000180: 313f 2e3e 9c51 623e 448f 2f3e 0c46 e63e
00000190: 38ce 023f cddc 2b3e e60e 453f 22ce 613d
000001a0: 5be8 1c3f 5418 893e e12b a43e 58d3 4d3f
000001b0: 38fe fd3e 5f65 3a3e d97b fd3d 57ad f13d
000001c0: 0ce0 f43e 7cd9 103f f590 e83e cbc1 e93e
000001d0: 1c08 0c3f 78f4 c93d 8eac 483e 7d14 563e
000001e0: 663b 133e 8d9e b63d 091a 833e 7590 103e
000001f0: 372d 843d 6397 1b3e 71d2 cc3d 08af 8b3e
0.107514895 0.4946291 0.044562217 0.8474886 0.1795835 0.1121929 0.24361745 0.18014249
0.4751747 0.17864498 0.102081805 0.5008196 0.29459548 0.12968598 0.29322913 0.5960677
0.15283574 0.095266104 0.22202587 0.58723843 0.22141013 0.13831231 0.60417634 0.3173959
0.7991692 0.49427012 1.173699 0.2113761 0.16900413 0.11506686 0.21755566 0.1426386
0.19664724 0.04147107 0.41045654 0.10986584 0.34526348 0.21966748 0.3877399 0.22414261
0.19112375 1.0360329 0.31863672 0.061498426 0.3228545 0.14585131 0.35097447 0.03711729
0.16642414 0.09613792 0.31884828 0.26261637 0.3379696 0.12907977 0.5311244 0.2122971
0.3211926 0.08436648 0.69840896 0.21894519 0.2603454 0.5751153 0.3040992 0.2947729
0.5159323 0.19579683 0.36358127 0.52376133 0.11326991 0.46119022 0.88017803 1.4384491
0.19344914 0.18615851 0.13222754 1.2495311 1.5670621 0.7092057 0.35548344 0.170217
0.060687188 0.19612965 0.26782706 0.3686889 0.081956536 0.661895 0.119787596 0.31666666
0.14000359 0.36461896 0.07594663 0.15594658 0.6681765 0.41999426 0.16518076 0.29758933
0.17016293 0.22101444 0.17144495 0.44975317 0.51095915 0.16783448 0.7697586 0.055128224
0.61292046 0.26776373 0.32064727 0.8040061 0.49608016 0.18202733 0.12377138 0.1180064
0.47827184 0.56581855 0.45423093 0.45655665 0.54699874 0.09861082 0.19597074 0.20906253
0.14378127 0.0891696 0.256058 0.14117606 0.064539365 0.15194468 0.10001076 0.27281976

bns_conv.2.weight f4 [128]
00000000: 437f 693f f0fb 693f edc3 6b3f d8b4 693f
00000010: 4baf 6a3f f12e 6a3f 6cb7 693f 44b5 693f
00000020: 1634 693f 06a7 6a3f 2a9c 693f 67bf 693f
00000030: 8d6a 693f e6ac 693f 89fc 693f d336 6a3f
00000040: 1c70 6a3f 5f77 6a3f a127 6a3f 6064 693f
00000050: 79e8 693f 0034 693f 62bc 693f 7562 693f
00000060: 98b6 693f 6acc 683f 6f7a 693f 8f85 6a3f
00000070: 7f58 6a3f b886 6a3f b5c4 6a3f c062 6a3f
00000080: dd67 693f d9fb 6a3f e28d 6a3f 3d1b 6a3f
00000090: 5790 693f 6b3a 693f 4ca7 6a3f a6c2 683f
000000a0: 7c92 693f 62d6 693f 9291 693f 1461 693f
000000b0: 9929 693f 97b1 6a3f 740f 6a3f 2fac 683f
000000c0: e74c 6b3f 3349 6b3f eadc 693f 4d33 693f
000000d0: 352a 6b3f 8186 693f e1cb 693f f583 6a3f
000000e0: 43e6 693f 5ba9 693f 60fb 693f b45d 6a3f
000000f0: 6207 6a3f 2b92 693f eece 693f abfb 6a3f
00000100: 3eca 6a3f bcdc 693f 7b69 693f dc72 683f
00000110: 4567 693f fdd9 693f 6800 6a3f 508d 693f
00000120: 32d1 693f e482 693f 84d6 683f 3716 683f
00000130: 17f6 683f ebd3 693f 8791 693f fb1c 6b3f
00000140: 1e22 693f 08a1 6a3f 7abf 6a3f 554a 6a3f
00000150: 1460 6b3f 4415 6a3f 35e1 693f 1da8 6b3f
00000160: 6b29 6a3f ebcf 693f baab 693f 405e 6a3f
00000170: 1977 693f f4a3 693f 0e82 693f f42e 6a3f
00000180: 7bfc 693f eedd 693f 9c00 6b3f e684 693f
00000190: e876 693f 95c2 6a3f 5bef 693f 55f9 693f
000001a0: 4ff8 693f a5c8 683f 2a83 693f ff60 6a3f
000001b0: 32d4 693f eb3b 6a3f f0a9 6a3f 8984 693f
000001c0: 2f9b 693f 5bfa 693f 8e0d 6a3f b2c7 693f
000001d0: 4ab0 683f 334b 693f 0486 6a3f 0810 6a3f
000001e0: 075c 6b3f 81d3 693f c911 693f 316a 6b3f
000001f0: 3417 6a3f 423f 6a3f d3c7 693f 8d8c 693f
0.9120981 0.9140005 0.92095834 0.9129157 0.91673726 0.91477877 0.91295505 0.91292214
0.910951 0.9166111 0.9125391 0.9130768 0.9117821 0.9127945 0.91400963 0.91489905
0.91577315 0.91588396 0.9146672 0.91168785 0.9137035 0.9109497 0.91303074 0.9116586
0.9129424 0.9093691 0.91202444 0.91610044 0.91541284 0.91611814 0.917064 0.9155693
0.9117411 0.9179054 0.91622746 0.9144781 0.9123587 0.91104764 0.91661525 0.9092201
0.9123914 0.9134275 0.9123775 0.91163754 0.910791 0.9167723 0.9142983 0.9088773
0.9191422 0.9190857 0.91352713 0.91093904 0.9186128 0.9122086 0.9132672 0.916076
0.91366976 0.9127404 0.9139919 0.9154923 0.91417515 0.9123866 0.91331375 0.91790265
0.9171485 0.9135244 0.91176575 0.9080026 0.911732 0.9134825 0.9140687 0.9123125
0.9133483 0.9121535 0.90952325 0.906589 0.91000503 0.91338986 0.9123768 0.91841096
0.91067684 0.91651964 0.9169842 0.9151967 0.9194348 0.914387 0.91359264 0.92053396
0.9146945 0.9133288 0.9127766 0.91550064 0.91197354 0.912658 0.9121407 0.91477895
0.9140088 0.9135426 0.91797805 0.9121841 0.9119706 0.9170316 0.9138085 0.91396075
0.91394514 0.9093116 0.91215765 0.91554254 0.9133941 0.9149768 0.91665554 0.9121786
0.91252416 0.9139764 0.9142693 0.91320336 0.90893996 0.9113037 0.9161074 0.9143071
0.919373 0.91338354 0.91042763 0.9195891 0.91441655 0.91502774 0.9132053 0.9123009

bns_conv.2.bias f4 [128]
00000000: f161 043b e798 38bb 2537 ec39 92e1 123b
00000010: 2074 f8bb 94da 453b c5ef 4c3a f2d0 26bb
00000020: 53e7 5cba ee7a 0a3b 8fa1 54b9 161b 8eb8
00000030: f55f 86bb b687 9ebb 6f06 8dba c883 86bb
00000040: db36 32bb b73c 3fbb 4167 88b9 e513 87b9
00000050: 9f6b 5e39 8a49 f73a 5d5f 8cba 6fc6 4a3b
00000060: 956a afba c561 883b d59c 92ba 1fe0 353a
00000070: c3f5 d3bb 94cd 0bb9 93db 8cbb 22ba c23a
00000080: 781f 2c39 1321 3abb ea23 e73a ab18 42bb
00000090: cc63 fb3a bef2 04bb c319 c43a 9366 39bb
000000a0: 7ebb 6fba ef55 5c3b 0f61 d939 6e44 3cbb
000000b0: be41 05ba c993 923b b554 613b 1771 6f3b
000000c0: 05ad c63b d029 7bbb 9da5 4dba b4b0 b63a
000000d0: 8c2e d8bb 9883 933b 6818 af3b e257 7036
000000e0: 9669 ccbb adf6 e53a 75d9 6b38 551b 3139
000000f0: 9de2 653b b6f2 d5ba 617c 6c3a 73c1 71bb
00000100: 97c1 243b 2ba9 abba abe6 023b 4d06 2dbb
00000110: 7fff 073b bf21 21ba 2a83 cabb cc32 a4ba
00000120: 8623 0fbb 8de5 283b 51b6 af3a f162 e23b
00000130: 3dec b13a fe6e 113b 9e77 97bb 8b23 3c3b
00000140: c22c ac3a 0376 f2b8 e0f8 14bb df89 29bb
00000150: d8ea 59bb ca16 10bb a77f 1e3a dc18 dfb9
00000160: 4fb4 d6ba d9c8 2d38 d671 6dba 892f 433b
00000170: 5b36 3f39 78ce 3f38 7704 21ba 7a99 21bb
00000180: d1c5 c9ba 82b9 6d3b ed7b b43a 0f08 a639
00000190: a82d 8f3b ea83 163a 10e5 18bb 3158 2939
000001a0: 4cef 9abb 095c cf3a f39f 503b 716d df3a
000001b0: a81f f73a 154d 5dbb ae9c 9bba 0eac 04bb
000001c0: d4aa f5b9 38e8 53ba 0fc8 91ba a210 faba
000001d0: e279 303b e944 3fbb ee93 0ebb b268 67bb
000001e0: d25a 273b 2485 9b3b b89c 253b 611f 1fbb
000001f0: 47df ad3b eee2 a839 6a62 d83a 09ef 0cba
0.002019998 -0.0028167309 0.00045054514 0.0022412282 -0.0075822026 0.0030190097 0.0007817711 -0.002545413
-0.0008426804 0.00211304 -0.00020278081 -6.776133e-05 -0.0041007944 -0.0048379553 -0.0010759364 -0.004105065
-0.002719334 -0.0029180476 -0.00026016872 -0.0002576403 0.00021211662 0.0018866521 -0.0010709573 0.003094103
-0.0013383204 0.0041620457 -0.0011185656 0.00069379987 -0.006468506 -0.00013332657 -0.004298636 0.0014856497
0.00016414921 -0.0028401061 0.0017634605 -0.0029616754 0.0019179522 -0.0020286287 0.0014961291 -0.0028289899
-0.0009145065 0.0033620556 0.0004146178 -0.002872731 -0.0005083344 0.004473184 0.0034382765 0.0036535913
0.006063106 -0.0038324483 -0.00078448077 0.001393816 -0.0065973457 0.004501771 0.0053434856 3.5813941e-06
-0.0062381728 0.0017544829 5.623089e-05 0.00016890217 0.00350777 -0.0016322944 0.00090212194 -0.0036888986
0.0025139803 -0.0013096681 0.0019973915 -0.002640146 0.0020751653 -0.0006146691 -0.0061801868 -0.0012527346
-0.0021841242 0.0025771589 0.0013405775 0.0069087674 0.0013574433 0.00221914 -0.004622414 0.0028707709
0.0013135897 -0.000115614406 -0.002273135 -0.002586953 -0.003325155 -0.002198624 0.00060462434 -0.00042552396
-0.001638064 4.1433468e-05 -0.00090577954 0.0029782972 0.00018235428 4.5730238e-05 -0.0006142328 -0.002465813
-0.0015394037 0.0036273901 0.0013769843 0.0003166799 0.0043694563 0.00057417026 -0.0023329891 0.0001614995
-0.0047282334 0.0015820275 0.0031833618 0.0017046166 0.0018854039 -0.0033767868 -0.0011872256 -0.0020244154
-0.00046857318 -0.00080836145 -0.0011122244 -0.0019078443 0.0026928117 -0.002918536 -0.0021755653 -0.0035310206
0.002553631 0.004746096 0.0025270414 -0.0024280178 0.0053061577 0.00032212533 0.0016508822 -0.0005376195

bns_conv.2.running_mean f4 [128]
00000000: 1ca0 4a3f 98be 243f bb77 f33e c8af 353f
00000010: 3baa 493f fd11 2a3f 19a5 3a3f 5fe0 333f
00000020: e967 473f e546 063f 4f09 283f 9060 713f
00000030: 41c9 343f 88e8 063f d787 473f 559a 113f
00000040: cf46 073f 15b9 2f3f b8cc 423f 5129 583f
00000050: 1876 123f bca2 1b3f 89aa 5a3f 4b0d 393f
00000060: bcfd 1c3f 6808 1f3f aa98 5c3f 9313 193f
00000070: f3ef 283f feff 403f 83fc fe3e 5cb8 643f
00000080: 6a46 413f b7d6 0e3f d08e 313f cffe 0f3f
00000090: ce7c 1e3f e687 063f 069c 2d3f 44b4 213f
000000a0: 5a33 0f3f 8a28 663f c62d 1e3f 65f7 203f
000000b0: 841e 193f 834d 293f 1970 2a3f 9e61 0a3f
000000c0: 37cb 243f 111a 2f3f a03f 233f fbbb 253f
000000d0: 3619 6f3f 0353 593f 2347 433f c424 e23e
000000e0: b66e 4f3f 454c fc3e 9943 0d3f 5ef2 0a3f
000000f0: 2383 3e3f 0131 283f 3e2f 653f fecc 393f
00000100: 15fa 1b3f 0c41 3a3f 4d39 3a3f 311d 303f
00000110: 34d6 453f 1217 4e3f 8335 1f3f d0f2 0e3f
00000120: cb4d 393f d159 3c3f c5c4 1b3f 78c0 803f
00000130: 9199 483f f66c 243f c41a 083f cf75 0f3f
00000140: 02a6 243f bb4d 423f 8894 323f 9caa 493f
00000150: 9a67 343f 9bf0 5c3f 66fd 323f 3158 283f
00000160: faec 313f a7fd 1c3f 6e6c 083f 4fa7 173f
00000170: 2be6 273f b369 213f 04a3 ff3e 3d46 643f
00000180: 318e 313f 330e 373f 5437 4a3f 8e0a 623f
00000190: bb9b 243f e9ff 273f 4e21 1b3f 778d 183f
000001a0: 84d1 603f 5d76 e83e 1b63 1c3f e9f3 293f
000001b0: 4619 4f3f 563d 1d3f 2973 493f de61 453f
000001c0: 89ee 273f 5453 5c3f b9fb 273f 9356 363f
000001d0: 65fb 633f 7bc8 303f d229 1e3f bcbe fc3e
000001e0: ba34 313f ce39 123f 49ee 333f 0743 1f3f
000001f0: b627 1d3f e34d 2f3f 36c5 0b3f ef24 103f
0.7915056 0.64353323 0.47552285 0.70971346 0.78775376 0.664337 0.7290817 0.7026424
0.7789293 0.52451926 0.65639204 0.9428797 0.7061959 0.52698565 0.7794165 0.56876117
0.5284242 0.6864179 0.76093626 0.84438044 0.57211447 0.6079519 0.85416466 0.7228591
0.6132467 0.621222 0.86170447 0.5979549 0.65991133 0.75390613 0.49802026 0.8934381
0.7549807 0.5579638 0.6935854 0.5624818 0.61909187 0.52551115 0.678162 0.6316569
0.5593773 0.8990561 0.61788595 0.62877494 0.5981219 0.661339 0.665773 0.540552
0.6437258 0.6839915 0.6376896 0.6473996 0.93397844 0.8489229 0.7628042 0.44168675
0.81028306 0.4927694 0.5518127 0.5427607 0.7441885 0.65699774 0.8952521 0.7257842
0.6092847 0.72755504 0.72743684 0.6879454 0.77279973 0.8050395 0.6219103 0.5583925
0.7238433 0.7357455 0.6084712 1.0058737 0.78359324 0.6422876 0.5316584 0.56039137
0.6431581 0.7589986 0.6975789 0.78775954 0.70470583 0.86304635 0.69917905 0.6575957
0.6950222 0.6132454 0.5329045 0.5923967 0.65585583 0.6305191 0.4992906 0.89169675
0.6935759 0.7150604 0.78990674 0.88297355 0.64300126 0.6562486 0.60597694 0.5959086
0.87819695 0.45402804 0.6108872 0.663878 0.8089794 0.61421716 0.78691345 0.7710246
0.6559835 0.8606465 0.65618473 0.7122585 0.8905547 0.6905591 0.6178256 0.4936427
0.6922108 0.5711945 0.7028547 0.6221165 0.6138872 0.6847822 0.54597795 0.56306356

bns_conv.2.running_var f4 [128]
00000000: 30fc 0c3f 8696 b73f 6e7f ff3d c9d0 5c3f
00000010: d5a6 933f dd61 2f3f 7556 3c3f 463e 903f
00000020: 9dc8 fc3e f442 803e ae8f b43e 4913 893f
00000030: 7a00 263f 462e 493e dd68 a63f 0d23 953f
00000040: 82e8 8a3e c62f d03e ba0d ea3e 94e0 183f
00000050: 93cb a03e ea05 ab3e 448e 3840 c412 0f3f
00000060: 7d97 493f 9a5c e63e fec3 f83f b96d ed3e
00000070: 803e c23e f18c 4f3f d110 c23e 0a9c e53e
00000080: 0b18 5f3f cd04 f43e 0848 d33e bbe2 193f
00000090: ad4a 0a3f 6369 ad3f 4ec1 133f 67f1 cf3e
000000a0: 4305 4b3f d14b 1e40 2338 883f 9e18 ad3e
000000b0: 9598 c43e 8eb0 cf3e 2b52 a93e 3809 923e
000000c0: 857c 3b3e 2f3b 573e 9fa0 0c3f 746b 433f
000000d0: c340 c43e 66ac 863f 9474 093f 8dbf 933e
000000e0: a29d 9b3e 2f4c 953e 3b63 5b3f 1945 2f3f
000000f0: 3f90 c43e 2838 1d3f b838 0c40 f667 263f
00000100: 9d2f 433f 2c6e 383f f925 063f ba27 7a3f
00000110: 8813 033f ae23 f33f 5ed0 3440 ba48 1140
00000120: afb8 833f f968 253f d0a1 333f 1f03 3640
00000130: 8f3f c33f 43b4 763f fe3e 9d3f 7eb5 db3e
00000140: d8f0 c03e d8bd 953f 8265 8f3e 0cbf bd3e
00000150: 57da 043f 66b9 3d3f 5297 083f d9b2 a63e
00000160: 8fbb f13e 6c0b 333f 902d ed3e dcee 863e
00000170: 2156 933f 41ce 0c3f f4c1 df3e 126c 9a3f
00000180: 8a81 f03e ef33 b23e afcb 923e 34d8 353f
00000190: 8d95 413f 0ef1 a63e 88d2 1840 d107 0a3f
000001a0: 320d be3f f534 8d3e 1043 553f 9d17 c63f
000001b0: 5fb9 343f dce6 313f e3e6 1a3f de91 ec3e
000001c0: a48e bb3f 2c7b d53f 889f 8a3f 4df4 fd3e
000001d0: 2877 a23f 2c5c 1a3e b018 9c3e bb09 b83e
000001e0: 59b9 863e 363c 8f3e 6a00 2b3f a8c1 383e
000001f0: fce2 873e dd7f 303f 27fd 173f 56ab 8c3e
0.5507231 1.4342811 0.12475477 0.8625608 1.1535288 0.685087 0.7356942 1.1269004
0.49371806 0.2505108 0.3526587 1.070901 0.6484448 0.19646558 1.3000752 1.1651322
0.27130514 0.40661448 0.45713598 0.5971768 0.31405315 0.3340295 2.8836832 0.5588801
0.7874678 0.44992524 1.9434812 0.46372774 0.3793831 0.81074435 0.37903455 0.4484561
0.8714606 0.47659913 0.41265893 0.6011159 0.54020196 1.3547786 0.57716835 0.40613863
0.79304904 2.4733775 1.0642132 0.33807844 0.3839766 0.40564388 0.33070502 0.28522658
0.18309219 0.2101867 0.5493259 0.76335835 0.3833066 1.0521362 0.5369351 0.2885708
0.30393702 0.29159686 0.8569829 0.6846481 0.383913 0.6141381 2.1909618 0.6500238
0.7624453 0.7204311 0.5240169 0.9771687 0.5120168 1.8995264 2.8252177 2.2700639
1.0290736 0.646133 0.7016878 2.8439405 1.5253772 0.9636881 1.2284849 0.42911905
0.3768375 1.1698561 0.28007132 0.3705982 0.5189566 0.7411102 0.53355896 0.32558325
0.47213408 0.69939303 0.46323824 0.2635411 1.151066 0.5500222 0.43702662 1.206423
0.4697383 0.34805247 0.28671023 0.71033025 0.7561882 0.32605785 2.3878498 0.53918177
1.4847777 0.27579466 0.83305454 1.5475956 0.70595354 0.6949289 0.60508555 0.46205038
1.4652905 1.6678214 1.0829935 0.4960045 1.2692614 0.15074223 0.30487585 0.35944924
0.26313284 0.27975625 0.66797507 0.18042624 0.26540363 0.68945104 0.59370655 0.2747447
